{"class_name": "Functional", "config": {"name": "functional_1", "layers": [{"class_name": "InputLayer", "config": {"batch_input_shape": [null, null, null, 3], "dtype": "float32", "sparse": false, "ragged": false, "name": "input_1"}, "name": "input_1", "inbound_nodes": []}, {"class_name": "TensorFlowOpLayer", "config": {"name": "Conv2D", "trainable": true, "dtype": "float32", "node_def": {"name": "Conv2D", "op": "Conv2D", "input": ["input_1", "Conv2D/filter"], "attr": {"T": {"type": "DT_FLOAT"}, "strides": {"list": {"i": ["1", "1", "1", "1"]}}, "use_cudnn_on_gpu": {"b": true}, "padding": {"s": "U0FNRQ=="}, "explicit_paddings": {"list": {}}, "dilations": {"list": {"i": ["1", "1", "1", "1"]}}, "data_format": {"s": "TkhXQw=="}}}, "constants": {"1": [[[[1.0, 0.0, 0.0], [0.0, 1.0, 0.0], [0.0, 0.0, 1.0]]]]}}, "name": "tf_op_layer_Conv2D", "inbound_nodes": [[["input_1", 0, 0, {}]]]}, {"class_name": "TensorFlowOpLayer", "config": {"name": "AddV2", "trainable": true, "dtype": "float32", "node_def": {"name": "AddV2", "op": "AddV2", "input": ["Conv2D", "AddV2/y"], "attr": {"T": {"type": "DT_FLOAT"}}}, "constants": {"1": [-114.44400024414062, -111.46050262451172, -103.0199966430664]}}, "name": "tf_op_layer_AddV2", "inbound_nodes": [[["tf_op_layer_Conv2D", 0, 0, {}]]]}, {"class_name": "Conv2D", "config": {"name": "conv2d", "trainable": true, "dtype": "float32", "filters": 64, "kernel_size": [3, 3], "strides": [1, 1], "padding": "same", "data_format": "channels_last", "dilation_rate": [1, 1], "groups": 1, "activation": "linear", "use_bias": true, "kernel_initializer": {"class_name": "RandomUniform", "config": {"minval": -0.19245008972987526, "maxval": 0.19245008972987526, "seed": null}}, "bias_initializer": {"class_name": "RandomUniform", "config": {"minval": -0.19245008972987526, "maxval": 0.19245008972987526, "seed": null}}, "kernel_regularizer": null, "bias_regularizer": null, "activity_regularizer": null, "kernel_constraint": null, "bias_constraint": null}, "name": "conv2d", "inbound_nodes": [[["tf_op_layer_AddV2", 0, 0, {}]]]}, {"class_name": "Conv2D", "config": {"name": "conv2d_1", "trainable": true, "dtype": "float32", "filters": 64, "kernel_size": [3, 3], "strides": [1, 1], "padding": "same", "data_format": "channels_last", "dilation_rate": [1, 1], "groups": 1, "activation": "linear", "use_bias": true, "kernel_initializer": {"class_name": "RandomUniform", "config": {"minval": -0.041666666666666664, "maxval": 0.041666666666666664, "seed": null}}, "bias_initializer": {"class_name": "RandomUniform", "config": {"minval": -0.041666666666666664, "maxval": 0.041666666666666664, "seed": null}}, "kernel_regularizer": null, "bias_regularizer": null, "activity_regularizer": null, "kernel_constraint": null, "bias_constraint": null}, "name": "conv2d_1", "inbound_nodes": [[["conv2d", 0, 0, {}]]]}, {"class_name": "ReLU", "config": {"name": "re_lu", "trainable": true, "dtype": "float32", "max_value": null, "negative_slope": 0.0, "threshold": 0.0}, "name": "re_lu", "inbound_nodes": [[["conv2d_1", 0, 0, {}]]]}, {"class_name": "Conv2D", "config": {"name": "conv2d_2", "trainable": true, "dtype": "float32", "filters": 64, "kernel_size": [3, 3], "strides": [1, 1], "padding": "same", "data_format": "channels_last", "dilation_rate": [1, 1], "groups": 1, "activation": "linear", "use_bias": true, "kernel_initializer": {"class_name": "RandomUniform", "config": {"minval": -0.041666666666666664, "maxval": 0.041666666666666664, "seed": null}}, "bias_initializer": {"class_name": "RandomUniform", "config": {"minval": -0.041666666666666664, "maxval": 0.041666666666666664, "seed": null}}, "kernel_regularizer": null, "bias_regularizer": null, "activity_regularizer": null, "kernel_constraint": null, "bias_constraint": null}, "name": "conv2d_2", "inbound_nodes": [[["re_lu", 0, 0, {}]]]}, {"class_name": "TensorFlowOpLayer", "config": {"name": "Mean", "trainable": true, "dtype": "float32", "node_def": {"name": "Mean", "op": "Mean", "input": ["conv2d_2/BiasAdd", "Mean/reduction_indices"], "attr": {"T": {"type": "DT_FLOAT"}, "keep_dims": {"b": true}, "Tidx": {"type": "DT_INT32"}}}, "constants": {"1": [1, 2]}}, "name": "tf_op_layer_Mean", "inbound_nodes": [[["conv2d_2", 0, 0, {}]]]}, {"class_name": "Conv2D", "config": {"name": "conv2d_3", "trainable": true, "dtype": "float32", "filters": 4, "kernel_size": [1, 1], "strides": [1, 1], "padding": "same", "data_format": "channels_last", "dilation_rate": [1, 1], "groups": 1, "activation": "relu", "use_bias": true, "kernel_initializer": {"class_name": "RandomUniform", "config": {"minval": -0.125, "maxval": 0.125, "seed": null}}, "bias_initializer": {"class_name": "RandomUniform", "config": {"minval": -0.125, "maxval": 0.125, "seed": null}}, "kernel_regularizer": null, "bias_regularizer": null, "activity_regularizer": null, "kernel_constraint": null, "bias_constraint": null}, "name": "conv2d_3", "inbound_nodes": [[["tf_op_layer_Mean", 0, 0, {}]]]}, {"class_name": "Conv2D", "config": {"name": "conv2d_4", "trainable": true, "dtype": "float32", "filters": 64, "kernel_size": [1, 1], "strides": [1, 1], "padding": "same", "data_format": "channels_last", "dilation_rate": [1, 1], "groups": 1, "activation": "sigmoid", "use_bias": true, "kernel_initializer": {"class_name": "RandomUniform", "config": {"minval": -0.5, "maxval": 0.5, "seed": null}}, "bias_initializer": {"class_name": "RandomUniform", "config": {"minval": -0.5, "maxval": 0.5, "seed": null}}, "kernel_regularizer": null, "bias_regularizer": null, "activity_regularizer": null, "kernel_constraint": null, "bias_constraint": null}, "name": "conv2d_4", "inbound_nodes": [[["conv2d_3", 0, 0, {}]]]}, {"class_name": "Multiply", "config": {"name": "multiply", "trainable": true, "dtype": "float32"}, "name": "multiply", "inbound_nodes": [[["conv2d_4", 0, 0, {}], ["conv2d_2", 0, 0, {}]]]}, {"class_name": "Add", "config": {"name": "add", "trainable": true, "dtype": "float32"}, "name": "add", "inbound_nodes": [[["multiply", 0, 0, {}], ["conv2d", 0, 0, {}]]]}, {"class_name": "Conv2D", "config": {"name": "conv2d_5", "trainable": true, "dtype": "float32", "filters": 64, "kernel_size": [3, 3], "strides": [1, 1], "padding": "same", "data_format": "channels_last", "dilation_rate": [1, 1], "groups": 1, "activation": "linear", "use_bias": true, "kernel_initializer": {"class_name": "RandomUniform", "config": {"minval": -0.041666666666666664, "maxval": 0.041666666666666664, "seed": null}}, "bias_initializer": {"class_name": "RandomUniform", "config": {"minval": -0.041666666666666664, "maxval": 0.041666666666666664, "seed": null}}, "kernel_regularizer": null, "bias_regularizer": null, "activity_regularizer": null, "kernel_constraint": null, "bias_constraint": null}, "name": "conv2d_5", "inbound_nodes": [[["add", 0, 0, {}]]]}, {"class_name": "ReLU", "config": {"name": "re_lu_1", "trainable": true, "dtype": "float32", "max_value": null, "negative_slope": 0.0, "threshold": 0.0}, "name": "re_lu_1", "inbound_nodes": [[["conv2d_5", 0, 0, {}]]]}, {"class_name": "Conv2D", "config": {"name": "conv2d_6", "trainable": true, "dtype": "float32", "filters": 64, "kernel_size": [3, 3], "strides": [1, 1], "padding": "same", "data_format": "channels_last", "dilation_rate": [1, 1], "groups": 1, "activation": "linear", "use_bias": true, "kernel_initializer": {"class_name": "RandomUniform", "config": {"minval": -0.041666666666666664, "maxval": 0.041666666666666664, "seed": null}}, "bias_initializer": {"class_name": "RandomUniform", "config": {"minval": -0.041666666666666664, "maxval": 0.041666666666666664, "seed": null}}, "kernel_regularizer": null, "bias_regularizer": null, "activity_regularizer": null, "kernel_constraint": null, "bias_constraint": null}, "name": "conv2d_6", "inbound_nodes": [[["re_lu_1", 0, 0, {}]]]}, {"class_name": "TensorFlowOpLayer", "config": {"name": "Mean_1", "trainable": true, "dtype": "float32", "node_def": {"name": "Mean_1", "op": "Mean", "input": ["conv2d_6/BiasAdd", "Mean_1/reduction_indices"], "attr": {"keep_dims": {"b": true}, "T": {"type": "DT_FLOAT"}, "Tidx": {"type": "DT_INT32"}}}, "constants": {"1": [1, 2]}}, "name": "tf_op_layer_Mean_1", "inbound_nodes": [[["conv2d_6", 0, 0, {}]]]}, {"class_name": "Conv2D", "config": {"name": "conv2d_7", "trainable": true, "dtype": "float32", "filters": 4, "kernel_size": [1, 1], "strides": [1, 1], "padding": "same", "data_format": "channels_last", "dilation_rate": [1, 1], "groups": 1, "activation": "relu", "use_bias": true, "kernel_initializer": {"class_name": "RandomUniform", "config": {"minval": -0.125, "maxval": 0.125, "seed": null}}, "bias_initializer": {"class_name": "RandomUniform", "config": {"minval": -0.125, "maxval": 0.125, "seed": null}}, "kernel_regularizer": null, "bias_regularizer": null, "activity_regularizer": null, "kernel_constraint": null, "bias_constraint": null}, "name": "conv2d_7", "inbound_nodes": [[["tf_op_layer_Mean_1", 0, 0, {}]]]}, {"class_name": "Conv2D", "config": {"name": "conv2d_8", "trainable": true, "dtype": "float32", "filters": 64, "kernel_size": [1, 1], "strides": [1, 1], "padding": "same", "data_format": "channels_last", "dilation_rate": [1, 1], "groups": 1, "activation": "sigmoid", "use_bias": true, "kernel_initializer": {"class_name": "RandomUniform", "config": {"minval": -0.5, "maxval": 0.5, "seed": null}}, "bias_initializer": {"class_name": "RandomUniform", "config": {"minval": -0.5, "maxval": 0.5, "seed": null}}, "kernel_regularizer": null, "bias_regularizer": null, "activity_regularizer": null, "kernel_constraint": null, "bias_constraint": null}, "name": "conv2d_8", "inbound_nodes": [[["conv2d_7", 0, 0, {}]]]}, {"class_name": "Multiply", "config": {"name": "multiply_1", "trainable": true, "dtype": "float32"}, "name": "multiply_1", "inbound_nodes": [[["conv2d_8", 0, 0, {}], ["conv2d_6", 0, 0, {}]]]}, {"class_name": "Add", "config": {"name": "add_1", "trainable": true, "dtype": "float32"}, "name": "add_1", "inbound_nodes": [[["multiply_1", 0, 0, {}], ["add", 0, 0, {}]]]}, {"class_name": "Conv2D", "config": {"name": "conv2d_9", "trainable": true, "dtype": "float32", "filters": 64, "kernel_size": [3, 3], "strides": [1, 1], "padding": "same", "data_format": "channels_last", "dilation_rate": [1, 1], "groups": 1, "activation": "linear", "use_bias": true, "kernel_initializer": {"class_name": "RandomUniform", "config": {"minval": -0.041666666666666664, "maxval": 0.041666666666666664, "seed": null}}, "bias_initializer": {"class_name": "RandomUniform", "config": {"minval": -0.041666666666666664, "maxval": 0.041666666666666664, "seed": null}}, "kernel_regularizer": null, "bias_regularizer": null, "activity_regularizer": null, "kernel_constraint": null, "bias_constraint": null}, "name": "conv2d_9", "inbound_nodes": [[["add_1", 0, 0, {}]]]}, {"class_name": "ReLU", "config": {"name": "re_lu_2", "trainable": true, "dtype": "float32", "max_value": null, "negative_slope": 0.0, "threshold": 0.0}, "name": "re_lu_2", "inbound_nodes": [[["conv2d_9", 0, 0, {}]]]}, {"class_name": "Conv2D", "config": {"name": "conv2d_10", "trainable": true, "dtype": "float32", "filters": 64, "kernel_size": [3, 3], "strides": [1, 1], "padding": "same", "data_format": "channels_last", "dilation_rate": [1, 1], "groups": 1, "activation": "linear", "use_bias": true, "kernel_initializer": {"class_name": "RandomUniform", "config": {"minval": -0.041666666666666664, "maxval": 0.041666666666666664, "seed": null}}, "bias_initializer": {"class_name": "RandomUniform", "config": {"minval": -0.041666666666666664, "maxval": 0.041666666666666664, "seed": null}}, "kernel_regularizer": null, "bias_regularizer": null, "activity_regularizer": null, "kernel_constraint": null, "bias_constraint": null}, "name": "conv2d_10", "inbound_nodes": [[["re_lu_2", 0, 0, {}]]]}, {"class_name": "TensorFlowOpLayer", "config": {"name": "Mean_2", "trainable": true, "dtype": "float32", "node_def": {"name": "Mean_2", "op": "Mean", "input": ["conv2d_10/BiasAdd", "Mean_2/reduction_indices"], "attr": {"Tidx": {"type": "DT_INT32"}, "T": {"type": "DT_FLOAT"}, "keep_dims": {"b": true}}}, "constants": {"1": [1, 2]}}, "name": "tf_op_layer_Mean_2", "inbound_nodes": [[["conv2d_10", 0, 0, {}]]]}, {"class_name": "Conv2D", "config": {"name": "conv2d_11", "trainable": true, "dtype": "float32", "filters": 4, "kernel_size": [1, 1], "strides": [1, 1], "padding": "same", "data_format": "channels_last", "dilation_rate": [1, 1], "groups": 1, "activation": "relu", "use_bias": true, "kernel_initializer": {"class_name": "RandomUniform", "config": {"minval": -0.125, "maxval": 0.125, "seed": null}}, "bias_initializer": {"class_name": "RandomUniform", "config": {"minval": -0.125, "maxval": 0.125, "seed": null}}, "kernel_regularizer": null, "bias_regularizer": null, "activity_regularizer": null, "kernel_constraint": null, "bias_constraint": null}, "name": "conv2d_11", "inbound_nodes": [[["tf_op_layer_Mean_2", 0, 0, {}]]]}, {"class_name": "Conv2D", "config": {"name": "conv2d_12", "trainable": true, "dtype": "float32", "filters": 64, "kernel_size": [1, 1], "strides": [1, 1], "padding": "same", "data_format": "channels_last", "dilation_rate": [1, 1], "groups": 1, "activation": "sigmoid", "use_bias": true, "kernel_initializer": {"class_name": "RandomUniform", "config": {"minval": -0.5, "maxval": 0.5, "seed": null}}, "bias_initializer": {"class_name": "RandomUniform", "config": {"minval": -0.5, "maxval": 0.5, "seed": null}}, "kernel_regularizer": null, "bias_regularizer": null, "activity_regularizer": null, "kernel_constraint": null, "bias_constraint": null}, "name": "conv2d_12", "inbound_nodes": [[["conv2d_11", 0, 0, {}]]]}, {"class_name": "Multiply", "config": {"name": "multiply_2", "trainable": true, "dtype": "float32"}, "name": "multiply_2", "inbound_nodes": [[["conv2d_12", 0, 0, {}], ["conv2d_10", 0, 0, {}]]]}, {"class_name": "Add", "config": {"name": "add_2", "trainable": true, "dtype": "float32"}, "name": "add_2", "inbound_nodes": [[["multiply_2", 0, 0, {}], ["add_1", 0, 0, {}]]]}, {"class_name": "Conv2D", "config": {"name": "conv2d_13", "trainable": true, "dtype": "float32", "filters": 64, "kernel_size": [3, 3], "strides": [1, 1], "padding": "same", "data_format": "channels_last", "dilation_rate": [1, 1], "groups": 1, "activation": "linear", "use_bias": true, "kernel_initializer": {"class_name": "RandomUniform", "config": {"minval": -0.041666666666666664, "maxval": 0.041666666666666664, "seed": null}}, "bias_initializer": {"class_name": "RandomUniform", "config": {"minval": -0.041666666666666664, "maxval": 0.041666666666666664, "seed": null}}, "kernel_regularizer": null, "bias_regularizer": null, "activity_regularizer": null, "kernel_constraint": null, "bias_constraint": null}, "name": "conv2d_13", "inbound_nodes": [[["add_2", 0, 0, {}]]]}, {"class_name": "ReLU", "config": {"name": "re_lu_3", "trainable": true, "dtype": "float32", "max_value": null, "negative_slope": 0.0, "threshold": 0.0}, "name": "re_lu_3", "inbound_nodes": [[["conv2d_13", 0, 0, {}]]]}, {"class_name": "Conv2D", "config": {"name": "conv2d_14", "trainable": true, "dtype": "float32", "filters": 64, "kernel_size": [3, 3], "strides": [1, 1], "padding": "same", "data_format": "channels_last", "dilation_rate": [1, 1], "groups": 1, "activation": "linear", "use_bias": true, "kernel_initializer": {"class_name": "RandomUniform", "config": {"minval": -0.041666666666666664, "maxval": 0.041666666666666664, "seed": null}}, "bias_initializer": {"class_name": "RandomUniform", "config": {"minval": -0.041666666666666664, "maxval": 0.041666666666666664, "seed": null}}, "kernel_regularizer": null, "bias_regularizer": null, "activity_regularizer": null, "kernel_constraint": null, "bias_constraint": null}, "name": "conv2d_14", "inbound_nodes": [[["re_lu_3", 0, 0, {}]]]}, {"class_name": "TensorFlowOpLayer", "config": {"name": "Mean_3", "trainable": true, "dtype": "float32", "node_def": {"name": "Mean_3", "op": "Mean", "input": ["conv2d_14/BiasAdd", "Mean_3/reduction_indices"], "attr": {"Tidx": {"type": "DT_INT32"}, "keep_dims": {"b": true}, "T": {"type": "DT_FLOAT"}}}, "constants": {"1": [1, 2]}}, "name": "tf_op_layer_Mean_3", "inbound_nodes": [[["conv2d_14", 0, 0, {}]]]}, {"class_name": "Conv2D", "config": {"name": "conv2d_15", "trainable": true, "dtype": "float32", "filters": 4, "kernel_size": [1, 1], "strides": [1, 1], "padding": "same", "data_format": "channels_last", "dilation_rate": [1, 1], "groups": 1, "activation": "relu", "use_bias": true, "kernel_initializer": {"class_name": "RandomUniform", "config": {"minval": -0.125, "maxval": 0.125, "seed": null}}, "bias_initializer": {"class_name": "RandomUniform", "config": {"minval": -0.125, "maxval": 0.125, "seed": null}}, "kernel_regularizer": null, "bias_regularizer": null, "activity_regularizer": null, "kernel_constraint": null, "bias_constraint": null}, "name": "conv2d_15", "inbound_nodes": [[["tf_op_layer_Mean_3", 0, 0, {}]]]}, {"class_name": "Conv2D", "config": {"name": "conv2d_16", "trainable": true, "dtype": "float32", "filters": 64, "kernel_size": [1, 1], "strides": [1, 1], "padding": "same", "data_format": "channels_last", "dilation_rate": [1, 1], "groups": 1, "activation": "sigmoid", "use_bias": true, "kernel_initializer": {"class_name": "RandomUniform", "config": {"minval": -0.5, "maxval": 0.5, "seed": null}}, "bias_initializer": {"class_name": "RandomUniform", "config": {"minval": -0.5, "maxval": 0.5, "seed": null}}, "kernel_regularizer": null, "bias_regularizer": null, "activity_regularizer": null, "kernel_constraint": null, "bias_constraint": null}, "name": "conv2d_16", "inbound_nodes": [[["conv2d_15", 0, 0, {}]]]}, {"class_name": "Multiply", "config": {"name": "multiply_3", "trainable": true, "dtype": "float32"}, "name": "multiply_3", "inbound_nodes": [[["conv2d_16", 0, 0, {}], ["conv2d_14", 0, 0, {}]]]}, {"class_name": "Add", "config": {"name": "add_3", "trainable": true, "dtype": "float32"}, "name": "add_3", "inbound_nodes": [[["multiply_3", 0, 0, {}], ["add_2", 0, 0, {}]]]}, {"class_name": "Conv2D", "config": {"name": "conv2d_17", "trainable": true, "dtype": "float32", "filters": 64, "kernel_size": [3, 3], "strides": [1, 1], "padding": "same", "data_format": "channels_last", "dilation_rate": [1, 1], "groups": 1, "activation": "linear", "use_bias": true, "kernel_initializer": {"class_name": "RandomUniform", "config": {"minval": -0.041666666666666664, "maxval": 0.041666666666666664, "seed": null}}, "bias_initializer": {"class_name": "RandomUniform", "config": {"minval": -0.041666666666666664, "maxval": 0.041666666666666664, "seed": null}}, "kernel_regularizer": null, "bias_regularizer": null, "activity_regularizer": null, "kernel_constraint": null, "bias_constraint": null}, "name": "conv2d_17", "inbound_nodes": [[["add_3", 0, 0, {}]]]}, {"class_name": "ReLU", "config": {"name": "re_lu_4", "trainable": true, "dtype": "float32", "max_value": null, "negative_slope": 0.0, "threshold": 0.0}, "name": "re_lu_4", "inbound_nodes": [[["conv2d_17", 0, 0, {}]]]}, {"class_name": "Conv2D", "config": {"name": "conv2d_18", "trainable": true, "dtype": "float32", "filters": 64, "kernel_size": [3, 3], "strides": [1, 1], "padding": "same", "data_format": "channels_last", "dilation_rate": [1, 1], "groups": 1, "activation": "linear", "use_bias": true, "kernel_initializer": {"class_name": "RandomUniform", "config": {"minval": -0.041666666666666664, "maxval": 0.041666666666666664, "seed": null}}, "bias_initializer": {"class_name": "RandomUniform", "config": {"minval": -0.041666666666666664, "maxval": 0.041666666666666664, "seed": null}}, "kernel_regularizer": null, "bias_regularizer": null, "activity_regularizer": null, "kernel_constraint": null, "bias_constraint": null}, "name": "conv2d_18", "inbound_nodes": [[["re_lu_4", 0, 0, {}]]]}, {"class_name": "TensorFlowOpLayer", "config": {"name": "Mean_4", "trainable": true, "dtype": "float32", "node_def": {"name": "Mean_4", "op": "Mean", "input": ["conv2d_18/BiasAdd", "Mean_4/reduction_indices"], "attr": {"Tidx": {"type": "DT_INT32"}, "T": {"type": "DT_FLOAT"}, "keep_dims": {"b": true}}}, "constants": {"1": [1, 2]}}, "name": "tf_op_layer_Mean_4", "inbound_nodes": [[["conv2d_18", 0, 0, {}]]]}, {"class_name": "Conv2D", "config": {"name": "conv2d_19", "trainable": true, "dtype": "float32", "filters": 4, "kernel_size": [1, 1], "strides": [1, 1], "padding": "same", "data_format": "channels_last", "dilation_rate": [1, 1], "groups": 1, "activation": "relu", "use_bias": true, "kernel_initializer": {"class_name": "RandomUniform", "config": {"minval": -0.125, "maxval": 0.125, "seed": null}}, "bias_initializer": {"class_name": "RandomUniform", "config": {"minval": -0.125, "maxval": 0.125, "seed": null}}, "kernel_regularizer": null, "bias_regularizer": null, "activity_regularizer": null, "kernel_constraint": null, "bias_constraint": null}, "name": "conv2d_19", "inbound_nodes": [[["tf_op_layer_Mean_4", 0, 0, {}]]]}, {"class_name": "Conv2D", "config": {"name": "conv2d_20", "trainable": true, "dtype": "float32", "filters": 64, "kernel_size": [1, 1], "strides": [1, 1], "padding": "same", "data_format": "channels_last", "dilation_rate": [1, 1], "groups": 1, "activation": "sigmoid", "use_bias": true, "kernel_initializer": {"class_name": "RandomUniform", "config": {"minval": -0.5, "maxval": 0.5, "seed": null}}, "bias_initializer": {"class_name": "RandomUniform", "config": {"minval": -0.5, "maxval": 0.5, "seed": null}}, "kernel_regularizer": null, "bias_regularizer": null, "activity_regularizer": null, "kernel_constraint": null, "bias_constraint": null}, "name": "conv2d_20", "inbound_nodes": [[["conv2d_19", 0, 0, {}]]]}, {"class_name": "Multiply", "config": {"name": "multiply_4", "trainable": true, "dtype": "float32"}, "name": "multiply_4", "inbound_nodes": [[["conv2d_20", 0, 0, {}], ["conv2d_18", 0, 0, {}]]]}, {"class_name": "Add", "config": {"name": "add_4", "trainable": true, "dtype": "float32"}, "name": "add_4", "inbound_nodes": [[["multiply_4", 0, 0, {}], ["add_3", 0, 0, {}]]]}, {"class_name": "Conv2D", "config": {"name": "conv2d_21", "trainable": true, "dtype": "float32", "filters": 64, "kernel_size": [3, 3], "strides": [1, 1], "padding": "same", "data_format": "channels_last", "dilation_rate": [1, 1], "groups": 1, "activation": "linear", "use_bias": true, "kernel_initializer": {"class_name": "RandomUniform", "config": {"minval": -0.041666666666666664, "maxval": 0.041666666666666664, "seed": null}}, "bias_initializer": {"class_name": "RandomUniform", "config": {"minval": -0.041666666666666664, "maxval": 0.041666666666666664, "seed": null}}, "kernel_regularizer": null, "bias_regularizer": null, "activity_regularizer": null, "kernel_constraint": null, "bias_constraint": null}, "name": "conv2d_21", "inbound_nodes": [[["add_4", 0, 0, {}]]]}, {"class_name": "ReLU", "config": {"name": "re_lu_5", "trainable": true, "dtype": "float32", "max_value": null, "negative_slope": 0.0, "threshold": 0.0}, "name": "re_lu_5", "inbound_nodes": [[["conv2d_21", 0, 0, {}]]]}, {"class_name": "Conv2D", "config": {"name": "conv2d_22", "trainable": true, "dtype": "float32", "filters": 64, "kernel_size": [3, 3], "strides": [1, 1], "padding": "same", "data_format": "channels_last", "dilation_rate": [1, 1], "groups": 1, "activation": "linear", "use_bias": true, "kernel_initializer": {"class_name": "RandomUniform", "config": {"minval": -0.041666666666666664, "maxval": 0.041666666666666664, "seed": null}}, "bias_initializer": {"class_name": "RandomUniform", "config": {"minval": -0.041666666666666664, "maxval": 0.041666666666666664, "seed": null}}, "kernel_regularizer": null, "bias_regularizer": null, "activity_regularizer": null, "kernel_constraint": null, "bias_constraint": null}, "name": "conv2d_22", "inbound_nodes": [[["re_lu_5", 0, 0, {}]]]}, {"class_name": "TensorFlowOpLayer", "config": {"name": "Mean_5", "trainable": true, "dtype": "float32", "node_def": {"name": "Mean_5", "op": "Mean", "input": ["conv2d_22/BiasAdd", "Mean_5/reduction_indices"], "attr": {"Tidx": {"type": "DT_INT32"}, "keep_dims": {"b": true}, "T": {"type": "DT_FLOAT"}}}, "constants": {"1": [1, 2]}}, "name": "tf_op_layer_Mean_5", "inbound_nodes": [[["conv2d_22", 0, 0, {}]]]}, {"class_name": "Conv2D", "config": {"name": "conv2d_23", "trainable": true, "dtype": "float32", "filters": 4, "kernel_size": [1, 1], "strides": [1, 1], "padding": "same", "data_format": "channels_last", "dilation_rate": [1, 1], "groups": 1, "activation": "relu", "use_bias": true, "kernel_initializer": {"class_name": "RandomUniform", "config": {"minval": -0.125, "maxval": 0.125, "seed": null}}, "bias_initializer": {"class_name": "RandomUniform", "config": {"minval": -0.125, "maxval": 0.125, "seed": null}}, "kernel_regularizer": null, "bias_regularizer": null, "activity_regularizer": null, "kernel_constraint": null, "bias_constraint": null}, "name": "conv2d_23", "inbound_nodes": [[["tf_op_layer_Mean_5", 0, 0, {}]]]}, {"class_name": "Conv2D", "config": {"name": "conv2d_24", "trainable": true, "dtype": "float32", "filters": 64, "kernel_size": [1, 1], "strides": [1, 1], "padding": "same", "data_format": "channels_last", "dilation_rate": [1, 1], "groups": 1, "activation": "sigmoid", "use_bias": true, "kernel_initializer": {"class_name": "RandomUniform", "config": {"minval": -0.5, "maxval": 0.5, "seed": null}}, "bias_initializer": {"class_name": "RandomUniform", "config": {"minval": -0.5, "maxval": 0.5, "seed": null}}, "kernel_regularizer": null, "bias_regularizer": null, "activity_regularizer": null, "kernel_constraint": null, "bias_constraint": null}, "name": "conv2d_24", "inbound_nodes": [[["conv2d_23", 0, 0, {}]]]}, {"class_name": "Multiply", "config": {"name": "multiply_5", "trainable": true, "dtype": "float32"}, "name": "multiply_5", "inbound_nodes": [[["conv2d_24", 0, 0, {}], ["conv2d_22", 0, 0, {}]]]}, {"class_name": "Add", "config": {"name": "add_5", "trainable": true, "dtype": "float32"}, "name": "add_5", "inbound_nodes": [[["multiply_5", 0, 0, {}], ["add_4", 0, 0, {}]]]}, {"class_name": "Conv2D", "config": {"name": "conv2d_25", "trainable": true, "dtype": "float32", "filters": 64, "kernel_size": [3, 3], "strides": [1, 1], "padding": "same", "data_format": "channels_last", "dilation_rate": [1, 1], "groups": 1, "activation": "linear", "use_bias": true, "kernel_initializer": {"class_name": "RandomUniform", "config": {"minval": -0.041666666666666664, "maxval": 0.041666666666666664, "seed": null}}, "bias_initializer": {"class_name": "RandomUniform", "config": {"minval": -0.041666666666666664, "maxval": 0.041666666666666664, "seed": null}}, "kernel_regularizer": null, "bias_regularizer": null, "activity_regularizer": null, "kernel_constraint": null, "bias_constraint": null}, "name": "conv2d_25", "inbound_nodes": [[["add_5", 0, 0, {}]]]}, {"class_name": "ReLU", "config": {"name": "re_lu_6", "trainable": true, "dtype": "float32", "max_value": null, "negative_slope": 0.0, "threshold": 0.0}, "name": "re_lu_6", "inbound_nodes": [[["conv2d_25", 0, 0, {}]]]}, {"class_name": "Conv2D", "config": {"name": "conv2d_26", "trainable": true, "dtype": "float32", "filters": 64, "kernel_size": [3, 3], "strides": [1, 1], "padding": "same", "data_format": "channels_last", "dilation_rate": [1, 1], "groups": 1, "activation": "linear", "use_bias": true, "kernel_initializer": {"class_name": "RandomUniform", "config": {"minval": -0.041666666666666664, "maxval": 0.041666666666666664, "seed": null}}, "bias_initializer": {"class_name": "RandomUniform", "config": {"minval": -0.041666666666666664, "maxval": 0.041666666666666664, "seed": null}}, "kernel_regularizer": null, "bias_regularizer": null, "activity_regularizer": null, "kernel_constraint": null, "bias_constraint": null}, "name": "conv2d_26", "inbound_nodes": [[["re_lu_6", 0, 0, {}]]]}, {"class_name": "TensorFlowOpLayer", "config": {"name": "Mean_6", "trainable": true, "dtype": "float32", "node_def": {"name": "Mean_6", "op": "Mean", "input": ["conv2d_26/BiasAdd", "Mean_6/reduction_indices"], "attr": {"Tidx": {"type": "DT_INT32"}, "keep_dims": {"b": true}, "T": {"type": "DT_FLOAT"}}}, "constants": {"1": [1, 2]}}, "name": "tf_op_layer_Mean_6", "inbound_nodes": [[["conv2d_26", 0, 0, {}]]]}, {"class_name": "Conv2D", "config": {"name": "conv2d_27", "trainable": true, "dtype": "float32", "filters": 4, "kernel_size": [1, 1], "strides": [1, 1], "padding": "same", "data_format": "channels_last", "dilation_rate": [1, 1], "groups": 1, "activation": "relu", "use_bias": true, "kernel_initializer": {"class_name": "RandomUniform", "config": {"minval": -0.125, "maxval": 0.125, "seed": null}}, "bias_initializer": {"class_name": "RandomUniform", "config": {"minval": -0.125, "maxval": 0.125, "seed": null}}, "kernel_regularizer": null, "bias_regularizer": null, "activity_regularizer": null, "kernel_constraint": null, "bias_constraint": null}, "name": "conv2d_27", "inbound_nodes": [[["tf_op_layer_Mean_6", 0, 0, {}]]]}, {"class_name": "Conv2D", "config": {"name": "conv2d_28", "trainable": true, "dtype": "float32", "filters": 64, "kernel_size": [1, 1], "strides": [1, 1], "padding": "same", "data_format": "channels_last", "dilation_rate": [1, 1], "groups": 1, "activation": "sigmoid", "use_bias": true, "kernel_initializer": {"class_name": "RandomUniform", "config": {"minval": -0.5, "maxval": 0.5, "seed": null}}, "bias_initializer": {"class_name": "RandomUniform", "config": {"minval": -0.5, "maxval": 0.5, "seed": null}}, "kernel_regularizer": null, "bias_regularizer": null, "activity_regularizer": null, "kernel_constraint": null, "bias_constraint": null}, "name": "conv2d_28", "inbound_nodes": [[["conv2d_27", 0, 0, {}]]]}, {"class_name": "Multiply", "config": {"name": "multiply_6", "trainable": true, "dtype": "float32"}, "name": "multiply_6", "inbound_nodes": [[["conv2d_28", 0, 0, {}], ["conv2d_26", 0, 0, {}]]]}, {"class_name": "Add", "config": {"name": "add_6", "trainable": true, "dtype": "float32"}, "name": "add_6", "inbound_nodes": [[["multiply_6", 0, 0, {}], ["add_5", 0, 0, {}]]]}, {"class_name": "Conv2D", "config": {"name": "conv2d_29", "trainable": true, "dtype": "float32", "filters": 64, "kernel_size": [3, 3], "strides": [1, 1], "padding": "same", "data_format": "channels_last", "dilation_rate": [1, 1], "groups": 1, "activation": "linear", "use_bias": true, "kernel_initializer": {"class_name": "RandomUniform", "config": {"minval": -0.041666666666666664, "maxval": 0.041666666666666664, "seed": null}}, "bias_initializer": {"class_name": "RandomUniform", "config": {"minval": -0.041666666666666664, "maxval": 0.041666666666666664, "seed": null}}, "kernel_regularizer": null, "bias_regularizer": null, "activity_regularizer": null, "kernel_constraint": null, "bias_constraint": null}, "name": "conv2d_29", "inbound_nodes": [[["add_6", 0, 0, {}]]]}, {"class_name": "ReLU", "config": {"name": "re_lu_7", "trainable": true, "dtype": "float32", "max_value": null, "negative_slope": 0.0, "threshold": 0.0}, "name": "re_lu_7", "inbound_nodes": [[["conv2d_29", 0, 0, {}]]]}, {"class_name": "Conv2D", "config": {"name": "conv2d_30", "trainable": true, "dtype": "float32", "filters": 64, "kernel_size": [3, 3], "strides": [1, 1], "padding": "same", "data_format": "channels_last", "dilation_rate": [1, 1], "groups": 1, "activation": "linear", "use_bias": true, "kernel_initializer": {"class_name": "RandomUniform", "config": {"minval": -0.041666666666666664, "maxval": 0.041666666666666664, "seed": null}}, "bias_initializer": {"class_name": "RandomUniform", "config": {"minval": -0.041666666666666664, "maxval": 0.041666666666666664, "seed": null}}, "kernel_regularizer": null, "bias_regularizer": null, "activity_regularizer": null, "kernel_constraint": null, "bias_constraint": null}, "name": "conv2d_30", "inbound_nodes": [[["re_lu_7", 0, 0, {}]]]}, {"class_name": "TensorFlowOpLayer", "config": {"name": "Mean_7", "trainable": true, "dtype": "float32", "node_def": {"name": "Mean_7", "op": "Mean", "input": ["conv2d_30/BiasAdd", "Mean_7/reduction_indices"], "attr": {"Tidx": {"type": "DT_INT32"}, "T": {"type": "DT_FLOAT"}, "keep_dims": {"b": true}}}, "constants": {"1": [1, 2]}}, "name": "tf_op_layer_Mean_7", "inbound_nodes": [[["conv2d_30", 0, 0, {}]]]}, {"class_name": "Conv2D", "config": {"name": "conv2d_31", "trainable": true, "dtype": "float32", "filters": 4, "kernel_size": [1, 1], "strides": [1, 1], "padding": "same", "data_format": "channels_last", "dilation_rate": [1, 1], "groups": 1, "activation": "relu", "use_bias": true, "kernel_initializer": {"class_name": "RandomUniform", "config": {"minval": -0.125, "maxval": 0.125, "seed": null}}, "bias_initializer": {"class_name": "RandomUniform", "config": {"minval": -0.125, "maxval": 0.125, "seed": null}}, "kernel_regularizer": null, "bias_regularizer": null, "activity_regularizer": null, "kernel_constraint": null, "bias_constraint": null}, "name": "conv2d_31", "inbound_nodes": [[["tf_op_layer_Mean_7", 0, 0, {}]]]}, {"class_name": "Conv2D", "config": {"name": "conv2d_32", "trainable": true, "dtype": "float32", "filters": 64, "kernel_size": [1, 1], "strides": [1, 1], "padding": "same", "data_format": "channels_last", "dilation_rate": [1, 1], "groups": 1, "activation": "sigmoid", "use_bias": true, "kernel_initializer": {"class_name": "RandomUniform", "config": {"minval": -0.5, "maxval": 0.5, "seed": null}}, "bias_initializer": {"class_name": "RandomUniform", "config": {"minval": -0.5, "maxval": 0.5, "seed": null}}, "kernel_regularizer": null, "bias_regularizer": null, "activity_regularizer": null, "kernel_constraint": null, "bias_constraint": null}, "name": "conv2d_32", "inbound_nodes": [[["conv2d_31", 0, 0, {}]]]}, {"class_name": "Multiply", "config": {"name": "multiply_7", "trainable": true, "dtype": "float32"}, "name": "multiply_7", "inbound_nodes": [[["conv2d_32", 0, 0, {}], ["conv2d_30", 0, 0, {}]]]}, {"class_name": "Add", "config": {"name": "add_7", "trainable": true, "dtype": "float32"}, "name": "add_7", "inbound_nodes": [[["multiply_7", 0, 0, {}], ["add_6", 0, 0, {}]]]}, {"class_name": "Conv2D", "config": {"name": "conv2d_33", "trainable": true, "dtype": "float32", "filters": 64, "kernel_size": [3, 3], "strides": [1, 1], "padding": "same", "data_format": "channels_last", "dilation_rate": [1, 1], "groups": 1, "activation": "linear", "use_bias": true, "kernel_initializer": {"class_name": "RandomUniform", "config": {"minval": -0.041666666666666664, "maxval": 0.041666666666666664, "seed": null}}, "bias_initializer": {"class_name": "RandomUniform", "config": {"minval": -0.041666666666666664, "maxval": 0.041666666666666664, "seed": null}}, "kernel_regularizer": null, "bias_regularizer": null, "activity_regularizer": null, "kernel_constraint": null, "bias_constraint": null}, "name": "conv2d_33", "inbound_nodes": [[["add_7", 0, 0, {}]]]}, {"class_name": "ReLU", "config": {"name": "re_lu_8", "trainable": true, "dtype": "float32", "max_value": null, "negative_slope": 0.0, "threshold": 0.0}, "name": "re_lu_8", "inbound_nodes": [[["conv2d_33", 0, 0, {}]]]}, {"class_name": "Conv2D", "config": {"name": "conv2d_34", "trainable": true, "dtype": "float32", "filters": 64, "kernel_size": [3, 3], "strides": [1, 1], "padding": "same", "data_format": "channels_last", "dilation_rate": [1, 1], "groups": 1, "activation": "linear", "use_bias": true, "kernel_initializer": {"class_name": "RandomUniform", "config": {"minval": -0.041666666666666664, "maxval": 0.041666666666666664, "seed": null}}, "bias_initializer": {"class_name": "RandomUniform", "config": {"minval": -0.041666666666666664, "maxval": 0.041666666666666664, "seed": null}}, "kernel_regularizer": null, "bias_regularizer": null, "activity_regularizer": null, "kernel_constraint": null, "bias_constraint": null}, "name": "conv2d_34", "inbound_nodes": [[["re_lu_8", 0, 0, {}]]]}, {"class_name": "TensorFlowOpLayer", "config": {"name": "Mean_8", "trainable": true, "dtype": "float32", "node_def": {"name": "Mean_8", "op": "Mean", "input": ["conv2d_34/BiasAdd", "Mean_8/reduction_indices"], "attr": {"Tidx": {"type": "DT_INT32"}, "T": {"type": "DT_FLOAT"}, "keep_dims": {"b": true}}}, "constants": {"1": [1, 2]}}, "name": "tf_op_layer_Mean_8", "inbound_nodes": [[["conv2d_34", 0, 0, {}]]]}, {"class_name": "Conv2D", "config": {"name": "conv2d_35", "trainable": true, "dtype": "float32", "filters": 4, "kernel_size": [1, 1], "strides": [1, 1], "padding": "same", "data_format": "channels_last", "dilation_rate": [1, 1], "groups": 1, "activation": "relu", "use_bias": true, "kernel_initializer": {"class_name": "RandomUniform", "config": {"minval": -0.125, "maxval": 0.125, "seed": null}}, "bias_initializer": {"class_name": "RandomUniform", "config": {"minval": -0.125, "maxval": 0.125, "seed": null}}, "kernel_regularizer": null, "bias_regularizer": null, "activity_regularizer": null, "kernel_constraint": null, "bias_constraint": null}, "name": "conv2d_35", "inbound_nodes": [[["tf_op_layer_Mean_8", 0, 0, {}]]]}, {"class_name": "Conv2D", "config": {"name": "conv2d_36", "trainable": true, "dtype": "float32", "filters": 64, "kernel_size": [1, 1], "strides": [1, 1], "padding": "same", "data_format": "channels_last", "dilation_rate": [1, 1], "groups": 1, "activation": "sigmoid", "use_bias": true, "kernel_initializer": {"class_name": "RandomUniform", "config": {"minval": -0.5, "maxval": 0.5, "seed": null}}, "bias_initializer": {"class_name": "RandomUniform", "config": {"minval": -0.5, "maxval": 0.5, "seed": null}}, "kernel_regularizer": null, "bias_regularizer": null, "activity_regularizer": null, "kernel_constraint": null, "bias_constraint": null}, "name": "conv2d_36", "inbound_nodes": [[["conv2d_35", 0, 0, {}]]]}, {"class_name": "Multiply", "config": {"name": "multiply_8", "trainable": true, "dtype": "float32"}, "name": "multiply_8", "inbound_nodes": [[["conv2d_36", 0, 0, {}], ["conv2d_34", 0, 0, {}]]]}, {"class_name": "Add", "config": {"name": "add_8", "trainable": true, "dtype": "float32"}, "name": "add_8", "inbound_nodes": [[["multiply_8", 0, 0, {}], ["add_7", 0, 0, {}]]]}, {"class_name": "Conv2D", "config": {"name": "conv2d_37", "trainable": true, "dtype": "float32", "filters": 64, "kernel_size": [3, 3], "strides": [1, 1], "padding": "same", "data_format": "channels_last", "dilation_rate": [1, 1], "groups": 1, "activation": "linear", "use_bias": true, "kernel_initializer": {"class_name": "RandomUniform", "config": {"minval": -0.041666666666666664, "maxval": 0.041666666666666664, "seed": null}}, "bias_initializer": {"class_name": "RandomUniform", "config": {"minval": -0.041666666666666664, "maxval": 0.041666666666666664, "seed": null}}, "kernel_regularizer": null, "bias_regularizer": null, "activity_regularizer": null, "kernel_constraint": null, "bias_constraint": null}, "name": "conv2d_37", "inbound_nodes": [[["add_8", 0, 0, {}]]]}, {"class_name": "ReLU", "config": {"name": "re_lu_9", "trainable": true, "dtype": "float32", "max_value": null, "negative_slope": 0.0, "threshold": 0.0}, "name": "re_lu_9", "inbound_nodes": [[["conv2d_37", 0, 0, {}]]]}, {"class_name": "Conv2D", "config": {"name": "conv2d_38", "trainable": true, "dtype": "float32", "filters": 64, "kernel_size": [3, 3], "strides": [1, 1], "padding": "same", "data_format": "channels_last", "dilation_rate": [1, 1], "groups": 1, "activation": "linear", "use_bias": true, "kernel_initializer": {"class_name": "RandomUniform", "config": {"minval": -0.041666666666666664, "maxval": 0.041666666666666664, "seed": null}}, "bias_initializer": {"class_name": "RandomUniform", "config": {"minval": -0.041666666666666664, "maxval": 0.041666666666666664, "seed": null}}, "kernel_regularizer": null, "bias_regularizer": null, "activity_regularizer": null, "kernel_constraint": null, "bias_constraint": null}, "name": "conv2d_38", "inbound_nodes": [[["re_lu_9", 0, 0, {}]]]}, {"class_name": "TensorFlowOpLayer", "config": {"name": "Mean_9", "trainable": true, "dtype": "float32", "node_def": {"name": "Mean_9", "op": "Mean", "input": ["conv2d_38/BiasAdd", "Mean_9/reduction_indices"], "attr": {"T": {"type": "DT_FLOAT"}, "Tidx": {"type": "DT_INT32"}, "keep_dims": {"b": true}}}, "constants": {"1": [1, 2]}}, "name": "tf_op_layer_Mean_9", "inbound_nodes": [[["conv2d_38", 0, 0, {}]]]}, {"class_name": "Conv2D", "config": {"name": "conv2d_39", "trainable": true, "dtype": "float32", "filters": 4, "kernel_size": [1, 1], "strides": [1, 1], "padding": "same", "data_format": "channels_last", "dilation_rate": [1, 1], "groups": 1, "activation": "relu", "use_bias": true, "kernel_initializer": {"class_name": "RandomUniform", "config": {"minval": -0.125, "maxval": 0.125, "seed": null}}, "bias_initializer": {"class_name": "RandomUniform", "config": {"minval": -0.125, "maxval": 0.125, "seed": null}}, "kernel_regularizer": null, "bias_regularizer": null, "activity_regularizer": null, "kernel_constraint": null, "bias_constraint": null}, "name": "conv2d_39", "inbound_nodes": [[["tf_op_layer_Mean_9", 0, 0, {}]]]}, {"class_name": "Conv2D", "config": {"name": "conv2d_40", "trainable": true, "dtype": "float32", "filters": 64, "kernel_size": [1, 1], "strides": [1, 1], "padding": "same", "data_format": "channels_last", "dilation_rate": [1, 1], "groups": 1, "activation": "sigmoid", "use_bias": true, "kernel_initializer": {"class_name": "RandomUniform", "config": {"minval": -0.5, "maxval": 0.5, "seed": null}}, "bias_initializer": {"class_name": "RandomUniform", "config": {"minval": -0.5, "maxval": 0.5, "seed": null}}, "kernel_regularizer": null, "bias_regularizer": null, "activity_regularizer": null, "kernel_constraint": null, "bias_constraint": null}, "name": "conv2d_40", "inbound_nodes": [[["conv2d_39", 0, 0, {}]]]}, {"class_name": "Multiply", "config": {"name": "multiply_9", "trainable": true, "dtype": "float32"}, "name": "multiply_9", "inbound_nodes": [[["conv2d_40", 0, 0, {}], ["conv2d_38", 0, 0, {}]]]}, {"class_name": "Add", "config": {"name": "add_9", "trainable": true, "dtype": "float32"}, "name": "add_9", "inbound_nodes": [[["multiply_9", 0, 0, {}], ["add_8", 0, 0, {}]]]}, {"class_name": "Conv2D", "config": {"name": "conv2d_41", "trainable": true, "dtype": "float32", "filters": 64, "kernel_size": [3, 3], "strides": [1, 1], "padding": "same", "data_format": "channels_last", "dilation_rate": [1, 1], "groups": 1, "activation": "linear", "use_bias": true, "kernel_initializer": {"class_name": "RandomUniform", "config": {"minval": -0.041666666666666664, "maxval": 0.041666666666666664, "seed": null}}, "bias_initializer": {"class_name": "RandomUniform", "config": {"minval": -0.041666666666666664, "maxval": 0.041666666666666664, "seed": null}}, "kernel_regularizer": null, "bias_regularizer": null, "activity_regularizer": null, "kernel_constraint": null, "bias_constraint": null}, "name": "conv2d_41", "inbound_nodes": [[["add_9", 0, 0, {}]]]}, {"class_name": "ReLU", "config": {"name": "re_lu_10", "trainable": true, "dtype": "float32", "max_value": null, "negative_slope": 0.0, "threshold": 0.0}, "name": "re_lu_10", "inbound_nodes": [[["conv2d_41", 0, 0, {}]]]}, {"class_name": "Conv2D", "config": {"name": "conv2d_42", "trainable": true, "dtype": "float32", "filters": 64, "kernel_size": [3, 3], "strides": [1, 1], "padding": "same", "data_format": "channels_last", "dilation_rate": [1, 1], "groups": 1, "activation": "linear", "use_bias": true, "kernel_initializer": {"class_name": "RandomUniform", "config": {"minval": -0.041666666666666664, "maxval": 0.041666666666666664, "seed": null}}, "bias_initializer": {"class_name": "RandomUniform", "config": {"minval": -0.041666666666666664, "maxval": 0.041666666666666664, "seed": null}}, "kernel_regularizer": null, "bias_regularizer": null, "activity_regularizer": null, "kernel_constraint": null, "bias_constraint": null}, "name": "conv2d_42", "inbound_nodes": [[["re_lu_10", 0, 0, {}]]]}, {"class_name": "TensorFlowOpLayer", "config": {"name": "Mean_10", "trainable": true, "dtype": "float32", "node_def": {"name": "Mean_10", "op": "Mean", "input": ["conv2d_42/BiasAdd", "Mean_10/reduction_indices"], "attr": {"T": {"type": "DT_FLOAT"}, "keep_dims": {"b": true}, "Tidx": {"type": "DT_INT32"}}}, "constants": {"1": [1, 2]}}, "name": "tf_op_layer_Mean_10", "inbound_nodes": [[["conv2d_42", 0, 0, {}]]]}, {"class_name": "Conv2D", "config": {"name": "conv2d_43", "trainable": true, "dtype": "float32", "filters": 4, "kernel_size": [1, 1], "strides": [1, 1], "padding": "same", "data_format": "channels_last", "dilation_rate": [1, 1], "groups": 1, "activation": "relu", "use_bias": true, "kernel_initializer": {"class_name": "RandomUniform", "config": {"minval": -0.125, "maxval": 0.125, "seed": null}}, "bias_initializer": {"class_name": "RandomUniform", "config": {"minval": -0.125, "maxval": 0.125, "seed": null}}, "kernel_regularizer": null, "bias_regularizer": null, "activity_regularizer": null, "kernel_constraint": null, "bias_constraint": null}, "name": "conv2d_43", "inbound_nodes": [[["tf_op_layer_Mean_10", 0, 0, {}]]]}, {"class_name": "Conv2D", "config": {"name": "conv2d_44", "trainable": true, "dtype": "float32", "filters": 64, "kernel_size": [1, 1], "strides": [1, 1], "padding": "same", "data_format": "channels_last", "dilation_rate": [1, 1], "groups": 1, "activation": "sigmoid", "use_bias": true, "kernel_initializer": {"class_name": "RandomUniform", "config": {"minval": -0.5, "maxval": 0.5, "seed": null}}, "bias_initializer": {"class_name": "RandomUniform", "config": {"minval": -0.5, "maxval": 0.5, "seed": null}}, "kernel_regularizer": null, "bias_regularizer": null, "activity_regularizer": null, "kernel_constraint": null, "bias_constraint": null}, "name": "conv2d_44", "inbound_nodes": [[["conv2d_43", 0, 0, {}]]]}, {"class_name": "Multiply", "config": {"name": "multiply_10", "trainable": true, "dtype": "float32"}, "name": "multiply_10", "inbound_nodes": [[["conv2d_44", 0, 0, {}], ["conv2d_42", 0, 0, {}]]]}, {"class_name": "Add", "config": {"name": "add_10", "trainable": true, "dtype": "float32"}, "name": "add_10", "inbound_nodes": [[["multiply_10", 0, 0, {}], ["add_9", 0, 0, {}]]]}, {"class_name": "Conv2D", "config": {"name": "conv2d_45", "trainable": true, "dtype": "float32", "filters": 64, "kernel_size": [3, 3], "strides": [1, 1], "padding": "same", "data_format": "channels_last", "dilation_rate": [1, 1], "groups": 1, "activation": "linear", "use_bias": true, "kernel_initializer": {"class_name": "RandomUniform", "config": {"minval": -0.041666666666666664, "maxval": 0.041666666666666664, "seed": null}}, "bias_initializer": {"class_name": "RandomUniform", "config": {"minval": -0.041666666666666664, "maxval": 0.041666666666666664, "seed": null}}, "kernel_regularizer": null, "bias_regularizer": null, "activity_regularizer": null, "kernel_constraint": null, "bias_constraint": null}, "name": "conv2d_45", "inbound_nodes": [[["add_10", 0, 0, {}]]]}, {"class_name": "ReLU", "config": {"name": "re_lu_11", "trainable": true, "dtype": "float32", "max_value": null, "negative_slope": 0.0, "threshold": 0.0}, "name": "re_lu_11", "inbound_nodes": [[["conv2d_45", 0, 0, {}]]]}, {"class_name": "Conv2D", "config": {"name": "conv2d_46", "trainable": true, "dtype": "float32", "filters": 64, "kernel_size": [3, 3], "strides": [1, 1], "padding": "same", "data_format": "channels_last", "dilation_rate": [1, 1], "groups": 1, "activation": "linear", "use_bias": true, "kernel_initializer": {"class_name": "RandomUniform", "config": {"minval": -0.041666666666666664, "maxval": 0.041666666666666664, "seed": null}}, "bias_initializer": {"class_name": "RandomUniform", "config": {"minval": -0.041666666666666664, "maxval": 0.041666666666666664, "seed": null}}, "kernel_regularizer": null, "bias_regularizer": null, "activity_regularizer": null, "kernel_constraint": null, "bias_constraint": null}, "name": "conv2d_46", "inbound_nodes": [[["re_lu_11", 0, 0, {}]]]}, {"class_name": "TensorFlowOpLayer", "config": {"name": "Mean_11", "trainable": true, "dtype": "float32", "node_def": {"name": "Mean_11", "op": "Mean", "input": ["conv2d_46/BiasAdd", "Mean_11/reduction_indices"], "attr": {"T": {"type": "DT_FLOAT"}, "keep_dims": {"b": true}, "Tidx": {"type": "DT_INT32"}}}, "constants": {"1": [1, 2]}}, "name": "tf_op_layer_Mean_11", "inbound_nodes": [[["conv2d_46", 0, 0, {}]]]}, {"class_name": "Conv2D", "config": {"name": "conv2d_47", "trainable": true, "dtype": "float32", "filters": 4, "kernel_size": [1, 1], "strides": [1, 1], "padding": "same", "data_format": "channels_last", "dilation_rate": [1, 1], "groups": 1, "activation": "relu", "use_bias": true, "kernel_initializer": {"class_name": "RandomUniform", "config": {"minval": -0.125, "maxval": 0.125, "seed": null}}, "bias_initializer": {"class_name": "RandomUniform", "config": {"minval": -0.125, "maxval": 0.125, "seed": null}}, "kernel_regularizer": null, "bias_regularizer": null, "activity_regularizer": null, "kernel_constraint": null, "bias_constraint": null}, "name": "conv2d_47", "inbound_nodes": [[["tf_op_layer_Mean_11", 0, 0, {}]]]}, {"class_name": "Conv2D", "config": {"name": "conv2d_48", "trainable": true, "dtype": "float32", "filters": 64, "kernel_size": [1, 1], "strides": [1, 1], "padding": "same", "data_format": "channels_last", "dilation_rate": [1, 1], "groups": 1, "activation": "sigmoid", "use_bias": true, "kernel_initializer": {"class_name": "RandomUniform", "config": {"minval": -0.5, "maxval": 0.5, "seed": null}}, "bias_initializer": {"class_name": "RandomUniform", "config": {"minval": -0.5, "maxval": 0.5, "seed": null}}, "kernel_regularizer": null, "bias_regularizer": null, "activity_regularizer": null, "kernel_constraint": null, "bias_constraint": null}, "name": "conv2d_48", "inbound_nodes": [[["conv2d_47", 0, 0, {}]]]}, {"class_name": "Multiply", "config": {"name": "multiply_11", "trainable": true, "dtype": "float32"}, "name": "multiply_11", "inbound_nodes": [[["conv2d_48", 0, 0, {}], ["conv2d_46", 0, 0, {}]]]}, {"class_name": "Add", "config": {"name": "add_11", "trainable": true, "dtype": "float32"}, "name": "add_11", "inbound_nodes": [[["multiply_11", 0, 0, {}], ["add_10", 0, 0, {}]]]}, {"class_name": "Conv2D", "config": {"name": "conv2d_49", "trainable": true, "dtype": "float32", "filters": 64, "kernel_size": [3, 3], "strides": [1, 1], "padding": "same", "data_format": "channels_last", "dilation_rate": [1, 1], "groups": 1, "activation": "linear", "use_bias": true, "kernel_initializer": {"class_name": "RandomUniform", "config": {"minval": -0.041666666666666664, "maxval": 0.041666666666666664, "seed": null}}, "bias_initializer": {"class_name": "RandomUniform", "config": {"minval": -0.041666666666666664, "maxval": 0.041666666666666664, "seed": null}}, "kernel_regularizer": null, "bias_regularizer": null, "activity_regularizer": null, "kernel_constraint": null, "bias_constraint": null}, "name": "conv2d_49", "inbound_nodes": [[["add_11", 0, 0, {}]]]}, {"class_name": "ReLU", "config": {"name": "re_lu_12", "trainable": true, "dtype": "float32", "max_value": null, "negative_slope": 0.0, "threshold": 0.0}, "name": "re_lu_12", "inbound_nodes": [[["conv2d_49", 0, 0, {}]]]}, {"class_name": "Conv2D", "config": {"name": "conv2d_50", "trainable": true, "dtype": "float32", "filters": 64, "kernel_size": [3, 3], "strides": [1, 1], "padding": "same", "data_format": "channels_last", "dilation_rate": [1, 1], "groups": 1, "activation": "linear", "use_bias": true, "kernel_initializer": {"class_name": "RandomUniform", "config": {"minval": -0.041666666666666664, "maxval": 0.041666666666666664, "seed": null}}, "bias_initializer": {"class_name": "RandomUniform", "config": {"minval": -0.041666666666666664, "maxval": 0.041666666666666664, "seed": null}}, "kernel_regularizer": null, "bias_regularizer": null, "activity_regularizer": null, "kernel_constraint": null, "bias_constraint": null}, "name": "conv2d_50", "inbound_nodes": [[["re_lu_12", 0, 0, {}]]]}, {"class_name": "TensorFlowOpLayer", "config": {"name": "Mean_12", "trainable": true, "dtype": "float32", "node_def": {"name": "Mean_12", "op": "Mean", "input": ["conv2d_50/BiasAdd", "Mean_12/reduction_indices"], "attr": {"Tidx": {"type": "DT_INT32"}, "T": {"type": "DT_FLOAT"}, "keep_dims": {"b": true}}}, "constants": {"1": [1, 2]}}, "name": "tf_op_layer_Mean_12", "inbound_nodes": [[["conv2d_50", 0, 0, {}]]]}, {"class_name": "Conv2D", "config": {"name": "conv2d_51", "trainable": true, "dtype": "float32", "filters": 4, "kernel_size": [1, 1], "strides": [1, 1], "padding": "same", "data_format": "channels_last", "dilation_rate": [1, 1], "groups": 1, "activation": "relu", "use_bias": true, "kernel_initializer": {"class_name": "RandomUniform", "config": {"minval": -0.125, "maxval": 0.125, "seed": null}}, "bias_initializer": {"class_name": "RandomUniform", "config": {"minval": -0.125, "maxval": 0.125, "seed": null}}, "kernel_regularizer": null, "bias_regularizer": null, "activity_regularizer": null, "kernel_constraint": null, "bias_constraint": null}, "name": "conv2d_51", "inbound_nodes": [[["tf_op_layer_Mean_12", 0, 0, {}]]]}, {"class_name": "Conv2D", "config": {"name": "conv2d_52", "trainable": true, "dtype": "float32", "filters": 64, "kernel_size": [1, 1], "strides": [1, 1], "padding": "same", "data_format": "channels_last", "dilation_rate": [1, 1], "groups": 1, "activation": "sigmoid", "use_bias": true, "kernel_initializer": {"class_name": "RandomUniform", "config": {"minval": -0.5, "maxval": 0.5, "seed": null}}, "bias_initializer": {"class_name": "RandomUniform", "config": {"minval": -0.5, "maxval": 0.5, "seed": null}}, "kernel_regularizer": null, "bias_regularizer": null, "activity_regularizer": null, "kernel_constraint": null, "bias_constraint": null}, "name": "conv2d_52", "inbound_nodes": [[["conv2d_51", 0, 0, {}]]]}, {"class_name": "Multiply", "config": {"name": "multiply_12", "trainable": true, "dtype": "float32"}, "name": "multiply_12", "inbound_nodes": [[["conv2d_52", 0, 0, {}], ["conv2d_50", 0, 0, {}]]]}, {"class_name": "Add", "config": {"name": "add_12", "trainable": true, "dtype": "float32"}, "name": "add_12", "inbound_nodes": [[["multiply_12", 0, 0, {}], ["add_11", 0, 0, {}]]]}, {"class_name": "Conv2D", "config": {"name": "conv2d_53", "trainable": true, "dtype": "float32", "filters": 64, "kernel_size": [3, 3], "strides": [1, 1], "padding": "same", "data_format": "channels_last", "dilation_rate": [1, 1], "groups": 1, "activation": "linear", "use_bias": true, "kernel_initializer": {"class_name": "RandomUniform", "config": {"minval": -0.041666666666666664, "maxval": 0.041666666666666664, "seed": null}}, "bias_initializer": {"class_name": "RandomUniform", "config": {"minval": -0.041666666666666664, "maxval": 0.041666666666666664, "seed": null}}, "kernel_regularizer": null, "bias_regularizer": null, "activity_regularizer": null, "kernel_constraint": null, "bias_constraint": null}, "name": "conv2d_53", "inbound_nodes": [[["add_12", 0, 0, {}]]]}, {"class_name": "ReLU", "config": {"name": "re_lu_13", "trainable": true, "dtype": "float32", "max_value": null, "negative_slope": 0.0, "threshold": 0.0}, "name": "re_lu_13", "inbound_nodes": [[["conv2d_53", 0, 0, {}]]]}, {"class_name": "Conv2D", "config": {"name": "conv2d_54", "trainable": true, "dtype": "float32", "filters": 64, "kernel_size": [3, 3], "strides": [1, 1], "padding": "same", "data_format": "channels_last", "dilation_rate": [1, 1], "groups": 1, "activation": "linear", "use_bias": true, "kernel_initializer": {"class_name": "RandomUniform", "config": {"minval": -0.041666666666666664, "maxval": 0.041666666666666664, "seed": null}}, "bias_initializer": {"class_name": "RandomUniform", "config": {"minval": -0.041666666666666664, "maxval": 0.041666666666666664, "seed": null}}, "kernel_regularizer": null, "bias_regularizer": null, "activity_regularizer": null, "kernel_constraint": null, "bias_constraint": null}, "name": "conv2d_54", "inbound_nodes": [[["re_lu_13", 0, 0, {}]]]}, {"class_name": "TensorFlowOpLayer", "config": {"name": "Mean_13", "trainable": true, "dtype": "float32", "node_def": {"name": "Mean_13", "op": "Mean", "input": ["conv2d_54/BiasAdd", "Mean_13/reduction_indices"], "attr": {"T": {"type": "DT_FLOAT"}, "keep_dims": {"b": true}, "Tidx": {"type": "DT_INT32"}}}, "constants": {"1": [1, 2]}}, "name": "tf_op_layer_Mean_13", "inbound_nodes": [[["conv2d_54", 0, 0, {}]]]}, {"class_name": "Conv2D", "config": {"name": "conv2d_55", "trainable": true, "dtype": "float32", "filters": 4, "kernel_size": [1, 1], "strides": [1, 1], "padding": "same", "data_format": "channels_last", "dilation_rate": [1, 1], "groups": 1, "activation": "relu", "use_bias": true, "kernel_initializer": {"class_name": "RandomUniform", "config": {"minval": -0.125, "maxval": 0.125, "seed": null}}, "bias_initializer": {"class_name": "RandomUniform", "config": {"minval": -0.125, "maxval": 0.125, "seed": null}}, "kernel_regularizer": null, "bias_regularizer": null, "activity_regularizer": null, "kernel_constraint": null, "bias_constraint": null}, "name": "conv2d_55", "inbound_nodes": [[["tf_op_layer_Mean_13", 0, 0, {}]]]}, {"class_name": "Conv2D", "config": {"name": "conv2d_56", "trainable": true, "dtype": "float32", "filters": 64, "kernel_size": [1, 1], "strides": [1, 1], "padding": "same", "data_format": "channels_last", "dilation_rate": [1, 1], "groups": 1, "activation": "sigmoid", "use_bias": true, "kernel_initializer": {"class_name": "RandomUniform", "config": {"minval": -0.5, "maxval": 0.5, "seed": null}}, "bias_initializer": {"class_name": "RandomUniform", "config": {"minval": -0.5, "maxval": 0.5, "seed": null}}, "kernel_regularizer": null, "bias_regularizer": null, "activity_regularizer": null, "kernel_constraint": null, "bias_constraint": null}, "name": "conv2d_56", "inbound_nodes": [[["conv2d_55", 0, 0, {}]]]}, {"class_name": "Multiply", "config": {"name": "multiply_13", "trainable": true, "dtype": "float32"}, "name": "multiply_13", "inbound_nodes": [[["conv2d_56", 0, 0, {}], ["conv2d_54", 0, 0, {}]]]}, {"class_name": "Add", "config": {"name": "add_13", "trainable": true, "dtype": "float32"}, "name": "add_13", "inbound_nodes": [[["multiply_13", 0, 0, {}], ["add_12", 0, 0, {}]]]}, {"class_name": "Conv2D", "config": {"name": "conv2d_57", "trainable": true, "dtype": "float32", "filters": 64, "kernel_size": [3, 3], "strides": [1, 1], "padding": "same", "data_format": "channels_last", "dilation_rate": [1, 1], "groups": 1, "activation": "linear", "use_bias": true, "kernel_initializer": {"class_name": "RandomUniform", "config": {"minval": -0.041666666666666664, "maxval": 0.041666666666666664, "seed": null}}, "bias_initializer": {"class_name": "RandomUniform", "config": {"minval": -0.041666666666666664, "maxval": 0.041666666666666664, "seed": null}}, "kernel_regularizer": null, "bias_regularizer": null, "activity_regularizer": null, "kernel_constraint": null, "bias_constraint": null}, "name": "conv2d_57", "inbound_nodes": [[["add_13", 0, 0, {}]]]}, {"class_name": "ReLU", "config": {"name": "re_lu_14", "trainable": true, "dtype": "float32", "max_value": null, "negative_slope": 0.0, "threshold": 0.0}, "name": "re_lu_14", "inbound_nodes": [[["conv2d_57", 0, 0, {}]]]}, {"class_name": "Conv2D", "config": {"name": "conv2d_58", "trainable": true, "dtype": "float32", "filters": 64, "kernel_size": [3, 3], "strides": [1, 1], "padding": "same", "data_format": "channels_last", "dilation_rate": [1, 1], "groups": 1, "activation": "linear", "use_bias": true, "kernel_initializer": {"class_name": "RandomUniform", "config": {"minval": -0.041666666666666664, "maxval": 0.041666666666666664, "seed": null}}, "bias_initializer": {"class_name": "RandomUniform", "config": {"minval": -0.041666666666666664, "maxval": 0.041666666666666664, "seed": null}}, "kernel_regularizer": null, "bias_regularizer": null, "activity_regularizer": null, "kernel_constraint": null, "bias_constraint": null}, "name": "conv2d_58", "inbound_nodes": [[["re_lu_14", 0, 0, {}]]]}, {"class_name": "TensorFlowOpLayer", "config": {"name": "Mean_14", "trainable": true, "dtype": "float32", "node_def": {"name": "Mean_14", "op": "Mean", "input": ["conv2d_58/BiasAdd", "Mean_14/reduction_indices"], "attr": {"keep_dims": {"b": true}, "T": {"type": "DT_FLOAT"}, "Tidx": {"type": "DT_INT32"}}}, "constants": {"1": [1, 2]}}, "name": "tf_op_layer_Mean_14", "inbound_nodes": [[["conv2d_58", 0, 0, {}]]]}, {"class_name": "Conv2D", "config": {"name": "conv2d_59", "trainable": true, "dtype": "float32", "filters": 4, "kernel_size": [1, 1], "strides": [1, 1], "padding": "same", "data_format": "channels_last", "dilation_rate": [1, 1], "groups": 1, "activation": "relu", "use_bias": true, "kernel_initializer": {"class_name": "RandomUniform", "config": {"minval": -0.125, "maxval": 0.125, "seed": null}}, "bias_initializer": {"class_name": "RandomUniform", "config": {"minval": -0.125, "maxval": 0.125, "seed": null}}, "kernel_regularizer": null, "bias_regularizer": null, "activity_regularizer": null, "kernel_constraint": null, "bias_constraint": null}, "name": "conv2d_59", "inbound_nodes": [[["tf_op_layer_Mean_14", 0, 0, {}]]]}, {"class_name": "Conv2D", "config": {"name": "conv2d_60", "trainable": true, "dtype": "float32", "filters": 64, "kernel_size": [1, 1], "strides": [1, 1], "padding": "same", "data_format": "channels_last", "dilation_rate": [1, 1], "groups": 1, "activation": "sigmoid", "use_bias": true, "kernel_initializer": {"class_name": "RandomUniform", "config": {"minval": -0.5, "maxval": 0.5, "seed": null}}, "bias_initializer": {"class_name": "RandomUniform", "config": {"minval": -0.5, "maxval": 0.5, "seed": null}}, "kernel_regularizer": null, "bias_regularizer": null, "activity_regularizer": null, "kernel_constraint": null, "bias_constraint": null}, "name": "conv2d_60", "inbound_nodes": [[["conv2d_59", 0, 0, {}]]]}, {"class_name": "Multiply", "config": {"name": "multiply_14", "trainable": true, "dtype": "float32"}, "name": "multiply_14", "inbound_nodes": [[["conv2d_60", 0, 0, {}], ["conv2d_58", 0, 0, {}]]]}, {"class_name": "Add", "config": {"name": "add_14", "trainable": true, "dtype": "float32"}, "name": "add_14", "inbound_nodes": [[["multiply_14", 0, 0, {}], ["add_13", 0, 0, {}]]]}, {"class_name": "Conv2D", "config": {"name": "conv2d_61", "trainable": true, "dtype": "float32", "filters": 64, "kernel_size": [3, 3], "strides": [1, 1], "padding": "same", "data_format": "channels_last", "dilation_rate": [1, 1], "groups": 1, "activation": "linear", "use_bias": true, "kernel_initializer": {"class_name": "RandomUniform", "config": {"minval": -0.041666666666666664, "maxval": 0.041666666666666664, "seed": null}}, "bias_initializer": {"class_name": "RandomUniform", "config": {"minval": -0.041666666666666664, "maxval": 0.041666666666666664, "seed": null}}, "kernel_regularizer": null, "bias_regularizer": null, "activity_regularizer": null, "kernel_constraint": null, "bias_constraint": null}, "name": "conv2d_61", "inbound_nodes": [[["add_14", 0, 0, {}]]]}, {"class_name": "ReLU", "config": {"name": "re_lu_15", "trainable": true, "dtype": "float32", "max_value": null, "negative_slope": 0.0, "threshold": 0.0}, "name": "re_lu_15", "inbound_nodes": [[["conv2d_61", 0, 0, {}]]]}, {"class_name": "Conv2D", "config": {"name": "conv2d_62", "trainable": true, "dtype": "float32", "filters": 64, "kernel_size": [3, 3], "strides": [1, 1], "padding": "same", "data_format": "channels_last", "dilation_rate": [1, 1], "groups": 1, "activation": "linear", "use_bias": true, "kernel_initializer": {"class_name": "RandomUniform", "config": {"minval": -0.041666666666666664, "maxval": 0.041666666666666664, "seed": null}}, "bias_initializer": {"class_name": "RandomUniform", "config": {"minval": -0.041666666666666664, "maxval": 0.041666666666666664, "seed": null}}, "kernel_regularizer": null, "bias_regularizer": null, "activity_regularizer": null, "kernel_constraint": null, "bias_constraint": null}, "name": "conv2d_62", "inbound_nodes": [[["re_lu_15", 0, 0, {}]]]}, {"class_name": "TensorFlowOpLayer", "config": {"name": "Mean_15", "trainable": true, "dtype": "float32", "node_def": {"name": "Mean_15", "op": "Mean", "input": ["conv2d_62/BiasAdd", "Mean_15/reduction_indices"], "attr": {"T": {"type": "DT_FLOAT"}, "Tidx": {"type": "DT_INT32"}, "keep_dims": {"b": true}}}, "constants": {"1": [1, 2]}}, "name": "tf_op_layer_Mean_15", "inbound_nodes": [[["conv2d_62", 0, 0, {}]]]}, {"class_name": "Conv2D", "config": {"name": "conv2d_63", "trainable": true, "dtype": "float32", "filters": 4, "kernel_size": [1, 1], "strides": [1, 1], "padding": "same", "data_format": "channels_last", "dilation_rate": [1, 1], "groups": 1, "activation": "relu", "use_bias": true, "kernel_initializer": {"class_name": "RandomUniform", "config": {"minval": -0.125, "maxval": 0.125, "seed": null}}, "bias_initializer": {"class_name": "RandomUniform", "config": {"minval": -0.125, "maxval": 0.125, "seed": null}}, "kernel_regularizer": null, "bias_regularizer": null, "activity_regularizer": null, "kernel_constraint": null, "bias_constraint": null}, "name": "conv2d_63", "inbound_nodes": [[["tf_op_layer_Mean_15", 0, 0, {}]]]}, {"class_name": "Conv2D", "config": {"name": "conv2d_64", "trainable": true, "dtype": "float32", "filters": 64, "kernel_size": [1, 1], "strides": [1, 1], "padding": "same", "data_format": "channels_last", "dilation_rate": [1, 1], "groups": 1, "activation": "sigmoid", "use_bias": true, "kernel_initializer": {"class_name": "RandomUniform", "config": {"minval": -0.5, "maxval": 0.5, "seed": null}}, "bias_initializer": {"class_name": "RandomUniform", "config": {"minval": -0.5, "maxval": 0.5, "seed": null}}, "kernel_regularizer": null, "bias_regularizer": null, "activity_regularizer": null, "kernel_constraint": null, "bias_constraint": null}, "name": "conv2d_64", "inbound_nodes": [[["conv2d_63", 0, 0, {}]]]}, {"class_name": "Multiply", "config": {"name": "multiply_15", "trainable": true, "dtype": "float32"}, "name": "multiply_15", "inbound_nodes": [[["conv2d_64", 0, 0, {}], ["conv2d_62", 0, 0, {}]]]}, {"class_name": "Add", "config": {"name": "add_15", "trainable": true, "dtype": "float32"}, "name": "add_15", "inbound_nodes": [[["multiply_15", 0, 0, {}], ["add_14", 0, 0, {}]]]}, {"class_name": "Conv2D", "config": {"name": "conv2d_65", "trainable": true, "dtype": "float32", "filters": 64, "kernel_size": [3, 3], "strides": [1, 1], "padding": "same", "data_format": "channels_last", "dilation_rate": [1, 1], "groups": 1, "activation": "linear", "use_bias": true, "kernel_initializer": {"class_name": "RandomUniform", "config": {"minval": -0.041666666666666664, "maxval": 0.041666666666666664, "seed": null}}, "bias_initializer": {"class_name": "RandomUniform", "config": {"minval": -0.041666666666666664, "maxval": 0.041666666666666664, "seed": null}}, "kernel_regularizer": null, "bias_regularizer": null, "activity_regularizer": null, "kernel_constraint": null, "bias_constraint": null}, "name": "conv2d_65", "inbound_nodes": [[["add_15", 0, 0, {}]]]}, {"class_name": "ReLU", "config": {"name": "re_lu_16", "trainable": true, "dtype": "float32", "max_value": null, "negative_slope": 0.0, "threshold": 0.0}, "name": "re_lu_16", "inbound_nodes": [[["conv2d_65", 0, 0, {}]]]}, {"class_name": "Conv2D", "config": {"name": "conv2d_66", "trainable": true, "dtype": "float32", "filters": 64, "kernel_size": [3, 3], "strides": [1, 1], "padding": "same", "data_format": "channels_last", "dilation_rate": [1, 1], "groups": 1, "activation": "linear", "use_bias": true, "kernel_initializer": {"class_name": "RandomUniform", "config": {"minval": -0.041666666666666664, "maxval": 0.041666666666666664, "seed": null}}, "bias_initializer": {"class_name": "RandomUniform", "config": {"minval": -0.041666666666666664, "maxval": 0.041666666666666664, "seed": null}}, "kernel_regularizer": null, "bias_regularizer": null, "activity_regularizer": null, "kernel_constraint": null, "bias_constraint": null}, "name": "conv2d_66", "inbound_nodes": [[["re_lu_16", 0, 0, {}]]]}, {"class_name": "TensorFlowOpLayer", "config": {"name": "Mean_16", "trainable": true, "dtype": "float32", "node_def": {"name": "Mean_16", "op": "Mean", "input": ["conv2d_66/BiasAdd", "Mean_16/reduction_indices"], "attr": {"Tidx": {"type": "DT_INT32"}, "keep_dims": {"b": true}, "T": {"type": "DT_FLOAT"}}}, "constants": {"1": [1, 2]}}, "name": "tf_op_layer_Mean_16", "inbound_nodes": [[["conv2d_66", 0, 0, {}]]]}, {"class_name": "Conv2D", "config": {"name": "conv2d_67", "trainable": true, "dtype": "float32", "filters": 4, "kernel_size": [1, 1], "strides": [1, 1], "padding": "same", "data_format": "channels_last", "dilation_rate": [1, 1], "groups": 1, "activation": "relu", "use_bias": true, "kernel_initializer": {"class_name": "RandomUniform", "config": {"minval": -0.125, "maxval": 0.125, "seed": null}}, "bias_initializer": {"class_name": "RandomUniform", "config": {"minval": -0.125, "maxval": 0.125, "seed": null}}, "kernel_regularizer": null, "bias_regularizer": null, "activity_regularizer": null, "kernel_constraint": null, "bias_constraint": null}, "name": "conv2d_67", "inbound_nodes": [[["tf_op_layer_Mean_16", 0, 0, {}]]]}, {"class_name": "Conv2D", "config": {"name": "conv2d_68", "trainable": true, "dtype": "float32", "filters": 64, "kernel_size": [1, 1], "strides": [1, 1], "padding": "same", "data_format": "channels_last", "dilation_rate": [1, 1], "groups": 1, "activation": "sigmoid", "use_bias": true, "kernel_initializer": {"class_name": "RandomUniform", "config": {"minval": -0.5, "maxval": 0.5, "seed": null}}, "bias_initializer": {"class_name": "RandomUniform", "config": {"minval": -0.5, "maxval": 0.5, "seed": null}}, "kernel_regularizer": null, "bias_regularizer": null, "activity_regularizer": null, "kernel_constraint": null, "bias_constraint": null}, "name": "conv2d_68", "inbound_nodes": [[["conv2d_67", 0, 0, {}]]]}, {"class_name": "Multiply", "config": {"name": "multiply_16", "trainable": true, "dtype": "float32"}, "name": "multiply_16", "inbound_nodes": [[["conv2d_68", 0, 0, {}], ["conv2d_66", 0, 0, {}]]]}, {"class_name": "Add", "config": {"name": "add_16", "trainable": true, "dtype": "float32"}, "name": "add_16", "inbound_nodes": [[["multiply_16", 0, 0, {}], ["add_15", 0, 0, {}]]]}, {"class_name": "Conv2D", "config": {"name": "conv2d_69", "trainable": true, "dtype": "float32", "filters": 64, "kernel_size": [3, 3], "strides": [1, 1], "padding": "same", "data_format": "channels_last", "dilation_rate": [1, 1], "groups": 1, "activation": "linear", "use_bias": true, "kernel_initializer": {"class_name": "RandomUniform", "config": {"minval": -0.041666666666666664, "maxval": 0.041666666666666664, "seed": null}}, "bias_initializer": {"class_name": "RandomUniform", "config": {"minval": -0.041666666666666664, "maxval": 0.041666666666666664, "seed": null}}, "kernel_regularizer": null, "bias_regularizer": null, "activity_regularizer": null, "kernel_constraint": null, "bias_constraint": null}, "name": "conv2d_69", "inbound_nodes": [[["add_16", 0, 0, {}]]]}, {"class_name": "ReLU", "config": {"name": "re_lu_17", "trainable": true, "dtype": "float32", "max_value": null, "negative_slope": 0.0, "threshold": 0.0}, "name": "re_lu_17", "inbound_nodes": [[["conv2d_69", 0, 0, {}]]]}, {"class_name": "Conv2D", "config": {"name": "conv2d_70", "trainable": true, "dtype": "float32", "filters": 64, "kernel_size": [3, 3], "strides": [1, 1], "padding": "same", "data_format": "channels_last", "dilation_rate": [1, 1], "groups": 1, "activation": "linear", "use_bias": true, "kernel_initializer": {"class_name": "RandomUniform", "config": {"minval": -0.041666666666666664, "maxval": 0.041666666666666664, "seed": null}}, "bias_initializer": {"class_name": "RandomUniform", "config": {"minval": -0.041666666666666664, "maxval": 0.041666666666666664, "seed": null}}, "kernel_regularizer": null, "bias_regularizer": null, "activity_regularizer": null, "kernel_constraint": null, "bias_constraint": null}, "name": "conv2d_70", "inbound_nodes": [[["re_lu_17", 0, 0, {}]]]}, {"class_name": "TensorFlowOpLayer", "config": {"name": "Mean_17", "trainable": true, "dtype": "float32", "node_def": {"name": "Mean_17", "op": "Mean", "input": ["conv2d_70/BiasAdd", "Mean_17/reduction_indices"], "attr": {"Tidx": {"type": "DT_INT32"}, "T": {"type": "DT_FLOAT"}, "keep_dims": {"b": true}}}, "constants": {"1": [1, 2]}}, "name": "tf_op_layer_Mean_17", "inbound_nodes": [[["conv2d_70", 0, 0, {}]]]}, {"class_name": "Conv2D", "config": {"name": "conv2d_71", "trainable": true, "dtype": "float32", "filters": 4, "kernel_size": [1, 1], "strides": [1, 1], "padding": "same", "data_format": "channels_last", "dilation_rate": [1, 1], "groups": 1, "activation": "relu", "use_bias": true, "kernel_initializer": {"class_name": "RandomUniform", "config": {"minval": -0.125, "maxval": 0.125, "seed": null}}, "bias_initializer": {"class_name": "RandomUniform", "config": {"minval": -0.125, "maxval": 0.125, "seed": null}}, "kernel_regularizer": null, "bias_regularizer": null, "activity_regularizer": null, "kernel_constraint": null, "bias_constraint": null}, "name": "conv2d_71", "inbound_nodes": [[["tf_op_layer_Mean_17", 0, 0, {}]]]}, {"class_name": "Conv2D", "config": {"name": "conv2d_72", "trainable": true, "dtype": "float32", "filters": 64, "kernel_size": [1, 1], "strides": [1, 1], "padding": "same", "data_format": "channels_last", "dilation_rate": [1, 1], "groups": 1, "activation": "sigmoid", "use_bias": true, "kernel_initializer": {"class_name": "RandomUniform", "config": {"minval": -0.5, "maxval": 0.5, "seed": null}}, "bias_initializer": {"class_name": "RandomUniform", "config": {"minval": -0.5, "maxval": 0.5, "seed": null}}, "kernel_regularizer": null, "bias_regularizer": null, "activity_regularizer": null, "kernel_constraint": null, "bias_constraint": null}, "name": "conv2d_72", "inbound_nodes": [[["conv2d_71", 0, 0, {}]]]}, {"class_name": "Multiply", "config": {"name": "multiply_17", "trainable": true, "dtype": "float32"}, "name": "multiply_17", "inbound_nodes": [[["conv2d_72", 0, 0, {}], ["conv2d_70", 0, 0, {}]]]}, {"class_name": "Add", "config": {"name": "add_17", "trainable": true, "dtype": "float32"}, "name": "add_17", "inbound_nodes": [[["multiply_17", 0, 0, {}], ["add_16", 0, 0, {}]]]}, {"class_name": "Conv2D", "config": {"name": "conv2d_73", "trainable": true, "dtype": "float32", "filters": 64, "kernel_size": [3, 3], "strides": [1, 1], "padding": "same", "data_format": "channels_last", "dilation_rate": [1, 1], "groups": 1, "activation": "linear", "use_bias": true, "kernel_initializer": {"class_name": "RandomUniform", "config": {"minval": -0.041666666666666664, "maxval": 0.041666666666666664, "seed": null}}, "bias_initializer": {"class_name": "RandomUniform", "config": {"minval": -0.041666666666666664, "maxval": 0.041666666666666664, "seed": null}}, "kernel_regularizer": null, "bias_regularizer": null, "activity_regularizer": null, "kernel_constraint": null, "bias_constraint": null}, "name": "conv2d_73", "inbound_nodes": [[["add_17", 0, 0, {}]]]}, {"class_name": "ReLU", "config": {"name": "re_lu_18", "trainable": true, "dtype": "float32", "max_value": null, "negative_slope": 0.0, "threshold": 0.0}, "name": "re_lu_18", "inbound_nodes": [[["conv2d_73", 0, 0, {}]]]}, {"class_name": "Conv2D", "config": {"name": "conv2d_74", "trainable": true, "dtype": "float32", "filters": 64, "kernel_size": [3, 3], "strides": [1, 1], "padding": "same", "data_format": "channels_last", "dilation_rate": [1, 1], "groups": 1, "activation": "linear", "use_bias": true, "kernel_initializer": {"class_name": "RandomUniform", "config": {"minval": -0.041666666666666664, "maxval": 0.041666666666666664, "seed": null}}, "bias_initializer": {"class_name": "RandomUniform", "config": {"minval": -0.041666666666666664, "maxval": 0.041666666666666664, "seed": null}}, "kernel_regularizer": null, "bias_regularizer": null, "activity_regularizer": null, "kernel_constraint": null, "bias_constraint": null}, "name": "conv2d_74", "inbound_nodes": [[["re_lu_18", 0, 0, {}]]]}, {"class_name": "TensorFlowOpLayer", "config": {"name": "Mean_18", "trainable": true, "dtype": "float32", "node_def": {"name": "Mean_18", "op": "Mean", "input": ["conv2d_74/BiasAdd", "Mean_18/reduction_indices"], "attr": {"Tidx": {"type": "DT_INT32"}, "keep_dims": {"b": true}, "T": {"type": "DT_FLOAT"}}}, "constants": {"1": [1, 2]}}, "name": "tf_op_layer_Mean_18", "inbound_nodes": [[["conv2d_74", 0, 0, {}]]]}, {"class_name": "Conv2D", "config": {"name": "conv2d_75", "trainable": true, "dtype": "float32", "filters": 4, "kernel_size": [1, 1], "strides": [1, 1], "padding": "same", "data_format": "channels_last", "dilation_rate": [1, 1], "groups": 1, "activation": "relu", "use_bias": true, "kernel_initializer": {"class_name": "RandomUniform", "config": {"minval": -0.125, "maxval": 0.125, "seed": null}}, "bias_initializer": {"class_name": "RandomUniform", "config": {"minval": -0.125, "maxval": 0.125, "seed": null}}, "kernel_regularizer": null, "bias_regularizer": null, "activity_regularizer": null, "kernel_constraint": null, "bias_constraint": null}, "name": "conv2d_75", "inbound_nodes": [[["tf_op_layer_Mean_18", 0, 0, {}]]]}, {"class_name": "Conv2D", "config": {"name": "conv2d_76", "trainable": true, "dtype": "float32", "filters": 64, "kernel_size": [1, 1], "strides": [1, 1], "padding": "same", "data_format": "channels_last", "dilation_rate": [1, 1], "groups": 1, "activation": "sigmoid", "use_bias": true, "kernel_initializer": {"class_name": "RandomUniform", "config": {"minval": -0.5, "maxval": 0.5, "seed": null}}, "bias_initializer": {"class_name": "RandomUniform", "config": {"minval": -0.5, "maxval": 0.5, "seed": null}}, "kernel_regularizer": null, "bias_regularizer": null, "activity_regularizer": null, "kernel_constraint": null, "bias_constraint": null}, "name": "conv2d_76", "inbound_nodes": [[["conv2d_75", 0, 0, {}]]]}, {"class_name": "Multiply", "config": {"name": "multiply_18", "trainable": true, "dtype": "float32"}, "name": "multiply_18", "inbound_nodes": [[["conv2d_76", 0, 0, {}], ["conv2d_74", 0, 0, {}]]]}, {"class_name": "Add", "config": {"name": "add_18", "trainable": true, "dtype": "float32"}, "name": "add_18", "inbound_nodes": [[["multiply_18", 0, 0, {}], ["add_17", 0, 0, {}]]]}, {"class_name": "Conv2D", "config": {"name": "conv2d_77", "trainable": true, "dtype": "float32", "filters": 64, "kernel_size": [3, 3], "strides": [1, 1], "padding": "same", "data_format": "channels_last", "dilation_rate": [1, 1], "groups": 1, "activation": "linear", "use_bias": true, "kernel_initializer": {"class_name": "RandomUniform", "config": {"minval": -0.041666666666666664, "maxval": 0.041666666666666664, "seed": null}}, "bias_initializer": {"class_name": "RandomUniform", "config": {"minval": -0.041666666666666664, "maxval": 0.041666666666666664, "seed": null}}, "kernel_regularizer": null, "bias_regularizer": null, "activity_regularizer": null, "kernel_constraint": null, "bias_constraint": null}, "name": "conv2d_77", "inbound_nodes": [[["add_18", 0, 0, {}]]]}, {"class_name": "ReLU", "config": {"name": "re_lu_19", "trainable": true, "dtype": "float32", "max_value": null, "negative_slope": 0.0, "threshold": 0.0}, "name": "re_lu_19", "inbound_nodes": [[["conv2d_77", 0, 0, {}]]]}, {"class_name": "Conv2D", "config": {"name": "conv2d_78", "trainable": true, "dtype": "float32", "filters": 64, "kernel_size": [3, 3], "strides": [1, 1], "padding": "same", "data_format": "channels_last", "dilation_rate": [1, 1], "groups": 1, "activation": "linear", "use_bias": true, "kernel_initializer": {"class_name": "RandomUniform", "config": {"minval": -0.041666666666666664, "maxval": 0.041666666666666664, "seed": null}}, "bias_initializer": {"class_name": "RandomUniform", "config": {"minval": -0.041666666666666664, "maxval": 0.041666666666666664, "seed": null}}, "kernel_regularizer": null, "bias_regularizer": null, "activity_regularizer": null, "kernel_constraint": null, "bias_constraint": null}, "name": "conv2d_78", "inbound_nodes": [[["re_lu_19", 0, 0, {}]]]}, {"class_name": "TensorFlowOpLayer", "config": {"name": "Mean_19", "trainable": true, "dtype": "float32", "node_def": {"name": "Mean_19", "op": "Mean", "input": ["conv2d_78/BiasAdd", "Mean_19/reduction_indices"], "attr": {"keep_dims": {"b": true}, "Tidx": {"type": "DT_INT32"}, "T": {"type": "DT_FLOAT"}}}, "constants": {"1": [1, 2]}}, "name": "tf_op_layer_Mean_19", "inbound_nodes": [[["conv2d_78", 0, 0, {}]]]}, {"class_name": "Conv2D", "config": {"name": "conv2d_79", "trainable": true, "dtype": "float32", "filters": 4, "kernel_size": [1, 1], "strides": [1, 1], "padding": "same", "data_format": "channels_last", "dilation_rate": [1, 1], "groups": 1, "activation": "relu", "use_bias": true, "kernel_initializer": {"class_name": "RandomUniform", "config": {"minval": -0.125, "maxval": 0.125, "seed": null}}, "bias_initializer": {"class_name": "RandomUniform", "config": {"minval": -0.125, "maxval": 0.125, "seed": null}}, "kernel_regularizer": null, "bias_regularizer": null, "activity_regularizer": null, "kernel_constraint": null, "bias_constraint": null}, "name": "conv2d_79", "inbound_nodes": [[["tf_op_layer_Mean_19", 0, 0, {}]]]}, {"class_name": "Conv2D", "config": {"name": "conv2d_80", "trainable": true, "dtype": "float32", "filters": 64, "kernel_size": [1, 1], "strides": [1, 1], "padding": "same", "data_format": "channels_last", "dilation_rate": [1, 1], "groups": 1, "activation": "sigmoid", "use_bias": true, "kernel_initializer": {"class_name": "RandomUniform", "config": {"minval": -0.5, "maxval": 0.5, "seed": null}}, "bias_initializer": {"class_name": "RandomUniform", "config": {"minval": -0.5, "maxval": 0.5, "seed": null}}, "kernel_regularizer": null, "bias_regularizer": null, "activity_regularizer": null, "kernel_constraint": null, "bias_constraint": null}, "name": "conv2d_80", "inbound_nodes": [[["conv2d_79", 0, 0, {}]]]}, {"class_name": "Multiply", "config": {"name": "multiply_19", "trainable": true, "dtype": "float32"}, "name": "multiply_19", "inbound_nodes": [[["conv2d_80", 0, 0, {}], ["conv2d_78", 0, 0, {}]]]}, {"class_name": "Add", "config": {"name": "add_19", "trainable": true, "dtype": "float32"}, "name": "add_19", "inbound_nodes": [[["multiply_19", 0, 0, {}], ["add_18", 0, 0, {}]]]}, {"class_name": "Conv2D", "config": {"name": "conv2d_81", "trainable": true, "dtype": "float32", "filters": 64, "kernel_size": [3, 3], "strides": [1, 1], "padding": "same", "data_format": "channels_last", "dilation_rate": [1, 1], "groups": 1, "activation": "linear", "use_bias": true, "kernel_initializer": {"class_name": "RandomUniform", "config": {"minval": -0.041666666666666664, "maxval": 0.041666666666666664, "seed": null}}, "bias_initializer": {"class_name": "RandomUniform", "config": {"minval": -0.041666666666666664, "maxval": 0.041666666666666664, "seed": null}}, "kernel_regularizer": null, "bias_regularizer": null, "activity_regularizer": null, "kernel_constraint": null, "bias_constraint": null}, "name": "conv2d_81", "inbound_nodes": [[["add_19", 0, 0, {}]]]}, {"class_name": "Add", "config": {"name": "add_20", "trainable": true, "dtype": "float32"}, "name": "add_20", "inbound_nodes": [[["conv2d_81", 0, 0, {}], ["conv2d", 0, 0, {}]]]}, {"class_name": "Conv2D", "config": {"name": "conv2d_82", "trainable": true, "dtype": "float32", "filters": 64, "kernel_size": [3, 3], "strides": [1, 1], "padding": "same", "data_format": "channels_last", "dilation_rate": [1, 1], "groups": 1, "activation": "linear", "use_bias": true, "kernel_initializer": {"class_name": "RandomUniform", "config": {"minval": -0.041666666666666664, "maxval": 0.041666666666666664, "seed": null}}, "bias_initializer": {"class_name": "RandomUniform", "config": {"minval": -0.041666666666666664, "maxval": 0.041666666666666664, "seed": null}}, "kernel_regularizer": null, "bias_regularizer": null, "activity_regularizer": null, "kernel_constraint": null, "bias_constraint": null}, "name": "conv2d_82", "inbound_nodes": [[["add_20", 0, 0, {}]]]}, {"class_name": "ReLU", "config": {"name": "re_lu_20", "trainable": true, "dtype": "float32", "max_value": null, "negative_slope": 0.0, "threshold": 0.0}, "name": "re_lu_20", "inbound_nodes": [[["conv2d_82", 0, 0, {}]]]}, {"class_name": "Conv2D", "config": {"name": "conv2d_83", "trainable": true, "dtype": "float32", "filters": 64, "kernel_size": [3, 3], "strides": [1, 1], "padding": "same", "data_format": "channels_last", "dilation_rate": [1, 1], "groups": 1, "activation": "linear", "use_bias": true, "kernel_initializer": {"class_name": "RandomUniform", "config": {"minval": -0.041666666666666664, "maxval": 0.041666666666666664, "seed": null}}, "bias_initializer": {"class_name": "RandomUniform", "config": {"minval": -0.041666666666666664, "maxval": 0.041666666666666664, "seed": null}}, "kernel_regularizer": null, "bias_regularizer": null, "activity_regularizer": null, "kernel_constraint": null, "bias_constraint": null}, "name": "conv2d_83", "inbound_nodes": [[["re_lu_20", 0, 0, {}]]]}, {"class_name": "TensorFlowOpLayer", "config": {"name": "Mean_20", "trainable": true, "dtype": "float32", "node_def": {"name": "Mean_20", "op": "Mean", "input": ["conv2d_83/BiasAdd", "Mean_20/reduction_indices"], "attr": {"keep_dims": {"b": true}, "T": {"type": "DT_FLOAT"}, "Tidx": {"type": "DT_INT32"}}}, "constants": {"1": [1, 2]}}, "name": "tf_op_layer_Mean_20", "inbound_nodes": [[["conv2d_83", 0, 0, {}]]]}, {"class_name": "Conv2D", "config": {"name": "conv2d_84", "trainable": true, "dtype": "float32", "filters": 4, "kernel_size": [1, 1], "strides": [1, 1], "padding": "same", "data_format": "channels_last", "dilation_rate": [1, 1], "groups": 1, "activation": "relu", "use_bias": true, "kernel_initializer": {"class_name": "RandomUniform", "config": {"minval": -0.125, "maxval": 0.125, "seed": null}}, "bias_initializer": {"class_name": "RandomUniform", "config": {"minval": -0.125, "maxval": 0.125, "seed": null}}, "kernel_regularizer": null, "bias_regularizer": null, "activity_regularizer": null, "kernel_constraint": null, "bias_constraint": null}, "name": "conv2d_84", "inbound_nodes": [[["tf_op_layer_Mean_20", 0, 0, {}]]]}, {"class_name": "Conv2D", "config": {"name": "conv2d_85", "trainable": true, "dtype": "float32", "filters": 64, "kernel_size": [1, 1], "strides": [1, 1], "padding": "same", "data_format": "channels_last", "dilation_rate": [1, 1], "groups": 1, "activation": "sigmoid", "use_bias": true, "kernel_initializer": {"class_name": "RandomUniform", "config": {"minval": -0.5, "maxval": 0.5, "seed": null}}, "bias_initializer": {"class_name": "RandomUniform", "config": {"minval": -0.5, "maxval": 0.5, "seed": null}}, "kernel_regularizer": null, "bias_regularizer": null, "activity_regularizer": null, "kernel_constraint": null, "bias_constraint": null}, "name": "conv2d_85", "inbound_nodes": [[["conv2d_84", 0, 0, {}]]]}, {"class_name": "Multiply", "config": {"name": "multiply_20", "trainable": true, "dtype": "float32"}, "name": "multiply_20", "inbound_nodes": [[["conv2d_85", 0, 0, {}], ["conv2d_83", 0, 0, {}]]]}, {"class_name": "Add", "config": {"name": "add_21", "trainable": true, "dtype": "float32"}, "name": "add_21", "inbound_nodes": [[["multiply_20", 0, 0, {}], ["add_20", 0, 0, {}]]]}, {"class_name": "Conv2D", "config": {"name": "conv2d_86", "trainable": true, "dtype": "float32", "filters": 64, "kernel_size": [3, 3], "strides": [1, 1], "padding": "same", "data_format": "channels_last", "dilation_rate": [1, 1], "groups": 1, "activation": "linear", "use_bias": true, "kernel_initializer": {"class_name": "RandomUniform", "config": {"minval": -0.041666666666666664, "maxval": 0.041666666666666664, "seed": null}}, "bias_initializer": {"class_name": "RandomUniform", "config": {"minval": -0.041666666666666664, "maxval": 0.041666666666666664, "seed": null}}, "kernel_regularizer": null, "bias_regularizer": null, "activity_regularizer": null, "kernel_constraint": null, "bias_constraint": null}, "name": "conv2d_86", "inbound_nodes": [[["add_21", 0, 0, {}]]]}, {"class_name": "ReLU", "config": {"name": "re_lu_21", "trainable": true, "dtype": "float32", "max_value": null, "negative_slope": 0.0, "threshold": 0.0}, "name": "re_lu_21", "inbound_nodes": [[["conv2d_86", 0, 0, {}]]]}, {"class_name": "Conv2D", "config": {"name": "conv2d_87", "trainable": true, "dtype": "float32", "filters": 64, "kernel_size": [3, 3], "strides": [1, 1], "padding": "same", "data_format": "channels_last", "dilation_rate": [1, 1], "groups": 1, "activation": "linear", "use_bias": true, "kernel_initializer": {"class_name": "RandomUniform", "config": {"minval": -0.041666666666666664, "maxval": 0.041666666666666664, "seed": null}}, "bias_initializer": {"class_name": "RandomUniform", "config": {"minval": -0.041666666666666664, "maxval": 0.041666666666666664, "seed": null}}, "kernel_regularizer": null, "bias_regularizer": null, "activity_regularizer": null, "kernel_constraint": null, "bias_constraint": null}, "name": "conv2d_87", "inbound_nodes": [[["re_lu_21", 0, 0, {}]]]}, {"class_name": "TensorFlowOpLayer", "config": {"name": "Mean_21", "trainable": true, "dtype": "float32", "node_def": {"name": "Mean_21", "op": "Mean", "input": ["conv2d_87/BiasAdd", "Mean_21/reduction_indices"], "attr": {"T": {"type": "DT_FLOAT"}, "keep_dims": {"b": true}, "Tidx": {"type": "DT_INT32"}}}, "constants": {"1": [1, 2]}}, "name": "tf_op_layer_Mean_21", "inbound_nodes": [[["conv2d_87", 0, 0, {}]]]}, {"class_name": "Conv2D", "config": {"name": "conv2d_88", "trainable": true, "dtype": "float32", "filters": 4, "kernel_size": [1, 1], "strides": [1, 1], "padding": "same", "data_format": "channels_last", "dilation_rate": [1, 1], "groups": 1, "activation": "relu", "use_bias": true, "kernel_initializer": {"class_name": "RandomUniform", "config": {"minval": -0.125, "maxval": 0.125, "seed": null}}, "bias_initializer": {"class_name": "RandomUniform", "config": {"minval": -0.125, "maxval": 0.125, "seed": null}}, "kernel_regularizer": null, "bias_regularizer": null, "activity_regularizer": null, "kernel_constraint": null, "bias_constraint": null}, "name": "conv2d_88", "inbound_nodes": [[["tf_op_layer_Mean_21", 0, 0, {}]]]}, {"class_name": "Conv2D", "config": {"name": "conv2d_89", "trainable": true, "dtype": "float32", "filters": 64, "kernel_size": [1, 1], "strides": [1, 1], "padding": "same", "data_format": "channels_last", "dilation_rate": [1, 1], "groups": 1, "activation": "sigmoid", "use_bias": true, "kernel_initializer": {"class_name": "RandomUniform", "config": {"minval": -0.5, "maxval": 0.5, "seed": null}}, "bias_initializer": {"class_name": "RandomUniform", "config": {"minval": -0.5, "maxval": 0.5, "seed": null}}, "kernel_regularizer": null, "bias_regularizer": null, "activity_regularizer": null, "kernel_constraint": null, "bias_constraint": null}, "name": "conv2d_89", "inbound_nodes": [[["conv2d_88", 0, 0, {}]]]}, {"class_name": "Multiply", "config": {"name": "multiply_21", "trainable": true, "dtype": "float32"}, "name": "multiply_21", "inbound_nodes": [[["conv2d_89", 0, 0, {}], ["conv2d_87", 0, 0, {}]]]}, {"class_name": "Add", "config": {"name": "add_22", "trainable": true, "dtype": "float32"}, "name": "add_22", "inbound_nodes": [[["multiply_21", 0, 0, {}], ["add_21", 0, 0, {}]]]}, {"class_name": "Conv2D", "config": {"name": "conv2d_90", "trainable": true, "dtype": "float32", "filters": 64, "kernel_size": [3, 3], "strides": [1, 1], "padding": "same", "data_format": "channels_last", "dilation_rate": [1, 1], "groups": 1, "activation": "linear", "use_bias": true, "kernel_initializer": {"class_name": "RandomUniform", "config": {"minval": -0.041666666666666664, "maxval": 0.041666666666666664, "seed": null}}, "bias_initializer": {"class_name": "RandomUniform", "config": {"minval": -0.041666666666666664, "maxval": 0.041666666666666664, "seed": null}}, "kernel_regularizer": null, "bias_regularizer": null, "activity_regularizer": null, "kernel_constraint": null, "bias_constraint": null}, "name": "conv2d_90", "inbound_nodes": [[["add_22", 0, 0, {}]]]}, {"class_name": "ReLU", "config": {"name": "re_lu_22", "trainable": true, "dtype": "float32", "max_value": null, "negative_slope": 0.0, "threshold": 0.0}, "name": "re_lu_22", "inbound_nodes": [[["conv2d_90", 0, 0, {}]]]}, {"class_name": "Conv2D", "config": {"name": "conv2d_91", "trainable": true, "dtype": "float32", "filters": 64, "kernel_size": [3, 3], "strides": [1, 1], "padding": "same", "data_format": "channels_last", "dilation_rate": [1, 1], "groups": 1, "activation": "linear", "use_bias": true, "kernel_initializer": {"class_name": "RandomUniform", "config": {"minval": -0.041666666666666664, "maxval": 0.041666666666666664, "seed": null}}, "bias_initializer": {"class_name": "RandomUniform", "config": {"minval": -0.041666666666666664, "maxval": 0.041666666666666664, "seed": null}}, "kernel_regularizer": null, "bias_regularizer": null, "activity_regularizer": null, "kernel_constraint": null, "bias_constraint": null}, "name": "conv2d_91", "inbound_nodes": [[["re_lu_22", 0, 0, {}]]]}, {"class_name": "TensorFlowOpLayer", "config": {"name": "Mean_22", "trainable": true, "dtype": "float32", "node_def": {"name": "Mean_22", "op": "Mean", "input": ["conv2d_91/BiasAdd", "Mean_22/reduction_indices"], "attr": {"keep_dims": {"b": true}, "Tidx": {"type": "DT_INT32"}, "T": {"type": "DT_FLOAT"}}}, "constants": {"1": [1, 2]}}, "name": "tf_op_layer_Mean_22", "inbound_nodes": [[["conv2d_91", 0, 0, {}]]]}, {"class_name": "Conv2D", "config": {"name": "conv2d_92", "trainable": true, "dtype": "float32", "filters": 4, "kernel_size": [1, 1], "strides": [1, 1], "padding": "same", "data_format": "channels_last", "dilation_rate": [1, 1], "groups": 1, "activation": "relu", "use_bias": true, "kernel_initializer": {"class_name": "RandomUniform", "config": {"minval": -0.125, "maxval": 0.125, "seed": null}}, "bias_initializer": {"class_name": "RandomUniform", "config": {"minval": -0.125, "maxval": 0.125, "seed": null}}, "kernel_regularizer": null, "bias_regularizer": null, "activity_regularizer": null, "kernel_constraint": null, "bias_constraint": null}, "name": "conv2d_92", "inbound_nodes": [[["tf_op_layer_Mean_22", 0, 0, {}]]]}, {"class_name": "Conv2D", "config": {"name": "conv2d_93", "trainable": true, "dtype": "float32", "filters": 64, "kernel_size": [1, 1], "strides": [1, 1], "padding": "same", "data_format": "channels_last", "dilation_rate": [1, 1], "groups": 1, "activation": "sigmoid", "use_bias": true, "kernel_initializer": {"class_name": "RandomUniform", "config": {"minval": -0.5, "maxval": 0.5, "seed": null}}, "bias_initializer": {"class_name": "RandomUniform", "config": {"minval": -0.5, "maxval": 0.5, "seed": null}}, "kernel_regularizer": null, "bias_regularizer": null, "activity_regularizer": null, "kernel_constraint": null, "bias_constraint": null}, "name": "conv2d_93", "inbound_nodes": [[["conv2d_92", 0, 0, {}]]]}, {"class_name": "Multiply", "config": {"name": "multiply_22", "trainable": true, "dtype": "float32"}, "name": "multiply_22", "inbound_nodes": [[["conv2d_93", 0, 0, {}], ["conv2d_91", 0, 0, {}]]]}, {"class_name": "Add", "config": {"name": "add_23", "trainable": true, "dtype": "float32"}, "name": "add_23", "inbound_nodes": [[["multiply_22", 0, 0, {}], ["add_22", 0, 0, {}]]]}, {"class_name": "Conv2D", "config": {"name": "conv2d_94", "trainable": true, "dtype": "float32", "filters": 64, "kernel_size": [3, 3], "strides": [1, 1], "padding": "same", "data_format": "channels_last", "dilation_rate": [1, 1], "groups": 1, "activation": "linear", "use_bias": true, "kernel_initializer": {"class_name": "RandomUniform", "config": {"minval": -0.041666666666666664, "maxval": 0.041666666666666664, "seed": null}}, "bias_initializer": {"class_name": "RandomUniform", "config": {"minval": -0.041666666666666664, "maxval": 0.041666666666666664, "seed": null}}, "kernel_regularizer": null, "bias_regularizer": null, "activity_regularizer": null, "kernel_constraint": null, "bias_constraint": null}, "name": "conv2d_94", "inbound_nodes": [[["add_23", 0, 0, {}]]]}, {"class_name": "ReLU", "config": {"name": "re_lu_23", "trainable": true, "dtype": "float32", "max_value": null, "negative_slope": 0.0, "threshold": 0.0}, "name": "re_lu_23", "inbound_nodes": [[["conv2d_94", 0, 0, {}]]]}, {"class_name": "Conv2D", "config": {"name": "conv2d_95", "trainable": true, "dtype": "float32", "filters": 64, "kernel_size": [3, 3], "strides": [1, 1], "padding": "same", "data_format": "channels_last", "dilation_rate": [1, 1], "groups": 1, "activation": "linear", "use_bias": true, "kernel_initializer": {"class_name": "RandomUniform", "config": {"minval": -0.041666666666666664, "maxval": 0.041666666666666664, "seed": null}}, "bias_initializer": {"class_name": "RandomUniform", "config": {"minval": -0.041666666666666664, "maxval": 0.041666666666666664, "seed": null}}, "kernel_regularizer": null, "bias_regularizer": null, "activity_regularizer": null, "kernel_constraint": null, "bias_constraint": null}, "name": "conv2d_95", "inbound_nodes": [[["re_lu_23", 0, 0, {}]]]}, {"class_name": "TensorFlowOpLayer", "config": {"name": "Mean_23", "trainable": true, "dtype": "float32", "node_def": {"name": "Mean_23", "op": "Mean", "input": ["conv2d_95/BiasAdd", "Mean_23/reduction_indices"], "attr": {"Tidx": {"type": "DT_INT32"}, "T": {"type": "DT_FLOAT"}, "keep_dims": {"b": true}}}, "constants": {"1": [1, 2]}}, "name": "tf_op_layer_Mean_23", "inbound_nodes": [[["conv2d_95", 0, 0, {}]]]}, {"class_name": "Conv2D", "config": {"name": "conv2d_96", "trainable": true, "dtype": "float32", "filters": 4, "kernel_size": [1, 1], "strides": [1, 1], "padding": "same", "data_format": "channels_last", "dilation_rate": [1, 1], "groups": 1, "activation": "relu", "use_bias": true, "kernel_initializer": {"class_name": "RandomUniform", "config": {"minval": -0.125, "maxval": 0.125, "seed": null}}, "bias_initializer": {"class_name": "RandomUniform", "config": {"minval": -0.125, "maxval": 0.125, "seed": null}}, "kernel_regularizer": null, "bias_regularizer": null, "activity_regularizer": null, "kernel_constraint": null, "bias_constraint": null}, "name": "conv2d_96", "inbound_nodes": [[["tf_op_layer_Mean_23", 0, 0, {}]]]}, {"class_name": "Conv2D", "config": {"name": "conv2d_97", "trainable": true, "dtype": "float32", "filters": 64, "kernel_size": [1, 1], "strides": [1, 1], "padding": "same", "data_format": "channels_last", "dilation_rate": [1, 1], "groups": 1, "activation": "sigmoid", "use_bias": true, "kernel_initializer": {"class_name": "RandomUniform", "config": {"minval": -0.5, "maxval": 0.5, "seed": null}}, "bias_initializer": {"class_name": "RandomUniform", "config": {"minval": -0.5, "maxval": 0.5, "seed": null}}, "kernel_regularizer": null, "bias_regularizer": null, "activity_regularizer": null, "kernel_constraint": null, "bias_constraint": null}, "name": "conv2d_97", "inbound_nodes": [[["conv2d_96", 0, 0, {}]]]}, {"class_name": "Multiply", "config": {"name": "multiply_23", "trainable": true, "dtype": "float32"}, "name": "multiply_23", "inbound_nodes": [[["conv2d_97", 0, 0, {}], ["conv2d_95", 0, 0, {}]]]}, {"class_name": "Add", "config": {"name": "add_24", "trainable": true, "dtype": "float32"}, "name": "add_24", "inbound_nodes": [[["multiply_23", 0, 0, {}], ["add_23", 0, 0, {}]]]}, {"class_name": "Conv2D", "config": {"name": "conv2d_98", "trainable": true, "dtype": "float32", "filters": 64, "kernel_size": [3, 3], "strides": [1, 1], "padding": "same", "data_format": "channels_last", "dilation_rate": [1, 1], "groups": 1, "activation": "linear", "use_bias": true, "kernel_initializer": {"class_name": "RandomUniform", "config": {"minval": -0.041666666666666664, "maxval": 0.041666666666666664, "seed": null}}, "bias_initializer": {"class_name": "RandomUniform", "config": {"minval": -0.041666666666666664, "maxval": 0.041666666666666664, "seed": null}}, "kernel_regularizer": null, "bias_regularizer": null, "activity_regularizer": null, "kernel_constraint": null, "bias_constraint": null}, "name": "conv2d_98", "inbound_nodes": [[["add_24", 0, 0, {}]]]}, {"class_name": "ReLU", "config": {"name": "re_lu_24", "trainable": true, "dtype": "float32", "max_value": null, "negative_slope": 0.0, "threshold": 0.0}, "name": "re_lu_24", "inbound_nodes": [[["conv2d_98", 0, 0, {}]]]}, {"class_name": "Conv2D", "config": {"name": "conv2d_99", "trainable": true, "dtype": "float32", "filters": 64, "kernel_size": [3, 3], "strides": [1, 1], "padding": "same", "data_format": "channels_last", "dilation_rate": [1, 1], "groups": 1, "activation": "linear", "use_bias": true, "kernel_initializer": {"class_name": "RandomUniform", "config": {"minval": -0.041666666666666664, "maxval": 0.041666666666666664, "seed": null}}, "bias_initializer": {"class_name": "RandomUniform", "config": {"minval": -0.041666666666666664, "maxval": 0.041666666666666664, "seed": null}}, "kernel_regularizer": null, "bias_regularizer": null, "activity_regularizer": null, "kernel_constraint": null, "bias_constraint": null}, "name": "conv2d_99", "inbound_nodes": [[["re_lu_24", 0, 0, {}]]]}, {"class_name": "TensorFlowOpLayer", "config": {"name": "Mean_24", "trainable": true, "dtype": "float32", "node_def": {"name": "Mean_24", "op": "Mean", "input": ["conv2d_99/BiasAdd", "Mean_24/reduction_indices"], "attr": {"Tidx": {"type": "DT_INT32"}, "T": {"type": "DT_FLOAT"}, "keep_dims": {"b": true}}}, "constants": {"1": [1, 2]}}, "name": "tf_op_layer_Mean_24", "inbound_nodes": [[["conv2d_99", 0, 0, {}]]]}, {"class_name": "Conv2D", "config": {"name": "conv2d_100", "trainable": true, "dtype": "float32", "filters": 4, "kernel_size": [1, 1], "strides": [1, 1], "padding": "same", "data_format": "channels_last", "dilation_rate": [1, 1], "groups": 1, "activation": "relu", "use_bias": true, "kernel_initializer": {"class_name": "RandomUniform", "config": {"minval": -0.125, "maxval": 0.125, "seed": null}}, "bias_initializer": {"class_name": "RandomUniform", "config": {"minval": -0.125, "maxval": 0.125, "seed": null}}, "kernel_regularizer": null, "bias_regularizer": null, "activity_regularizer": null, "kernel_constraint": null, "bias_constraint": null}, "name": "conv2d_100", "inbound_nodes": [[["tf_op_layer_Mean_24", 0, 0, {}]]]}, {"class_name": "Conv2D", "config": {"name": "conv2d_101", "trainable": true, "dtype": "float32", "filters": 64, "kernel_size": [1, 1], "strides": [1, 1], "padding": "same", "data_format": "channels_last", "dilation_rate": [1, 1], "groups": 1, "activation": "sigmoid", "use_bias": true, "kernel_initializer": {"class_name": "RandomUniform", "config": {"minval": -0.5, "maxval": 0.5, "seed": null}}, "bias_initializer": {"class_name": "RandomUniform", "config": {"minval": -0.5, "maxval": 0.5, "seed": null}}, "kernel_regularizer": null, "bias_regularizer": null, "activity_regularizer": null, "kernel_constraint": null, "bias_constraint": null}, "name": "conv2d_101", "inbound_nodes": [[["conv2d_100", 0, 0, {}]]]}, {"class_name": "Multiply", "config": {"name": "multiply_24", "trainable": true, "dtype": "float32"}, "name": "multiply_24", "inbound_nodes": [[["conv2d_101", 0, 0, {}], ["conv2d_99", 0, 0, {}]]]}, {"class_name": "Add", "config": {"name": "add_25", "trainable": true, "dtype": "float32"}, "name": "add_25", "inbound_nodes": [[["multiply_24", 0, 0, {}], ["add_24", 0, 0, {}]]]}, {"class_name": "Conv2D", "config": {"name": "conv2d_102", "trainable": true, "dtype": "float32", "filters": 64, "kernel_size": [3, 3], "strides": [1, 1], "padding": "same", "data_format": "channels_last", "dilation_rate": [1, 1], "groups": 1, "activation": "linear", "use_bias": true, "kernel_initializer": {"class_name": "RandomUniform", "config": {"minval": -0.041666666666666664, "maxval": 0.041666666666666664, "seed": null}}, "bias_initializer": {"class_name": "RandomUniform", "config": {"minval": -0.041666666666666664, "maxval": 0.041666666666666664, "seed": null}}, "kernel_regularizer": null, "bias_regularizer": null, "activity_regularizer": null, "kernel_constraint": null, "bias_constraint": null}, "name": "conv2d_102", "inbound_nodes": [[["add_25", 0, 0, {}]]]}, {"class_name": "ReLU", "config": {"name": "re_lu_25", "trainable": true, "dtype": "float32", "max_value": null, "negative_slope": 0.0, "threshold": 0.0}, "name": "re_lu_25", "inbound_nodes": [[["conv2d_102", 0, 0, {}]]]}, {"class_name": "Conv2D", "config": {"name": "conv2d_103", "trainable": true, "dtype": "float32", "filters": 64, "kernel_size": [3, 3], "strides": [1, 1], "padding": "same", "data_format": "channels_last", "dilation_rate": [1, 1], "groups": 1, "activation": "linear", "use_bias": true, "kernel_initializer": {"class_name": "RandomUniform", "config": {"minval": -0.041666666666666664, "maxval": 0.041666666666666664, "seed": null}}, "bias_initializer": {"class_name": "RandomUniform", "config": {"minval": -0.041666666666666664, "maxval": 0.041666666666666664, "seed": null}}, "kernel_regularizer": null, "bias_regularizer": null, "activity_regularizer": null, "kernel_constraint": null, "bias_constraint": null}, "name": "conv2d_103", "inbound_nodes": [[["re_lu_25", 0, 0, {}]]]}, {"class_name": "TensorFlowOpLayer", "config": {"name": "Mean_25", "trainable": true, "dtype": "float32", "node_def": {"name": "Mean_25", "op": "Mean", "input": ["conv2d_103/BiasAdd", "Mean_25/reduction_indices"], "attr": {"T": {"type": "DT_FLOAT"}, "Tidx": {"type": "DT_INT32"}, "keep_dims": {"b": true}}}, "constants": {"1": [1, 2]}}, "name": "tf_op_layer_Mean_25", "inbound_nodes": [[["conv2d_103", 0, 0, {}]]]}, {"class_name": "Conv2D", "config": {"name": "conv2d_104", "trainable": true, "dtype": "float32", "filters": 4, "kernel_size": [1, 1], "strides": [1, 1], "padding": "same", "data_format": "channels_last", "dilation_rate": [1, 1], "groups": 1, "activation": "relu", "use_bias": true, "kernel_initializer": {"class_name": "RandomUniform", "config": {"minval": -0.125, "maxval": 0.125, "seed": null}}, "bias_initializer": {"class_name": "RandomUniform", "config": {"minval": -0.125, "maxval": 0.125, "seed": null}}, "kernel_regularizer": null, "bias_regularizer": null, "activity_regularizer": null, "kernel_constraint": null, "bias_constraint": null}, "name": "conv2d_104", "inbound_nodes": [[["tf_op_layer_Mean_25", 0, 0, {}]]]}, {"class_name": "Conv2D", "config": {"name": "conv2d_105", "trainable": true, "dtype": "float32", "filters": 64, "kernel_size": [1, 1], "strides": [1, 1], "padding": "same", "data_format": "channels_last", "dilation_rate": [1, 1], "groups": 1, "activation": "sigmoid", "use_bias": true, "kernel_initializer": {"class_name": "RandomUniform", "config": {"minval": -0.5, "maxval": 0.5, "seed": null}}, "bias_initializer": {"class_name": "RandomUniform", "config": {"minval": -0.5, "maxval": 0.5, "seed": null}}, "kernel_regularizer": null, "bias_regularizer": null, "activity_regularizer": null, "kernel_constraint": null, "bias_constraint": null}, "name": "conv2d_105", "inbound_nodes": [[["conv2d_104", 0, 0, {}]]]}, {"class_name": "Multiply", "config": {"name": "multiply_25", "trainable": true, "dtype": "float32"}, "name": "multiply_25", "inbound_nodes": [[["conv2d_105", 0, 0, {}], ["conv2d_103", 0, 0, {}]]]}, {"class_name": "Add", "config": {"name": "add_26", "trainable": true, "dtype": "float32"}, "name": "add_26", "inbound_nodes": [[["multiply_25", 0, 0, {}], ["add_25", 0, 0, {}]]]}, {"class_name": "Conv2D", "config": {"name": "conv2d_106", "trainable": true, "dtype": "float32", "filters": 64, "kernel_size": [3, 3], "strides": [1, 1], "padding": "same", "data_format": "channels_last", "dilation_rate": [1, 1], "groups": 1, "activation": "linear", "use_bias": true, "kernel_initializer": {"class_name": "RandomUniform", "config": {"minval": -0.041666666666666664, "maxval": 0.041666666666666664, "seed": null}}, "bias_initializer": {"class_name": "RandomUniform", "config": {"minval": -0.041666666666666664, "maxval": 0.041666666666666664, "seed": null}}, "kernel_regularizer": null, "bias_regularizer": null, "activity_regularizer": null, "kernel_constraint": null, "bias_constraint": null}, "name": "conv2d_106", "inbound_nodes": [[["add_26", 0, 0, {}]]]}, {"class_name": "ReLU", "config": {"name": "re_lu_26", "trainable": true, "dtype": "float32", "max_value": null, "negative_slope": 0.0, "threshold": 0.0}, "name": "re_lu_26", "inbound_nodes": [[["conv2d_106", 0, 0, {}]]]}, {"class_name": "Conv2D", "config": {"name": "conv2d_107", "trainable": true, "dtype": "float32", "filters": 64, "kernel_size": [3, 3], "strides": [1, 1], "padding": "same", "data_format": "channels_last", "dilation_rate": [1, 1], "groups": 1, "activation": "linear", "use_bias": true, "kernel_initializer": {"class_name": "RandomUniform", "config": {"minval": -0.041666666666666664, "maxval": 0.041666666666666664, "seed": null}}, "bias_initializer": {"class_name": "RandomUniform", "config": {"minval": -0.041666666666666664, "maxval": 0.041666666666666664, "seed": null}}, "kernel_regularizer": null, "bias_regularizer": null, "activity_regularizer": null, "kernel_constraint": null, "bias_constraint": null}, "name": "conv2d_107", "inbound_nodes": [[["re_lu_26", 0, 0, {}]]]}, {"class_name": "TensorFlowOpLayer", "config": {"name": "Mean_26", "trainable": true, "dtype": "float32", "node_def": {"name": "Mean_26", "op": "Mean", "input": ["conv2d_107/BiasAdd", "Mean_26/reduction_indices"], "attr": {"keep_dims": {"b": true}, "T": {"type": "DT_FLOAT"}, "Tidx": {"type": "DT_INT32"}}}, "constants": {"1": [1, 2]}}, "name": "tf_op_layer_Mean_26", "inbound_nodes": [[["conv2d_107", 0, 0, {}]]]}, {"class_name": "Conv2D", "config": {"name": "conv2d_108", "trainable": true, "dtype": "float32", "filters": 4, "kernel_size": [1, 1], "strides": [1, 1], "padding": "same", "data_format": "channels_last", "dilation_rate": [1, 1], "groups": 1, "activation": "relu", "use_bias": true, "kernel_initializer": {"class_name": "RandomUniform", "config": {"minval": -0.125, "maxval": 0.125, "seed": null}}, "bias_initializer": {"class_name": "RandomUniform", "config": {"minval": -0.125, "maxval": 0.125, "seed": null}}, "kernel_regularizer": null, "bias_regularizer": null, "activity_regularizer": null, "kernel_constraint": null, "bias_constraint": null}, "name": "conv2d_108", "inbound_nodes": [[["tf_op_layer_Mean_26", 0, 0, {}]]]}, {"class_name": "Conv2D", "config": {"name": "conv2d_109", "trainable": true, "dtype": "float32", "filters": 64, "kernel_size": [1, 1], "strides": [1, 1], "padding": "same", "data_format": "channels_last", "dilation_rate": [1, 1], "groups": 1, "activation": "sigmoid", "use_bias": true, "kernel_initializer": {"class_name": "RandomUniform", "config": {"minval": -0.5, "maxval": 0.5, "seed": null}}, "bias_initializer": {"class_name": "RandomUniform", "config": {"minval": -0.5, "maxval": 0.5, "seed": null}}, "kernel_regularizer": null, "bias_regularizer": null, "activity_regularizer": null, "kernel_constraint": null, "bias_constraint": null}, "name": "conv2d_109", "inbound_nodes": [[["conv2d_108", 0, 0, {}]]]}, {"class_name": "Multiply", "config": {"name": "multiply_26", "trainable": true, "dtype": "float32"}, "name": "multiply_26", "inbound_nodes": [[["conv2d_109", 0, 0, {}], ["conv2d_107", 0, 0, {}]]]}, {"class_name": "Add", "config": {"name": "add_27", "trainable": true, "dtype": "float32"}, "name": "add_27", "inbound_nodes": [[["multiply_26", 0, 0, {}], ["add_26", 0, 0, {}]]]}, {"class_name": "Conv2D", "config": {"name": "conv2d_110", "trainable": true, "dtype": "float32", "filters": 64, "kernel_size": [3, 3], "strides": [1, 1], "padding": "same", "data_format": "channels_last", "dilation_rate": [1, 1], "groups": 1, "activation": "linear", "use_bias": true, "kernel_initializer": {"class_name": "RandomUniform", "config": {"minval": -0.041666666666666664, "maxval": 0.041666666666666664, "seed": null}}, "bias_initializer": {"class_name": "RandomUniform", "config": {"minval": -0.041666666666666664, "maxval": 0.041666666666666664, "seed": null}}, "kernel_regularizer": null, "bias_regularizer": null, "activity_regularizer": null, "kernel_constraint": null, "bias_constraint": null}, "name": "conv2d_110", "inbound_nodes": [[["add_27", 0, 0, {}]]]}, {"class_name": "ReLU", "config": {"name": "re_lu_27", "trainable": true, "dtype": "float32", "max_value": null, "negative_slope": 0.0, "threshold": 0.0}, "name": "re_lu_27", "inbound_nodes": [[["conv2d_110", 0, 0, {}]]]}, {"class_name": "Conv2D", "config": {"name": "conv2d_111", "trainable": true, "dtype": "float32", "filters": 64, "kernel_size": [3, 3], "strides": [1, 1], "padding": "same", "data_format": "channels_last", "dilation_rate": [1, 1], "groups": 1, "activation": "linear", "use_bias": true, "kernel_initializer": {"class_name": "RandomUniform", "config": {"minval": -0.041666666666666664, "maxval": 0.041666666666666664, "seed": null}}, "bias_initializer": {"class_name": "RandomUniform", "config": {"minval": -0.041666666666666664, "maxval": 0.041666666666666664, "seed": null}}, "kernel_regularizer": null, "bias_regularizer": null, "activity_regularizer": null, "kernel_constraint": null, "bias_constraint": null}, "name": "conv2d_111", "inbound_nodes": [[["re_lu_27", 0, 0, {}]]]}, {"class_name": "TensorFlowOpLayer", "config": {"name": "Mean_27", "trainable": true, "dtype": "float32", "node_def": {"name": "Mean_27", "op": "Mean", "input": ["conv2d_111/BiasAdd", "Mean_27/reduction_indices"], "attr": {"Tidx": {"type": "DT_INT32"}, "T": {"type": "DT_FLOAT"}, "keep_dims": {"b": true}}}, "constants": {"1": [1, 2]}}, "name": "tf_op_layer_Mean_27", "inbound_nodes": [[["conv2d_111", 0, 0, {}]]]}, {"class_name": "Conv2D", "config": {"name": "conv2d_112", "trainable": true, "dtype": "float32", "filters": 4, "kernel_size": [1, 1], "strides": [1, 1], "padding": "same", "data_format": "channels_last", "dilation_rate": [1, 1], "groups": 1, "activation": "relu", "use_bias": true, "kernel_initializer": {"class_name": "RandomUniform", "config": {"minval": -0.125, "maxval": 0.125, "seed": null}}, "bias_initializer": {"class_name": "RandomUniform", "config": {"minval": -0.125, "maxval": 0.125, "seed": null}}, "kernel_regularizer": null, "bias_regularizer": null, "activity_regularizer": null, "kernel_constraint": null, "bias_constraint": null}, "name": "conv2d_112", "inbound_nodes": [[["tf_op_layer_Mean_27", 0, 0, {}]]]}, {"class_name": "Conv2D", "config": {"name": "conv2d_113", "trainable": true, "dtype": "float32", "filters": 64, "kernel_size": [1, 1], "strides": [1, 1], "padding": "same", "data_format": "channels_last", "dilation_rate": [1, 1], "groups": 1, "activation": "sigmoid", "use_bias": true, "kernel_initializer": {"class_name": "RandomUniform", "config": {"minval": -0.5, "maxval": 0.5, "seed": null}}, "bias_initializer": {"class_name": "RandomUniform", "config": {"minval": -0.5, "maxval": 0.5, "seed": null}}, "kernel_regularizer": null, "bias_regularizer": null, "activity_regularizer": null, "kernel_constraint": null, "bias_constraint": null}, "name": "conv2d_113", "inbound_nodes": [[["conv2d_112", 0, 0, {}]]]}, {"class_name": "Multiply", "config": {"name": "multiply_27", "trainable": true, "dtype": "float32"}, "name": "multiply_27", "inbound_nodes": [[["conv2d_113", 0, 0, {}], ["conv2d_111", 0, 0, {}]]]}, {"class_name": "Add", "config": {"name": "add_28", "trainable": true, "dtype": "float32"}, "name": "add_28", "inbound_nodes": [[["multiply_27", 0, 0, {}], ["add_27", 0, 0, {}]]]}, {"class_name": "Conv2D", "config": {"name": "conv2d_114", "trainable": true, "dtype": "float32", "filters": 64, "kernel_size": [3, 3], "strides": [1, 1], "padding": "same", "data_format": "channels_last", "dilation_rate": [1, 1], "groups": 1, "activation": "linear", "use_bias": true, "kernel_initializer": {"class_name": "RandomUniform", "config": {"minval": -0.041666666666666664, "maxval": 0.041666666666666664, "seed": null}}, "bias_initializer": {"class_name": "RandomUniform", "config": {"minval": -0.041666666666666664, "maxval": 0.041666666666666664, "seed": null}}, "kernel_regularizer": null, "bias_regularizer": null, "activity_regularizer": null, "kernel_constraint": null, "bias_constraint": null}, "name": "conv2d_114", "inbound_nodes": [[["add_28", 0, 0, {}]]]}, {"class_name": "ReLU", "config": {"name": "re_lu_28", "trainable": true, "dtype": "float32", "max_value": null, "negative_slope": 0.0, "threshold": 0.0}, "name": "re_lu_28", "inbound_nodes": [[["conv2d_114", 0, 0, {}]]]}, {"class_name": "Conv2D", "config": {"name": "conv2d_115", "trainable": true, "dtype": "float32", "filters": 64, "kernel_size": [3, 3], "strides": [1, 1], "padding": "same", "data_format": "channels_last", "dilation_rate": [1, 1], "groups": 1, "activation": "linear", "use_bias": true, "kernel_initializer": {"class_name": "RandomUniform", "config": {"minval": -0.041666666666666664, "maxval": 0.041666666666666664, "seed": null}}, "bias_initializer": {"class_name": "RandomUniform", "config": {"minval": -0.041666666666666664, "maxval": 0.041666666666666664, "seed": null}}, "kernel_regularizer": null, "bias_regularizer": null, "activity_regularizer": null, "kernel_constraint": null, "bias_constraint": null}, "name": "conv2d_115", "inbound_nodes": [[["re_lu_28", 0, 0, {}]]]}, {"class_name": "TensorFlowOpLayer", "config": {"name": "Mean_28", "trainable": true, "dtype": "float32", "node_def": {"name": "Mean_28", "op": "Mean", "input": ["conv2d_115/BiasAdd", "Mean_28/reduction_indices"], "attr": {"keep_dims": {"b": true}, "Tidx": {"type": "DT_INT32"}, "T": {"type": "DT_FLOAT"}}}, "constants": {"1": [1, 2]}}, "name": "tf_op_layer_Mean_28", "inbound_nodes": [[["conv2d_115", 0, 0, {}]]]}, {"class_name": "Conv2D", "config": {"name": "conv2d_116", "trainable": true, "dtype": "float32", "filters": 4, "kernel_size": [1, 1], "strides": [1, 1], "padding": "same", "data_format": "channels_last", "dilation_rate": [1, 1], "groups": 1, "activation": "relu", "use_bias": true, "kernel_initializer": {"class_name": "RandomUniform", "config": {"minval": -0.125, "maxval": 0.125, "seed": null}}, "bias_initializer": {"class_name": "RandomUniform", "config": {"minval": -0.125, "maxval": 0.125, "seed": null}}, "kernel_regularizer": null, "bias_regularizer": null, "activity_regularizer": null, "kernel_constraint": null, "bias_constraint": null}, "name": "conv2d_116", "inbound_nodes": [[["tf_op_layer_Mean_28", 0, 0, {}]]]}, {"class_name": "Conv2D", "config": {"name": "conv2d_117", "trainable": true, "dtype": "float32", "filters": 64, "kernel_size": [1, 1], "strides": [1, 1], "padding": "same", "data_format": "channels_last", "dilation_rate": [1, 1], "groups": 1, "activation": "sigmoid", "use_bias": true, "kernel_initializer": {"class_name": "RandomUniform", "config": {"minval": -0.5, "maxval": 0.5, "seed": null}}, "bias_initializer": {"class_name": "RandomUniform", "config": {"minval": -0.5, "maxval": 0.5, "seed": null}}, "kernel_regularizer": null, "bias_regularizer": null, "activity_regularizer": null, "kernel_constraint": null, "bias_constraint": null}, "name": "conv2d_117", "inbound_nodes": [[["conv2d_116", 0, 0, {}]]]}, {"class_name": "Multiply", "config": {"name": "multiply_28", "trainable": true, "dtype": "float32"}, "name": "multiply_28", "inbound_nodes": [[["conv2d_117", 0, 0, {}], ["conv2d_115", 0, 0, {}]]]}, {"class_name": "Add", "config": {"name": "add_29", "trainable": true, "dtype": "float32"}, "name": "add_29", "inbound_nodes": [[["multiply_28", 0, 0, {}], ["add_28", 0, 0, {}]]]}, {"class_name": "Conv2D", "config": {"name": "conv2d_118", "trainable": true, "dtype": "float32", "filters": 64, "kernel_size": [3, 3], "strides": [1, 1], "padding": "same", "data_format": "channels_last", "dilation_rate": [1, 1], "groups": 1, "activation": "linear", "use_bias": true, "kernel_initializer": {"class_name": "RandomUniform", "config": {"minval": -0.041666666666666664, "maxval": 0.041666666666666664, "seed": null}}, "bias_initializer": {"class_name": "RandomUniform", "config": {"minval": -0.041666666666666664, "maxval": 0.041666666666666664, "seed": null}}, "kernel_regularizer": null, "bias_regularizer": null, "activity_regularizer": null, "kernel_constraint": null, "bias_constraint": null}, "name": "conv2d_118", "inbound_nodes": [[["add_29", 0, 0, {}]]]}, {"class_name": "ReLU", "config": {"name": "re_lu_29", "trainable": true, "dtype": "float32", "max_value": null, "negative_slope": 0.0, "threshold": 0.0}, "name": "re_lu_29", "inbound_nodes": [[["conv2d_118", 0, 0, {}]]]}, {"class_name": "Conv2D", "config": {"name": "conv2d_119", "trainable": true, "dtype": "float32", "filters": 64, "kernel_size": [3, 3], "strides": [1, 1], "padding": "same", "data_format": "channels_last", "dilation_rate": [1, 1], "groups": 1, "activation": "linear", "use_bias": true, "kernel_initializer": {"class_name": "RandomUniform", "config": {"minval": -0.041666666666666664, "maxval": 0.041666666666666664, "seed": null}}, "bias_initializer": {"class_name": "RandomUniform", "config": {"minval": -0.041666666666666664, "maxval": 0.041666666666666664, "seed": null}}, "kernel_regularizer": null, "bias_regularizer": null, "activity_regularizer": null, "kernel_constraint": null, "bias_constraint": null}, "name": "conv2d_119", "inbound_nodes": [[["re_lu_29", 0, 0, {}]]]}, {"class_name": "TensorFlowOpLayer", "config": {"name": "Mean_29", "trainable": true, "dtype": "float32", "node_def": {"name": "Mean_29", "op": "Mean", "input": ["conv2d_119/BiasAdd", "Mean_29/reduction_indices"], "attr": {"T": {"type": "DT_FLOAT"}, "Tidx": {"type": "DT_INT32"}, "keep_dims": {"b": true}}}, "constants": {"1": [1, 2]}}, "name": "tf_op_layer_Mean_29", "inbound_nodes": [[["conv2d_119", 0, 0, {}]]]}, {"class_name": "Conv2D", "config": {"name": "conv2d_120", "trainable": true, "dtype": "float32", "filters": 4, "kernel_size": [1, 1], "strides": [1, 1], "padding": "same", "data_format": "channels_last", "dilation_rate": [1, 1], "groups": 1, "activation": "relu", "use_bias": true, "kernel_initializer": {"class_name": "RandomUniform", "config": {"minval": -0.125, "maxval": 0.125, "seed": null}}, "bias_initializer": {"class_name": "RandomUniform", "config": {"minval": -0.125, "maxval": 0.125, "seed": null}}, "kernel_regularizer": null, "bias_regularizer": null, "activity_regularizer": null, "kernel_constraint": null, "bias_constraint": null}, "name": "conv2d_120", "inbound_nodes": [[["tf_op_layer_Mean_29", 0, 0, {}]]]}, {"class_name": "Conv2D", "config": {"name": "conv2d_121", "trainable": true, "dtype": "float32", "filters": 64, "kernel_size": [1, 1], "strides": [1, 1], "padding": "same", "data_format": "channels_last", "dilation_rate": [1, 1], "groups": 1, "activation": "sigmoid", "use_bias": true, "kernel_initializer": {"class_name": "RandomUniform", "config": {"minval": -0.5, "maxval": 0.5, "seed": null}}, "bias_initializer": {"class_name": "RandomUniform", "config": {"minval": -0.5, "maxval": 0.5, "seed": null}}, "kernel_regularizer": null, "bias_regularizer": null, "activity_regularizer": null, "kernel_constraint": null, "bias_constraint": null}, "name": "conv2d_121", "inbound_nodes": [[["conv2d_120", 0, 0, {}]]]}, {"class_name": "Multiply", "config": {"name": "multiply_29", "trainable": true, "dtype": "float32"}, "name": "multiply_29", "inbound_nodes": [[["conv2d_121", 0, 0, {}], ["conv2d_119", 0, 0, {}]]]}, {"class_name": "Add", "config": {"name": "add_30", "trainable": true, "dtype": "float32"}, "name": "add_30", "inbound_nodes": [[["multiply_29", 0, 0, {}], ["add_29", 0, 0, {}]]]}, {"class_name": "Conv2D", "config": {"name": "conv2d_122", "trainable": true, "dtype": "float32", "filters": 64, "kernel_size": [3, 3], "strides": [1, 1], "padding": "same", "data_format": "channels_last", "dilation_rate": [1, 1], "groups": 1, "activation": "linear", "use_bias": true, "kernel_initializer": {"class_name": "RandomUniform", "config": {"minval": -0.041666666666666664, "maxval": 0.041666666666666664, "seed": null}}, "bias_initializer": {"class_name": "RandomUniform", "config": {"minval": -0.041666666666666664, "maxval": 0.041666666666666664, "seed": null}}, "kernel_regularizer": null, "bias_regularizer": null, "activity_regularizer": null, "kernel_constraint": null, "bias_constraint": null}, "name": "conv2d_122", "inbound_nodes": [[["add_30", 0, 0, {}]]]}, {"class_name": "ReLU", "config": {"name": "re_lu_30", "trainable": true, "dtype": "float32", "max_value": null, "negative_slope": 0.0, "threshold": 0.0}, "name": "re_lu_30", "inbound_nodes": [[["conv2d_122", 0, 0, {}]]]}, {"class_name": "Conv2D", "config": {"name": "conv2d_123", "trainable": true, "dtype": "float32", "filters": 64, "kernel_size": [3, 3], "strides": [1, 1], "padding": "same", "data_format": "channels_last", "dilation_rate": [1, 1], "groups": 1, "activation": "linear", "use_bias": true, "kernel_initializer": {"class_name": "RandomUniform", "config": {"minval": -0.041666666666666664, "maxval": 0.041666666666666664, "seed": null}}, "bias_initializer": {"class_name": "RandomUniform", "config": {"minval": -0.041666666666666664, "maxval": 0.041666666666666664, "seed": null}}, "kernel_regularizer": null, "bias_regularizer": null, "activity_regularizer": null, "kernel_constraint": null, "bias_constraint": null}, "name": "conv2d_123", "inbound_nodes": [[["re_lu_30", 0, 0, {}]]]}, {"class_name": "TensorFlowOpLayer", "config": {"name": "Mean_30", "trainable": true, "dtype": "float32", "node_def": {"name": "Mean_30", "op": "Mean", "input": ["conv2d_123/BiasAdd", "Mean_30/reduction_indices"], "attr": {"T": {"type": "DT_FLOAT"}, "Tidx": {"type": "DT_INT32"}, "keep_dims": {"b": true}}}, "constants": {"1": [1, 2]}}, "name": "tf_op_layer_Mean_30", "inbound_nodes": [[["conv2d_123", 0, 0, {}]]]}, {"class_name": "Conv2D", "config": {"name": "conv2d_124", "trainable": true, "dtype": "float32", "filters": 4, "kernel_size": [1, 1], "strides": [1, 1], "padding": "same", "data_format": "channels_last", "dilation_rate": [1, 1], "groups": 1, "activation": "relu", "use_bias": true, "kernel_initializer": {"class_name": "RandomUniform", "config": {"minval": -0.125, "maxval": 0.125, "seed": null}}, "bias_initializer": {"class_name": "RandomUniform", "config": {"minval": -0.125, "maxval": 0.125, "seed": null}}, "kernel_regularizer": null, "bias_regularizer": null, "activity_regularizer": null, "kernel_constraint": null, "bias_constraint": null}, "name": "conv2d_124", "inbound_nodes": [[["tf_op_layer_Mean_30", 0, 0, {}]]]}, {"class_name": "Conv2D", "config": {"name": "conv2d_125", "trainable": true, "dtype": "float32", "filters": 64, "kernel_size": [1, 1], "strides": [1, 1], "padding": "same", "data_format": "channels_last", "dilation_rate": [1, 1], "groups": 1, "activation": "sigmoid", "use_bias": true, "kernel_initializer": {"class_name": "RandomUniform", "config": {"minval": -0.5, "maxval": 0.5, "seed": null}}, "bias_initializer": {"class_name": "RandomUniform", "config": {"minval": -0.5, "maxval": 0.5, "seed": null}}, "kernel_regularizer": null, "bias_regularizer": null, "activity_regularizer": null, "kernel_constraint": null, "bias_constraint": null}, "name": "conv2d_125", "inbound_nodes": [[["conv2d_124", 0, 0, {}]]]}, {"class_name": "Multiply", "config": {"name": "multiply_30", "trainable": true, "dtype": "float32"}, "name": "multiply_30", "inbound_nodes": [[["conv2d_125", 0, 0, {}], ["conv2d_123", 0, 0, {}]]]}, {"class_name": "Add", "config": {"name": "add_31", "trainable": true, "dtype": "float32"}, "name": "add_31", "inbound_nodes": [[["multiply_30", 0, 0, {}], ["add_30", 0, 0, {}]]]}, {"class_name": "Conv2D", "config": {"name": "conv2d_126", "trainable": true, "dtype": "float32", "filters": 64, "kernel_size": [3, 3], "strides": [1, 1], "padding": "same", "data_format": "channels_last", "dilation_rate": [1, 1], "groups": 1, "activation": "linear", "use_bias": true, "kernel_initializer": {"class_name": "RandomUniform", "config": {"minval": -0.041666666666666664, "maxval": 0.041666666666666664, "seed": null}}, "bias_initializer": {"class_name": "RandomUniform", "config": {"minval": -0.041666666666666664, "maxval": 0.041666666666666664, "seed": null}}, "kernel_regularizer": null, "bias_regularizer": null, "activity_regularizer": null, "kernel_constraint": null, "bias_constraint": null}, "name": "conv2d_126", "inbound_nodes": [[["add_31", 0, 0, {}]]]}, {"class_name": "ReLU", "config": {"name": "re_lu_31", "trainable": true, "dtype": "float32", "max_value": null, "negative_slope": 0.0, "threshold": 0.0}, "name": "re_lu_31", "inbound_nodes": [[["conv2d_126", 0, 0, {}]]]}, {"class_name": "Conv2D", "config": {"name": "conv2d_127", "trainable": true, "dtype": "float32", "filters": 64, "kernel_size": [3, 3], "strides": [1, 1], "padding": "same", "data_format": "channels_last", "dilation_rate": [1, 1], "groups": 1, "activation": "linear", "use_bias": true, "kernel_initializer": {"class_name": "RandomUniform", "config": {"minval": -0.041666666666666664, "maxval": 0.041666666666666664, "seed": null}}, "bias_initializer": {"class_name": "RandomUniform", "config": {"minval": -0.041666666666666664, "maxval": 0.041666666666666664, "seed": null}}, "kernel_regularizer": null, "bias_regularizer": null, "activity_regularizer": null, "kernel_constraint": null, "bias_constraint": null}, "name": "conv2d_127", "inbound_nodes": [[["re_lu_31", 0, 0, {}]]]}, {"class_name": "TensorFlowOpLayer", "config": {"name": "Mean_31", "trainable": true, "dtype": "float32", "node_def": {"name": "Mean_31", "op": "Mean", "input": ["conv2d_127/BiasAdd", "Mean_31/reduction_indices"], "attr": {"Tidx": {"type": "DT_INT32"}, "keep_dims": {"b": true}, "T": {"type": "DT_FLOAT"}}}, "constants": {"1": [1, 2]}}, "name": "tf_op_layer_Mean_31", "inbound_nodes": [[["conv2d_127", 0, 0, {}]]]}, {"class_name": "Conv2D", "config": {"name": "conv2d_128", "trainable": true, "dtype": "float32", "filters": 4, "kernel_size": [1, 1], "strides": [1, 1], "padding": "same", "data_format": "channels_last", "dilation_rate": [1, 1], "groups": 1, "activation": "relu", "use_bias": true, "kernel_initializer": {"class_name": "RandomUniform", "config": {"minval": -0.125, "maxval": 0.125, "seed": null}}, "bias_initializer": {"class_name": "RandomUniform", "config": {"minval": -0.125, "maxval": 0.125, "seed": null}}, "kernel_regularizer": null, "bias_regularizer": null, "activity_regularizer": null, "kernel_constraint": null, "bias_constraint": null}, "name": "conv2d_128", "inbound_nodes": [[["tf_op_layer_Mean_31", 0, 0, {}]]]}, {"class_name": "Conv2D", "config": {"name": "conv2d_129", "trainable": true, "dtype": "float32", "filters": 64, "kernel_size": [1, 1], "strides": [1, 1], "padding": "same", "data_format": "channels_last", "dilation_rate": [1, 1], "groups": 1, "activation": "sigmoid", "use_bias": true, "kernel_initializer": {"class_name": "RandomUniform", "config": {"minval": -0.5, "maxval": 0.5, "seed": null}}, "bias_initializer": {"class_name": "RandomUniform", "config": {"minval": -0.5, "maxval": 0.5, "seed": null}}, "kernel_regularizer": null, "bias_regularizer": null, "activity_regularizer": null, "kernel_constraint": null, "bias_constraint": null}, "name": "conv2d_129", "inbound_nodes": [[["conv2d_128", 0, 0, {}]]]}, {"class_name": "Multiply", "config": {"name": "multiply_31", "trainable": true, "dtype": "float32"}, "name": "multiply_31", "inbound_nodes": [[["conv2d_129", 0, 0, {}], ["conv2d_127", 0, 0, {}]]]}, {"class_name": "Add", "config": {"name": "add_32", "trainable": true, "dtype": "float32"}, "name": "add_32", "inbound_nodes": [[["multiply_31", 0, 0, {}], ["add_31", 0, 0, {}]]]}, {"class_name": "Conv2D", "config": {"name": "conv2d_130", "trainable": true, "dtype": "float32", "filters": 64, "kernel_size": [3, 3], "strides": [1, 1], "padding": "same", "data_format": "channels_last", "dilation_rate": [1, 1], "groups": 1, "activation": "linear", "use_bias": true, "kernel_initializer": {"class_name": "RandomUniform", "config": {"minval": -0.041666666666666664, "maxval": 0.041666666666666664, "seed": null}}, "bias_initializer": {"class_name": "RandomUniform", "config": {"minval": -0.041666666666666664, "maxval": 0.041666666666666664, "seed": null}}, "kernel_regularizer": null, "bias_regularizer": null, "activity_regularizer": null, "kernel_constraint": null, "bias_constraint": null}, "name": "conv2d_130", "inbound_nodes": [[["add_32", 0, 0, {}]]]}, {"class_name": "ReLU", "config": {"name": "re_lu_32", "trainable": true, "dtype": "float32", "max_value": null, "negative_slope": 0.0, "threshold": 0.0}, "name": "re_lu_32", "inbound_nodes": [[["conv2d_130", 0, 0, {}]]]}, {"class_name": "Conv2D", "config": {"name": "conv2d_131", "trainable": true, "dtype": "float32", "filters": 64, "kernel_size": [3, 3], "strides": [1, 1], "padding": "same", "data_format": "channels_last", "dilation_rate": [1, 1], "groups": 1, "activation": "linear", "use_bias": true, "kernel_initializer": {"class_name": "RandomUniform", "config": {"minval": -0.041666666666666664, "maxval": 0.041666666666666664, "seed": null}}, "bias_initializer": {"class_name": "RandomUniform", "config": {"minval": -0.041666666666666664, "maxval": 0.041666666666666664, "seed": null}}, "kernel_regularizer": null, "bias_regularizer": null, "activity_regularizer": null, "kernel_constraint": null, "bias_constraint": null}, "name": "conv2d_131", "inbound_nodes": [[["re_lu_32", 0, 0, {}]]]}, {"class_name": "TensorFlowOpLayer", "config": {"name": "Mean_32", "trainable": true, "dtype": "float32", "node_def": {"name": "Mean_32", "op": "Mean", "input": ["conv2d_131/BiasAdd", "Mean_32/reduction_indices"], "attr": {"T": {"type": "DT_FLOAT"}, "keep_dims": {"b": true}, "Tidx": {"type": "DT_INT32"}}}, "constants": {"1": [1, 2]}}, "name": "tf_op_layer_Mean_32", "inbound_nodes": [[["conv2d_131", 0, 0, {}]]]}, {"class_name": "Conv2D", "config": {"name": "conv2d_132", "trainable": true, "dtype": "float32", "filters": 4, "kernel_size": [1, 1], "strides": [1, 1], "padding": "same", "data_format": "channels_last", "dilation_rate": [1, 1], "groups": 1, "activation": "relu", "use_bias": true, "kernel_initializer": {"class_name": "RandomUniform", "config": {"minval": -0.125, "maxval": 0.125, "seed": null}}, "bias_initializer": {"class_name": "RandomUniform", "config": {"minval": -0.125, "maxval": 0.125, "seed": null}}, "kernel_regularizer": null, "bias_regularizer": null, "activity_regularizer": null, "kernel_constraint": null, "bias_constraint": null}, "name": "conv2d_132", "inbound_nodes": [[["tf_op_layer_Mean_32", 0, 0, {}]]]}, {"class_name": "Conv2D", "config": {"name": "conv2d_133", "trainable": true, "dtype": "float32", "filters": 64, "kernel_size": [1, 1], "strides": [1, 1], "padding": "same", "data_format": "channels_last", "dilation_rate": [1, 1], "groups": 1, "activation": "sigmoid", "use_bias": true, "kernel_initializer": {"class_name": "RandomUniform", "config": {"minval": -0.5, "maxval": 0.5, "seed": null}}, "bias_initializer": {"class_name": "RandomUniform", "config": {"minval": -0.5, "maxval": 0.5, "seed": null}}, "kernel_regularizer": null, "bias_regularizer": null, "activity_regularizer": null, "kernel_constraint": null, "bias_constraint": null}, "name": "conv2d_133", "inbound_nodes": [[["conv2d_132", 0, 0, {}]]]}, {"class_name": "Multiply", "config": {"name": "multiply_32", "trainable": true, "dtype": "float32"}, "name": "multiply_32", "inbound_nodes": [[["conv2d_133", 0, 0, {}], ["conv2d_131", 0, 0, {}]]]}, {"class_name": "Add", "config": {"name": "add_33", "trainable": true, "dtype": "float32"}, "name": "add_33", "inbound_nodes": [[["multiply_32", 0, 0, {}], ["add_32", 0, 0, {}]]]}, {"class_name": "Conv2D", "config": {"name": "conv2d_134", "trainable": true, "dtype": "float32", "filters": 64, "kernel_size": [3, 3], "strides": [1, 1], "padding": "same", "data_format": "channels_last", "dilation_rate": [1, 1], "groups": 1, "activation": "linear", "use_bias": true, "kernel_initializer": {"class_name": "RandomUniform", "config": {"minval": -0.041666666666666664, "maxval": 0.041666666666666664, "seed": null}}, "bias_initializer": {"class_name": "RandomUniform", "config": {"minval": -0.041666666666666664, "maxval": 0.041666666666666664, "seed": null}}, "kernel_regularizer": null, "bias_regularizer": null, "activity_regularizer": null, "kernel_constraint": null, "bias_constraint": null}, "name": "conv2d_134", "inbound_nodes": [[["add_33", 0, 0, {}]]]}, {"class_name": "ReLU", "config": {"name": "re_lu_33", "trainable": true, "dtype": "float32", "max_value": null, "negative_slope": 0.0, "threshold": 0.0}, "name": "re_lu_33", "inbound_nodes": [[["conv2d_134", 0, 0, {}]]]}, {"class_name": "Conv2D", "config": {"name": "conv2d_135", "trainable": true, "dtype": "float32", "filters": 64, "kernel_size": [3, 3], "strides": [1, 1], "padding": "same", "data_format": "channels_last", "dilation_rate": [1, 1], "groups": 1, "activation": "linear", "use_bias": true, "kernel_initializer": {"class_name": "RandomUniform", "config": {"minval": -0.041666666666666664, "maxval": 0.041666666666666664, "seed": null}}, "bias_initializer": {"class_name": "RandomUniform", "config": {"minval": -0.041666666666666664, "maxval": 0.041666666666666664, "seed": null}}, "kernel_regularizer": null, "bias_regularizer": null, "activity_regularizer": null, "kernel_constraint": null, "bias_constraint": null}, "name": "conv2d_135", "inbound_nodes": [[["re_lu_33", 0, 0, {}]]]}, {"class_name": "TensorFlowOpLayer", "config": {"name": "Mean_33", "trainable": true, "dtype": "float32", "node_def": {"name": "Mean_33", "op": "Mean", "input": ["conv2d_135/BiasAdd", "Mean_33/reduction_indices"], "attr": {"keep_dims": {"b": true}, "Tidx": {"type": "DT_INT32"}, "T": {"type": "DT_FLOAT"}}}, "constants": {"1": [1, 2]}}, "name": "tf_op_layer_Mean_33", "inbound_nodes": [[["conv2d_135", 0, 0, {}]]]}, {"class_name": "Conv2D", "config": {"name": "conv2d_136", "trainable": true, "dtype": "float32", "filters": 4, "kernel_size": [1, 1], "strides": [1, 1], "padding": "same", "data_format": "channels_last", "dilation_rate": [1, 1], "groups": 1, "activation": "relu", "use_bias": true, "kernel_initializer": {"class_name": "RandomUniform", "config": {"minval": -0.125, "maxval": 0.125, "seed": null}}, "bias_initializer": {"class_name": "RandomUniform", "config": {"minval": -0.125, "maxval": 0.125, "seed": null}}, "kernel_regularizer": null, "bias_regularizer": null, "activity_regularizer": null, "kernel_constraint": null, "bias_constraint": null}, "name": "conv2d_136", "inbound_nodes": [[["tf_op_layer_Mean_33", 0, 0, {}]]]}, {"class_name": "Conv2D", "config": {"name": "conv2d_137", "trainable": true, "dtype": "float32", "filters": 64, "kernel_size": [1, 1], "strides": [1, 1], "padding": "same", "data_format": "channels_last", "dilation_rate": [1, 1], "groups": 1, "activation": "sigmoid", "use_bias": true, "kernel_initializer": {"class_name": "RandomUniform", "config": {"minval": -0.5, "maxval": 0.5, "seed": null}}, "bias_initializer": {"class_name": "RandomUniform", "config": {"minval": -0.5, "maxval": 0.5, "seed": null}}, "kernel_regularizer": null, "bias_regularizer": null, "activity_regularizer": null, "kernel_constraint": null, "bias_constraint": null}, "name": "conv2d_137", "inbound_nodes": [[["conv2d_136", 0, 0, {}]]]}, {"class_name": "Multiply", "config": {"name": "multiply_33", "trainable": true, "dtype": "float32"}, "name": "multiply_33", "inbound_nodes": [[["conv2d_137", 0, 0, {}], ["conv2d_135", 0, 0, {}]]]}, {"class_name": "Add", "config": {"name": "add_34", "trainable": true, "dtype": "float32"}, "name": "add_34", "inbound_nodes": [[["multiply_33", 0, 0, {}], ["add_33", 0, 0, {}]]]}, {"class_name": "Conv2D", "config": {"name": "conv2d_138", "trainable": true, "dtype": "float32", "filters": 64, "kernel_size": [3, 3], "strides": [1, 1], "padding": "same", "data_format": "channels_last", "dilation_rate": [1, 1], "groups": 1, "activation": "linear", "use_bias": true, "kernel_initializer": {"class_name": "RandomUniform", "config": {"minval": -0.041666666666666664, "maxval": 0.041666666666666664, "seed": null}}, "bias_initializer": {"class_name": "RandomUniform", "config": {"minval": -0.041666666666666664, "maxval": 0.041666666666666664, "seed": null}}, "kernel_regularizer": null, "bias_regularizer": null, "activity_regularizer": null, "kernel_constraint": null, "bias_constraint": null}, "name": "conv2d_138", "inbound_nodes": [[["add_34", 0, 0, {}]]]}, {"class_name": "ReLU", "config": {"name": "re_lu_34", "trainable": true, "dtype": "float32", "max_value": null, "negative_slope": 0.0, "threshold": 0.0}, "name": "re_lu_34", "inbound_nodes": [[["conv2d_138", 0, 0, {}]]]}, {"class_name": "Conv2D", "config": {"name": "conv2d_139", "trainable": true, "dtype": "float32", "filters": 64, "kernel_size": [3, 3], "strides": [1, 1], "padding": "same", "data_format": "channels_last", "dilation_rate": [1, 1], "groups": 1, "activation": "linear", "use_bias": true, "kernel_initializer": {"class_name": "RandomUniform", "config": {"minval": -0.041666666666666664, "maxval": 0.041666666666666664, "seed": null}}, "bias_initializer": {"class_name": "RandomUniform", "config": {"minval": -0.041666666666666664, "maxval": 0.041666666666666664, "seed": null}}, "kernel_regularizer": null, "bias_regularizer": null, "activity_regularizer": null, "kernel_constraint": null, "bias_constraint": null}, "name": "conv2d_139", "inbound_nodes": [[["re_lu_34", 0, 0, {}]]]}, {"class_name": "TensorFlowOpLayer", "config": {"name": "Mean_34", "trainable": true, "dtype": "float32", "node_def": {"name": "Mean_34", "op": "Mean", "input": ["conv2d_139/BiasAdd", "Mean_34/reduction_indices"], "attr": {"Tidx": {"type": "DT_INT32"}, "T": {"type": "DT_FLOAT"}, "keep_dims": {"b": true}}}, "constants": {"1": [1, 2]}}, "name": "tf_op_layer_Mean_34", "inbound_nodes": [[["conv2d_139", 0, 0, {}]]]}, {"class_name": "Conv2D", "config": {"name": "conv2d_140", "trainable": true, "dtype": "float32", "filters": 4, "kernel_size": [1, 1], "strides": [1, 1], "padding": "same", "data_format": "channels_last", "dilation_rate": [1, 1], "groups": 1, "activation": "relu", "use_bias": true, "kernel_initializer": {"class_name": "RandomUniform", "config": {"minval": -0.125, "maxval": 0.125, "seed": null}}, "bias_initializer": {"class_name": "RandomUniform", "config": {"minval": -0.125, "maxval": 0.125, "seed": null}}, "kernel_regularizer": null, "bias_regularizer": null, "activity_regularizer": null, "kernel_constraint": null, "bias_constraint": null}, "name": "conv2d_140", "inbound_nodes": [[["tf_op_layer_Mean_34", 0, 0, {}]]]}, {"class_name": "Conv2D", "config": {"name": "conv2d_141", "trainable": true, "dtype": "float32", "filters": 64, "kernel_size": [1, 1], "strides": [1, 1], "padding": "same", "data_format": "channels_last", "dilation_rate": [1, 1], "groups": 1, "activation": "sigmoid", "use_bias": true, "kernel_initializer": {"class_name": "RandomUniform", "config": {"minval": -0.5, "maxval": 0.5, "seed": null}}, "bias_initializer": {"class_name": "RandomUniform", "config": {"minval": -0.5, "maxval": 0.5, "seed": null}}, "kernel_regularizer": null, "bias_regularizer": null, "activity_regularizer": null, "kernel_constraint": null, "bias_constraint": null}, "name": "conv2d_141", "inbound_nodes": [[["conv2d_140", 0, 0, {}]]]}, {"class_name": "Multiply", "config": {"name": "multiply_34", "trainable": true, "dtype": "float32"}, "name": "multiply_34", "inbound_nodes": [[["conv2d_141", 0, 0, {}], ["conv2d_139", 0, 0, {}]]]}, {"class_name": "Add", "config": {"name": "add_35", "trainable": true, "dtype": "float32"}, "name": "add_35", "inbound_nodes": [[["multiply_34", 0, 0, {}], ["add_34", 0, 0, {}]]]}, {"class_name": "Conv2D", "config": {"name": "conv2d_142", "trainable": true, "dtype": "float32", "filters": 64, "kernel_size": [3, 3], "strides": [1, 1], "padding": "same", "data_format": "channels_last", "dilation_rate": [1, 1], "groups": 1, "activation": "linear", "use_bias": true, "kernel_initializer": {"class_name": "RandomUniform", "config": {"minval": -0.041666666666666664, "maxval": 0.041666666666666664, "seed": null}}, "bias_initializer": {"class_name": "RandomUniform", "config": {"minval": -0.041666666666666664, "maxval": 0.041666666666666664, "seed": null}}, "kernel_regularizer": null, "bias_regularizer": null, "activity_regularizer": null, "kernel_constraint": null, "bias_constraint": null}, "name": "conv2d_142", "inbound_nodes": [[["add_35", 0, 0, {}]]]}, {"class_name": "ReLU", "config": {"name": "re_lu_35", "trainable": true, "dtype": "float32", "max_value": null, "negative_slope": 0.0, "threshold": 0.0}, "name": "re_lu_35", "inbound_nodes": [[["conv2d_142", 0, 0, {}]]]}, {"class_name": "Conv2D", "config": {"name": "conv2d_143", "trainable": true, "dtype": "float32", "filters": 64, "kernel_size": [3, 3], "strides": [1, 1], "padding": "same", "data_format": "channels_last", "dilation_rate": [1, 1], "groups": 1, "activation": "linear", "use_bias": true, "kernel_initializer": {"class_name": "RandomUniform", "config": {"minval": -0.041666666666666664, "maxval": 0.041666666666666664, "seed": null}}, "bias_initializer": {"class_name": "RandomUniform", "config": {"minval": -0.041666666666666664, "maxval": 0.041666666666666664, "seed": null}}, "kernel_regularizer": null, "bias_regularizer": null, "activity_regularizer": null, "kernel_constraint": null, "bias_constraint": null}, "name": "conv2d_143", "inbound_nodes": [[["re_lu_35", 0, 0, {}]]]}, {"class_name": "TensorFlowOpLayer", "config": {"name": "Mean_35", "trainable": true, "dtype": "float32", "node_def": {"name": "Mean_35", "op": "Mean", "input": ["conv2d_143/BiasAdd", "Mean_35/reduction_indices"], "attr": {"Tidx": {"type": "DT_INT32"}, "T": {"type": "DT_FLOAT"}, "keep_dims": {"b": true}}}, "constants": {"1": [1, 2]}}, "name": "tf_op_layer_Mean_35", "inbound_nodes": [[["conv2d_143", 0, 0, {}]]]}, {"class_name": "Conv2D", "config": {"name": "conv2d_144", "trainable": true, "dtype": "float32", "filters": 4, "kernel_size": [1, 1], "strides": [1, 1], "padding": "same", "data_format": "channels_last", "dilation_rate": [1, 1], "groups": 1, "activation": "relu", "use_bias": true, "kernel_initializer": {"class_name": "RandomUniform", "config": {"minval": -0.125, "maxval": 0.125, "seed": null}}, "bias_initializer": {"class_name": "RandomUniform", "config": {"minval": -0.125, "maxval": 0.125, "seed": null}}, "kernel_regularizer": null, "bias_regularizer": null, "activity_regularizer": null, "kernel_constraint": null, "bias_constraint": null}, "name": "conv2d_144", "inbound_nodes": [[["tf_op_layer_Mean_35", 0, 0, {}]]]}, {"class_name": "Conv2D", "config": {"name": "conv2d_145", "trainable": true, "dtype": "float32", "filters": 64, "kernel_size": [1, 1], "strides": [1, 1], "padding": "same", "data_format": "channels_last", "dilation_rate": [1, 1], "groups": 1, "activation": "sigmoid", "use_bias": true, "kernel_initializer": {"class_name": "RandomUniform", "config": {"minval": -0.5, "maxval": 0.5, "seed": null}}, "bias_initializer": {"class_name": "RandomUniform", "config": {"minval": -0.5, "maxval": 0.5, "seed": null}}, "kernel_regularizer": null, "bias_regularizer": null, "activity_regularizer": null, "kernel_constraint": null, "bias_constraint": null}, "name": "conv2d_145", "inbound_nodes": [[["conv2d_144", 0, 0, {}]]]}, {"class_name": "Multiply", "config": {"name": "multiply_35", "trainable": true, "dtype": "float32"}, "name": "multiply_35", "inbound_nodes": [[["conv2d_145", 0, 0, {}], ["conv2d_143", 0, 0, {}]]]}, {"class_name": "Add", "config": {"name": "add_36", "trainable": true, "dtype": "float32"}, "name": "add_36", "inbound_nodes": [[["multiply_35", 0, 0, {}], ["add_35", 0, 0, {}]]]}, {"class_name": "Conv2D", "config": {"name": "conv2d_146", "trainable": true, "dtype": "float32", "filters": 64, "kernel_size": [3, 3], "strides": [1, 1], "padding": "same", "data_format": "channels_last", "dilation_rate": [1, 1], "groups": 1, "activation": "linear", "use_bias": true, "kernel_initializer": {"class_name": "RandomUniform", "config": {"minval": -0.041666666666666664, "maxval": 0.041666666666666664, "seed": null}}, "bias_initializer": {"class_name": "RandomUniform", "config": {"minval": -0.041666666666666664, "maxval": 0.041666666666666664, "seed": null}}, "kernel_regularizer": null, "bias_regularizer": null, "activity_regularizer": null, "kernel_constraint": null, "bias_constraint": null}, "name": "conv2d_146", "inbound_nodes": [[["add_36", 0, 0, {}]]]}, {"class_name": "ReLU", "config": {"name": "re_lu_36", "trainable": true, "dtype": "float32", "max_value": null, "negative_slope": 0.0, "threshold": 0.0}, "name": "re_lu_36", "inbound_nodes": [[["conv2d_146", 0, 0, {}]]]}, {"class_name": "Conv2D", "config": {"name": "conv2d_147", "trainable": true, "dtype": "float32", "filters": 64, "kernel_size": [3, 3], "strides": [1, 1], "padding": "same", "data_format": "channels_last", "dilation_rate": [1, 1], "groups": 1, "activation": "linear", "use_bias": true, "kernel_initializer": {"class_name": "RandomUniform", "config": {"minval": -0.041666666666666664, "maxval": 0.041666666666666664, "seed": null}}, "bias_initializer": {"class_name": "RandomUniform", "config": {"minval": -0.041666666666666664, "maxval": 0.041666666666666664, "seed": null}}, "kernel_regularizer": null, "bias_regularizer": null, "activity_regularizer": null, "kernel_constraint": null, "bias_constraint": null}, "name": "conv2d_147", "inbound_nodes": [[["re_lu_36", 0, 0, {}]]]}, {"class_name": "TensorFlowOpLayer", "config": {"name": "Mean_36", "trainable": true, "dtype": "float32", "node_def": {"name": "Mean_36", "op": "Mean", "input": ["conv2d_147/BiasAdd", "Mean_36/reduction_indices"], "attr": {"T": {"type": "DT_FLOAT"}, "keep_dims": {"b": true}, "Tidx": {"type": "DT_INT32"}}}, "constants": {"1": [1, 2]}}, "name": "tf_op_layer_Mean_36", "inbound_nodes": [[["conv2d_147", 0, 0, {}]]]}, {"class_name": "Conv2D", "config": {"name": "conv2d_148", "trainable": true, "dtype": "float32", "filters": 4, "kernel_size": [1, 1], "strides": [1, 1], "padding": "same", "data_format": "channels_last", "dilation_rate": [1, 1], "groups": 1, "activation": "relu", "use_bias": true, "kernel_initializer": {"class_name": "RandomUniform", "config": {"minval": -0.125, "maxval": 0.125, "seed": null}}, "bias_initializer": {"class_name": "RandomUniform", "config": {"minval": -0.125, "maxval": 0.125, "seed": null}}, "kernel_regularizer": null, "bias_regularizer": null, "activity_regularizer": null, "kernel_constraint": null, "bias_constraint": null}, "name": "conv2d_148", "inbound_nodes": [[["tf_op_layer_Mean_36", 0, 0, {}]]]}, {"class_name": "Conv2D", "config": {"name": "con…
rnel_regularizer": null, "bias_regularizer": null, "activity_regularizer": null, "kernel_constraint": null, "bias_constraint": null}, "name": "conv2d_765", "inbound_nodes": [[["conv2d_764", 0, 0, {}]]]}, {"class_name": "Multiply", "config": {"name": "multiply_188", "trainable": true, "dtype": "float32"}, "name": "multiply_188", "inbound_nodes": [[["conv2d_765", 0, 0, {}], ["conv2d_763", 0, 0, {}]]]}, {"class_name": "Add", "config": {"name": "add_197", "trainable": true, "dtype": "float32"}, "name": "add_197", "inbound_nodes": [[["multiply_188", 0, 0, {}], ["add_196", 0, 0, {}]]]}, {"class_name": "Conv2D", "config": {"name": "conv2d_766", "trainable": true, "dtype": "float32", "filters": 64, "kernel_size": [3, 3], "strides": [1, 1], "padding": "same", "data_format": "channels_last", "dilation_rate": [1, 1], "groups": 1, "activation": "linear", "use_bias": true, "kernel_initializer": {"class_name": "RandomUniform", "config": {"minval": -0.041666666666666664, "maxval": 0.041666666666666664, "seed": null}}, "bias_initializer": {"class_name": "RandomUniform", "config": {"minval": -0.041666666666666664, "maxval": 0.041666666666666664, "seed": null}}, "kernel_regularizer": null, "bias_regularizer": null, "activity_regularizer": null, "kernel_constraint": null, "bias_constraint": null}, "name": "conv2d_766", "inbound_nodes": [[["add_197", 0, 0, {}]]]}, {"class_name": "ReLU", "config": {"name": "re_lu_189", "trainable": true, "dtype": "float32", "max_value": null, "negative_slope": 0.0, "threshold": 0.0}, "name": "re_lu_189", "inbound_nodes": [[["conv2d_766", 0, 0, {}]]]}, {"class_name": "Conv2D", "config": {"name": "conv2d_767", "trainable": true, "dtype": "float32", "filters": 64, "kernel_size": [3, 3], "strides": [1, 1], "padding": "same", "data_format": "channels_last", "dilation_rate": [1, 1], "groups": 1, "activation": "linear", "use_bias": true, "kernel_initializer": {"class_name": "RandomUniform", "config": {"minval": -0.041666666666666664, "maxval": 0.041666666666666664, "seed": null}}, "bias_initializer": {"class_name": "RandomUniform", "config": {"minval": -0.041666666666666664, "maxval": 0.041666666666666664, "seed": null}}, "kernel_regularizer": null, "bias_regularizer": null, "activity_regularizer": null, "kernel_constraint": null, "bias_constraint": null}, "name": "conv2d_767", "inbound_nodes": [[["re_lu_189", 0, 0, {}]]]}, {"class_name": "TensorFlowOpLayer", "config": {"name": "Mean_189", "trainable": true, "dtype": "float32", "node_def": {"name": "Mean_189", "op": "Mean", "input": ["conv2d_767/BiasAdd", "Mean_189/reduction_indices"], "attr": {"T": {"type": "DT_FLOAT"}, "Tidx": {"type": "DT_INT32"}, "keep_dims": {"b": true}}}, "constants": {"1": [1, 2]}}, "name": "tf_op_layer_Mean_189", "inbound_nodes": [[["conv2d_767", 0, 0, {}]]]}, {"class_name": "Conv2D", "config": {"name": "conv2d_768", "trainable": true, "dtype": "float32", "filters": 4, "kernel_size": [1, 1], "strides": [1, 1], "padding": "same", "data_format": "channels_last", "dilation_rate": [1, 1], "groups": 1, "activation": "relu", "use_bias": true, "kernel_initializer": {"class_name": "RandomUniform", "config": {"minval": -0.125, "maxval": 0.125, "seed": null}}, "bias_initializer": {"class_name": "RandomUniform", "config": {"minval": -0.125, "maxval": 0.125, "seed": null}}, "kernel_regularizer": null, "bias_regularizer": null, "activity_regularizer": null, "kernel_constraint": null, "bias_constraint": null}, "name": "conv2d_768", "inbound_nodes": [[["tf_op_layer_Mean_189", 0, 0, {}]]]}, {"class_name": "Conv2D", "config": {"name": "conv2d_769", "trainable": true, "dtype": "float32", "filters": 64, "kernel_size": [1, 1], "strides": [1, 1], "padding": "same", "data_format": "channels_last", "dilation_rate": [1, 1], "groups": 1, "activation": "sigmoid", "use_bias": true, "kernel_initializer": {"class_name": "RandomUniform", "config": {"minval": -0.5, "maxval": 0.5, "seed": null}}, "bias_initializer": {"class_name": "RandomUniform", "config": {"minval": -0.5, "maxval": 0.5, "seed": null}}, "kernel_regularizer": null, "bias_regularizer": null, "activity_regularizer": null, "kernel_constraint": null, "bias_constraint": null}, "name": "conv2d_769", "inbound_nodes": [[["conv2d_768", 0, 0, {}]]]}, {"class_name": "Multiply", "config": {"name": "multiply_189", "trainable": true, "dtype": "float32"}, "name": "multiply_189", "inbound_nodes": [[["conv2d_769", 0, 0, {}], ["conv2d_767", 0, 0, {}]]]}, {"class_name": "Add", "config": {"name": "add_198", "trainable": true, "dtype": "float32"}, "name": "add_198", "inbound_nodes": [[["multiply_189", 0, 0, {}], ["add_197", 0, 0, {}]]]}, {"class_name": "Conv2D", "config": {"name": "conv2d_770", "trainable": true, "dtype": "float32", "filters": 64, "kernel_size": [3, 3], "strides": [1, 1], "padding": "same", "data_format": "channels_last", "dilation_rate": [1, 1], "groups": 1, "activation": "linear", "use_bias": true, "kernel_initializer": {"class_name": "RandomUniform", "config": {"minval": -0.041666666666666664, "maxval": 0.041666666666666664, "seed": null}}, "bias_initializer": {"class_name": "RandomUniform", "config": {"minval": -0.041666666666666664, "maxval": 0.041666666666666664, "seed": null}}, "kernel_regularizer": null, "bias_regularizer": null, "activity_regularizer": null, "kernel_constraint": null, "bias_constraint": null}, "name": "conv2d_770", "inbound_nodes": [[["add_198", 0, 0, {}]]]}, {"class_name": "ReLU", "config": {"name": "re_lu_190", "trainable": true, "dtype": "float32", "max_value": null, "negative_slope": 0.0, "threshold": 0.0}, "name": "re_lu_190", "inbound_nodes": [[["conv2d_770", 0, 0, {}]]]}, {"class_name": "Conv2D", "config": {"name": "conv2d_771", "trainable": true, "dtype": "float32", "filters": 64, "kernel_size": [3, 3], "strides": [1, 1], "padding": "same", "data_format": "channels_last", "dilation_rate": [1, 1], "groups": 1, "activation": "linear", "use_bias": true, "kernel_initializer": {"class_name": "RandomUniform", "config": {"minval": -0.041666666666666664, "maxval": 0.041666666666666664, "seed": null}}, "bias_initializer": {"class_name": "RandomUniform", "config": {"minval": -0.041666666666666664, "maxval": 0.041666666666666664, "seed": null}}, "kernel_regularizer": null, "bias_regularizer": null, "activity_regularizer": null, "kernel_constraint": null, "bias_constraint": null}, "name": "conv2d_771", "inbound_nodes": [[["re_lu_190", 0, 0, {}]]]}, {"class_name": "TensorFlowOpLayer", "config": {"name": "Mean_190", "trainable": true, "dtype": "float32", "node_def": {"name": "Mean_190", "op": "Mean", "input": ["conv2d_771/BiasAdd", "Mean_190/reduction_indices"], "attr": {"keep_dims": {"b": true}, "Tidx": {"type": "DT_INT32"}, "T": {"type": "DT_FLOAT"}}}, "constants": {"1": [1, 2]}}, "name": "tf_op_layer_Mean_190", "inbound_nodes": [[["conv2d_771", 0, 0, {}]]]}, {"class_name": "Conv2D", "config": {"name": "conv2d_772", "trainable": true, "dtype": "float32", "filters": 4, "kernel_size": [1, 1], "strides": [1, 1], "padding": "same", "data_format": "channels_last", "dilation_rate": [1, 1], "groups": 1, "activation": "relu", "use_bias": true, "kernel_initializer": {"class_name": "RandomUniform", "config": {"minval": -0.125, "maxval": 0.125, "seed": null}}, "bias_initializer": {"class_name": "RandomUniform", "config": {"minval": -0.125, "maxval": 0.125, "seed": null}}, "kernel_regularizer": null, "bias_regularizer": null, "activity_regularizer": null, "kernel_constraint": null, "bias_constraint": null}, "name": "conv2d_772", "inbound_nodes": [[["tf_op_layer_Mean_190", 0, 0, {}]]]}, {"class_name": "Conv2D", "config": {"name": "conv2d_773", "trainable": true, "dtype": "float32", "filters": 64, "kernel_size": [1, 1], "strides": [1, 1], "padding": "same", "data_format": "channels_last", "dilation_rate": [1, 1], "groups": 1, "activation": "sigmoid", "use_bias": true, "kernel_initializer": {"class_name": "RandomUniform", "config": {"minval": -0.5, "maxval": 0.5, "seed": null}}, "bias_initializer": {"class_name": "RandomUniform", "config": {"minval": -0.5, "maxval": 0.5, "seed": null}}, "kernel_regularizer": null, "bias_regularizer": null, "activity_regularizer": null, "kernel_constraint": null, "bias_constraint": null}, "name": "conv2d_773", "inbound_nodes": [[["conv2d_772", 0, 0, {}]]]}, {"class_name": "Multiply", "config": {"name": "multiply_190", "trainable": true, "dtype": "float32"}, "name": "multiply_190", "inbound_nodes": [[["conv2d_773", 0, 0, {}], ["conv2d_771", 0, 0, {}]]]}, {"class_name": "Add", "config": {"name": "add_199", "trainable": true, "dtype": "float32"}, "name": "add_199", "inbound_nodes": [[["multiply_190", 0, 0, {}], ["add_198", 0, 0, {}]]]}, {"class_name": "Conv2D", "config": {"name": "conv2d_774", "trainable": true, "dtype": "float32", "filters": 64, "kernel_size": [3, 3], "strides": [1, 1], "padding": "same", "data_format": "channels_last", "dilation_rate": [1, 1], "groups": 1, "activation": "linear", "use_bias": true, "kernel_initializer": {"class_name": "RandomUniform", "config": {"minval": -0.041666666666666664, "maxval": 0.041666666666666664, "seed": null}}, "bias_initializer": {"class_name": "RandomUniform", "config": {"minval": -0.041666666666666664, "maxval": 0.041666666666666664, "seed": null}}, "kernel_regularizer": null, "bias_regularizer": null, "activity_regularizer": null, "kernel_constraint": null, "bias_constraint": null}, "name": "conv2d_774", "inbound_nodes": [[["add_199", 0, 0, {}]]]}, {"class_name": "ReLU", "config": {"name": "re_lu_191", "trainable": true, "dtype": "float32", "max_value": null, "negative_slope": 0.0, "threshold": 0.0}, "name": "re_lu_191", "inbound_nodes": [[["conv2d_774", 0, 0, {}]]]}, {"class_name": "Conv2D", "config": {"name": "conv2d_775", "trainable": true, "dtype": "float32", "filters": 64, "kernel_size": [3, 3], "strides": [1, 1], "padding": "same", "data_format": "channels_last", "dilation_rate": [1, 1], "groups": 1, "activation": "linear", "use_bias": true, "kernel_initializer": {"class_name": "RandomUniform", "config": {"minval": -0.041666666666666664, "maxval": 0.041666666666666664, "seed": null}}, "bias_initializer": {"class_name": "RandomUniform", "config": {"minval": -0.041666666666666664, "maxval": 0.041666666666666664, "seed": null}}, "kernel_regularizer": null, "bias_regularizer": null, "activity_regularizer": null, "kernel_constraint": null, "bias_constraint": null}, "name": "conv2d_775", "inbound_nodes": [[["re_lu_191", 0, 0, {}]]]}, {"class_name": "TensorFlowOpLayer", "config": {"name": "Mean_191", "trainable": true, "dtype": "float32", "node_def": {"name": "Mean_191", "op": "Mean", "input": ["conv2d_775/BiasAdd", "Mean_191/reduction_indices"], "attr": {"keep_dims": {"b": true}, "T": {"type": "DT_FLOAT"}, "Tidx": {"type": "DT_INT32"}}}, "constants": {"1": [1, 2]}}, "name": "tf_op_layer_Mean_191", "inbound_nodes": [[["conv2d_775", 0, 0, {}]]]}, {"class_name": "Conv2D", "config": {"name": "conv2d_776", "trainable": true, "dtype": "float32", "filters": 4, "kernel_size": [1, 1], "strides": [1, 1], "padding": "same", "data_format": "channels_last", "dilation_rate": [1, 1], "groups": 1, "activation": "relu", "use_bias": true, "kernel_initializer": {"class_name": "RandomUniform", "config": {"minval": -0.125, "maxval": 0.125, "seed": null}}, "bias_initializer": {"class_name": "RandomUniform", "config": {"minval": -0.125, "maxval": 0.125, "seed": null}}, "kernel_regularizer": null, "bias_regularizer": null, "activity_regularizer": null, "kernel_constraint": null, "bias_constraint": null}, "name": "conv2d_776", "inbound_nodes": [[["tf_op_layer_Mean_191", 0, 0, {}]]]}, {"class_name": "Conv2D", "config": {"name": "conv2d_777", "trainable": true, "dtype": "float32", "filters": 64, "kernel_size": [1, 1], "strides": [1, 1], "padding": "same", "data_format": "channels_last", "dilation_rate": [1, 1], "groups": 1, "activation": "sigmoid", "use_bias": true, "kernel_initializer": {"class_name": "RandomUniform", "config": {"minval": -0.5, "maxval": 0.5, "seed": null}}, "bias_initializer": {"class_name": "RandomUniform", "config": {"minval": -0.5, "maxval": 0.5, "seed": null}}, "kernel_regularizer": null, "bias_regularizer": null, "activity_regularizer": null, "kernel_constraint": null, "bias_constraint": null}, "name": "conv2d_777", "inbound_nodes": [[["conv2d_776", 0, 0, {}]]]}, {"class_name": "Multiply", "config": {"name": "multiply_191", "trainable": true, "dtype": "float32"}, "name": "multiply_191", "inbound_nodes": [[["conv2d_777", 0, 0, {}], ["conv2d_775", 0, 0, {}]]]}, {"class_name": "Add", "config": {"name": "add_200", "trainable": true, "dtype": "float32"}, "name": "add_200", "inbound_nodes": [[["multiply_191", 0, 0, {}], ["add_199", 0, 0, {}]]]}, {"class_name": "Conv2D", "config": {"name": "conv2d_778", "trainable": true, "dtype": "float32", "filters": 64, "kernel_size": [3, 3], "strides": [1, 1], "padding": "same", "data_format": "channels_last", "dilation_rate": [1, 1], "groups": 1, "activation": "linear", "use_bias": true, "kernel_initializer": {"class_name": "RandomUniform", "config": {"minval": -0.041666666666666664, "maxval": 0.041666666666666664, "seed": null}}, "bias_initializer": {"class_name": "RandomUniform", "config": {"minval": -0.041666666666666664, "maxval": 0.041666666666666664, "seed": null}}, "kernel_regularizer": null, "bias_regularizer": null, "activity_regularizer": null, "kernel_constraint": null, "bias_constraint": null}, "name": "conv2d_778", "inbound_nodes": [[["add_200", 0, 0, {}]]]}, {"class_name": "ReLU", "config": {"name": "re_lu_192", "trainable": true, "dtype": "float32", "max_value": null, "negative_slope": 0.0, "threshold": 0.0}, "name": "re_lu_192", "inbound_nodes": [[["conv2d_778", 0, 0, {}]]]}, {"class_name": "Conv2D", "config": {"name": "conv2d_779", "trainable": true, "dtype": "float32", "filters": 64, "kernel_size": [3, 3], "strides": [1, 1], "padding": "same", "data_format": "channels_last", "dilation_rate": [1, 1], "groups": 1, "activation": "linear", "use_bias": true, "kernel_initializer": {"class_name": "RandomUniform", "config": {"minval": -0.041666666666666664, "maxval": 0.041666666666666664, "seed": null}}, "bias_initializer": {"class_name": "RandomUniform", "config": {"minval": -0.041666666666666664, "maxval": 0.041666666666666664, "seed": null}}, "kernel_regularizer": null, "bias_regularizer": null, "activity_regularizer": null, "kernel_constraint": null, "bias_constraint": null}, "name": "conv2d_779", "inbound_nodes": [[["re_lu_192", 0, 0, {}]]]}, {"class_name": "TensorFlowOpLayer", "config": {"name": "Mean_192", "trainable": true, "dtype": "float32", "node_def": {"name": "Mean_192", "op": "Mean", "input": ["conv2d_779/BiasAdd", "Mean_192/reduction_indices"], "attr": {"Tidx": {"type": "DT_INT32"}, "keep_dims": {"b": true}, "T": {"type": "DT_FLOAT"}}}, "constants": {"1": [1, 2]}}, "name": "tf_op_layer_Mean_192", "inbound_nodes": [[["conv2d_779", 0, 0, {}]]]}, {"class_name": "Conv2D", "config": {"name": "conv2d_780", "trainable": true, "dtype": "float32", "filters": 4, "kernel_size": [1, 1], "strides": [1, 1], "padding": "same", "data_format": "channels_last", "dilation_rate": [1, 1], "groups": 1, "activation": "relu", "use_bias": true, "kernel_initializer": {"class_name": "RandomUniform", "config": {"minval": -0.125, "maxval": 0.125, "seed": null}}, "bias_initializer": {"class_name": "RandomUniform", "config": {"minval": -0.125, "maxval": 0.125, "seed": null}}, "kernel_regularizer": null, "bias_regularizer": null, "activity_regularizer": null, "kernel_constraint": null, "bias_constraint": null}, "name": "conv2d_780", "inbound_nodes": [[["tf_op_layer_Mean_192", 0, 0, {}]]]}, {"class_name": "Conv2D", "config": {"name": "conv2d_781", "trainable": true, "dtype": "float32", "filters": 64, "kernel_size": [1, 1], "strides": [1, 1], "padding": "same", "data_format": "channels_last", "dilation_rate": [1, 1], "groups": 1, "activation": "sigmoid", "use_bias": true, "kernel_initializer": {"class_name": "RandomUniform", "config": {"minval": -0.5, "maxval": 0.5, "seed": null}}, "bias_initializer": {"class_name": "RandomUniform", "config": {"minval": -0.5, "maxval": 0.5, "seed": null}}, "kernel_regularizer": null, "bias_regularizer": null, "activity_regularizer": null, "kernel_constraint": null, "bias_constraint": null}, "name": "conv2d_781", "inbound_nodes": [[["conv2d_780", 0, 0, {}]]]}, {"class_name": "Multiply", "config": {"name": "multiply_192", "trainable": true, "dtype": "float32"}, "name": "multiply_192", "inbound_nodes": [[["conv2d_781", 0, 0, {}], ["conv2d_779", 0, 0, {}]]]}, {"class_name": "Add", "config": {"name": "add_201", "trainable": true, "dtype": "float32"}, "name": "add_201", "inbound_nodes": [[["multiply_192", 0, 0, {}], ["add_200", 0, 0, {}]]]}, {"class_name": "Conv2D", "config": {"name": "conv2d_782", "trainable": true, "dtype": "float32", "filters": 64, "kernel_size": [3, 3], "strides": [1, 1], "padding": "same", "data_format": "channels_last", "dilation_rate": [1, 1], "groups": 1, "activation": "linear", "use_bias": true, "kernel_initializer": {"class_name": "RandomUniform", "config": {"minval": -0.041666666666666664, "maxval": 0.041666666666666664, "seed": null}}, "bias_initializer": {"class_name": "RandomUniform", "config": {"minval": -0.041666666666666664, "maxval": 0.041666666666666664, "seed": null}}, "kernel_regularizer": null, "bias_regularizer": null, "activity_regularizer": null, "kernel_constraint": null, "bias_constraint": null}, "name": "conv2d_782", "inbound_nodes": [[["add_201", 0, 0, {}]]]}, {"class_name": "ReLU", "config": {"name": "re_lu_193", "trainable": true, "dtype": "float32", "max_value": null, "negative_slope": 0.0, "threshold": 0.0}, "name": "re_lu_193", "inbound_nodes": [[["conv2d_782", 0, 0, {}]]]}, {"class_name": "Conv2D", "config": {"name": "conv2d_783", "trainable": true, "dtype": "float32", "filters": 64, "kernel_size": [3, 3], "strides": [1, 1], "padding": "same", "data_format": "channels_last", "dilation_rate": [1, 1], "groups": 1, "activation": "linear", "use_bias": true, "kernel_initializer": {"class_name": "RandomUniform", "config": {"minval": -0.041666666666666664, "maxval": 0.041666666666666664, "seed": null}}, "bias_initializer": {"class_name": "RandomUniform", "config": {"minval": -0.041666666666666664, "maxval": 0.041666666666666664, "seed": null}}, "kernel_regularizer": null, "bias_regularizer": null, "activity_regularizer": null, "kernel_constraint": null, "bias_constraint": null}, "name": "conv2d_783", "inbound_nodes": [[["re_lu_193", 0, 0, {}]]]}, {"class_name": "TensorFlowOpLayer", "config": {"name": "Mean_193", "trainable": true, "dtype": "float32", "node_def": {"name": "Mean_193", "op": "Mean", "input": ["conv2d_783/BiasAdd", "Mean_193/reduction_indices"], "attr": {"keep_dims": {"b": true}, "T": {"type": "DT_FLOAT"}, "Tidx": {"type": "DT_INT32"}}}, "constants": {"1": [1, 2]}}, "name": "tf_op_layer_Mean_193", "inbound_nodes": [[["conv2d_783", 0, 0, {}]]]}, {"class_name": "Conv2D", "config": {"name": "conv2d_784", "trainable": true, "dtype": "float32", "filters": 4, "kernel_size": [1, 1], "strides": [1, 1], "padding": "same", "data_format": "channels_last", "dilation_rate": [1, 1], "groups": 1, "activation": "relu", "use_bias": true, "kernel_initializer": {"class_name": "RandomUniform", "config": {"minval": -0.125, "maxval": 0.125, "seed": null}}, "bias_initializer": {"class_name": "RandomUniform", "config": {"minval": -0.125, "maxval": 0.125, "seed": null}}, "kernel_regularizer": null, "bias_regularizer": null, "activity_regularizer": null, "kernel_constraint": null, "bias_constraint": null}, "name": "conv2d_784", "inbound_nodes": [[["tf_op_layer_Mean_193", 0, 0, {}]]]}, {"class_name": "Conv2D", "config": {"name": "conv2d_785", "trainable": true, "dtype": "float32", "filters": 64, "kernel_size": [1, 1], "strides": [1, 1], "padding": "same", "data_format": "channels_last", "dilation_rate": [1, 1], "groups": 1, "activation": "sigmoid", "use_bias": true, "kernel_initializer": {"class_name": "RandomUniform", "config": {"minval": -0.5, "maxval": 0.5, "seed": null}}, "bias_initializer": {"class_name": "RandomUniform", "config": {"minval": -0.5, "maxval": 0.5, "seed": null}}, "kernel_regularizer": null, "bias_regularizer": null, "activity_regularizer": null, "kernel_constraint": null, "bias_constraint": null}, "name": "conv2d_785", "inbound_nodes": [[["conv2d_784", 0, 0, {}]]]}, {"class_name": "Multiply", "config": {"name": "multiply_193", "trainable": true, "dtype": "float32"}, "name": "multiply_193", "inbound_nodes": [[["conv2d_785", 0, 0, {}], ["conv2d_783", 0, 0, {}]]]}, {"class_name": "Add", "config": {"name": "add_202", "trainable": true, "dtype": "float32"}, "name": "add_202", "inbound_nodes": [[["multiply_193", 0, 0, {}], ["add_201", 0, 0, {}]]]}, {"class_name": "Conv2D", "config": {"name": "conv2d_786", "trainable": true, "dtype": "float32", "filters": 64, "kernel_size": [3, 3], "strides": [1, 1], "padding": "same", "data_format": "channels_last", "dilation_rate": [1, 1], "groups": 1, "activation": "linear", "use_bias": true, "kernel_initializer": {"class_name": "RandomUniform", "config": {"minval": -0.041666666666666664, "maxval": 0.041666666666666664, "seed": null}}, "bias_initializer": {"class_name": "RandomUniform", "config": {"minval": -0.041666666666666664, "maxval": 0.041666666666666664, "seed": null}}, "kernel_regularizer": null, "bias_regularizer": null, "activity_regularizer": null, "kernel_constraint": null, "bias_constraint": null}, "name": "conv2d_786", "inbound_nodes": [[["add_202", 0, 0, {}]]]}, {"class_name": "ReLU", "config": {"name": "re_lu_194", "trainable": true, "dtype": "float32", "max_value": null, "negative_slope": 0.0, "threshold": 0.0}, "name": "re_lu_194", "inbound_nodes": [[["conv2d_786", 0, 0, {}]]]}, {"class_name": "Conv2D", "config": {"name": "conv2d_787", "trainable": true, "dtype": "float32", "filters": 64, "kernel_size": [3, 3], "strides": [1, 1], "padding": "same", "data_format": "channels_last", "dilation_rate": [1, 1], "groups": 1, "activation": "linear", "use_bias": true, "kernel_initializer": {"class_name": "RandomUniform", "config": {"minval": -0.041666666666666664, "maxval": 0.041666666666666664, "seed": null}}, "bias_initializer": {"class_name": "RandomUniform", "config": {"minval": -0.041666666666666664, "maxval": 0.041666666666666664, "seed": null}}, "kernel_regularizer": null, "bias_regularizer": null, "activity_regularizer": null, "kernel_constraint": null, "bias_constraint": null}, "name": "conv2d_787", "inbound_nodes": [[["re_lu_194", 0, 0, {}]]]}, {"class_name": "TensorFlowOpLayer", "config": {"name": "Mean_194", "trainable": true, "dtype": "float32", "node_def": {"name": "Mean_194", "op": "Mean", "input": ["conv2d_787/BiasAdd", "Mean_194/reduction_indices"], "attr": {"keep_dims": {"b": true}, "T": {"type": "DT_FLOAT"}, "Tidx": {"type": "DT_INT32"}}}, "constants": {"1": [1, 2]}}, "name": "tf_op_layer_Mean_194", "inbound_nodes": [[["conv2d_787", 0, 0, {}]]]}, {"class_name": "Conv2D", "config": {"name": "conv2d_788", "trainable": true, "dtype": "float32", "filters": 4, "kernel_size": [1, 1], "strides": [1, 1], "padding": "same", "data_format": "channels_last", "dilation_rate": [1, 1], "groups": 1, "activation": "relu", "use_bias": true, "kernel_initializer": {"class_name": "RandomUniform", "config": {"minval": -0.125, "maxval": 0.125, "seed": null}}, "bias_initializer": {"class_name": "RandomUniform", "config": {"minval": -0.125, "maxval": 0.125, "seed": null}}, "kernel_regularizer": null, "bias_regularizer": null, "activity_regularizer": null, "kernel_constraint": null, "bias_constraint": null}, "name": "conv2d_788", "inbound_nodes": [[["tf_op_layer_Mean_194", 0, 0, {}]]]}, {"class_name": "Conv2D", "config": {"name": "conv2d_789", "trainable": true, "dtype": "float32", "filters": 64, "kernel_size": [1, 1], "strides": [1, 1], "padding": "same", "data_format": "channels_last", "dilation_rate": [1, 1], "groups": 1, "activation": "sigmoid", "use_bias": true, "kernel_initializer": {"class_name": "RandomUniform", "config": {"minval": -0.5, "maxval": 0.5, "seed": null}}, "bias_initializer": {"class_name": "RandomUniform", "config": {"minval": -0.5, "maxval": 0.5, "seed": null}}, "kernel_regularizer": null, "bias_regularizer": null, "activity_regularizer": null, "kernel_constraint": null, "bias_constraint": null}, "name": "conv2d_789", "inbound_nodes": [[["conv2d_788", 0, 0, {}]]]}, {"class_name": "Multiply", "config": {"name": "multiply_194", "trainable": true, "dtype": "float32"}, "name": "multiply_194", "inbound_nodes": [[["conv2d_789", 0, 0, {}], ["conv2d_787", 0, 0, {}]]]}, {"class_name": "Add", "config": {"name": "add_203", "trainable": true, "dtype": "float32"}, "name": "add_203", "inbound_nodes": [[["multiply_194", 0, 0, {}], ["add_202", 0, 0, {}]]]}, {"class_name": "Conv2D", "config": {"name": "conv2d_790", "trainable": true, "dtype": "float32", "filters": 64, "kernel_size": [3, 3], "strides": [1, 1], "padding": "same", "data_format": "channels_last", "dilation_rate": [1, 1], "groups": 1, "activation": "linear", "use_bias": true, "kernel_initializer": {"class_name": "RandomUniform", "config": {"minval": -0.041666666666666664, "maxval": 0.041666666666666664, "seed": null}}, "bias_initializer": {"class_name": "RandomUniform", "config": {"minval": -0.041666666666666664, "maxval": 0.041666666666666664, "seed": null}}, "kernel_regularizer": null, "bias_regularizer": null, "activity_regularizer": null, "kernel_constraint": null, "bias_constraint": null}, "name": "conv2d_790", "inbound_nodes": [[["add_203", 0, 0, {}]]]}, {"class_name": "ReLU", "config": {"name": "re_lu_195", "trainable": true, "dtype": "float32", "max_value": null, "negative_slope": 0.0, "threshold": 0.0}, "name": "re_lu_195", "inbound_nodes": [[["conv2d_790", 0, 0, {}]]]}, {"class_name": "Conv2D", "config": {"name": "conv2d_791", "trainable": true, "dtype": "float32", "filters": 64, "kernel_size": [3, 3], "strides": [1, 1], "padding": "same", "data_format": "channels_last", "dilation_rate": [1, 1], "groups": 1, "activation": "linear", "use_bias": true, "kernel_initializer": {"class_name": "RandomUniform", "config": {"minval": -0.041666666666666664, "maxval": 0.041666666666666664, "seed": null}}, "bias_initializer": {"class_name": "RandomUniform", "config": {"minval": -0.041666666666666664, "maxval": 0.041666666666666664, "seed": null}}, "kernel_regularizer": null, "bias_regularizer": null, "activity_regularizer": null, "kernel_constraint": null, "bias_constraint": null}, "name": "conv2d_791", "inbound_nodes": [[["re_lu_195", 0, 0, {}]]]}, {"class_name": "TensorFlowOpLayer", "config": {"name": "Mean_195", "trainable": true, "dtype": "float32", "node_def": {"name": "Mean_195", "op": "Mean", "input": ["conv2d_791/BiasAdd", "Mean_195/reduction_indices"], "attr": {"keep_dims": {"b": true}, "T": {"type": "DT_FLOAT"}, "Tidx": {"type": "DT_INT32"}}}, "constants": {"1": [1, 2]}}, "name": "tf_op_layer_Mean_195", "inbound_nodes": [[["conv2d_791", 0, 0, {}]]]}, {"class_name": "Conv2D", "config": {"name": "conv2d_792", "trainable": true, "dtype": "float32", "filters": 4, "kernel_size": [1, 1], "strides": [1, 1], "padding": "same", "data_format": "channels_last", "dilation_rate": [1, 1], "groups": 1, "activation": "relu", "use_bias": true, "kernel_initializer": {"class_name": "RandomUniform", "config": {"minval": -0.125, "maxval": 0.125, "seed": null}}, "bias_initializer": {"class_name": "RandomUniform", "config": {"minval": -0.125, "maxval": 0.125, "seed": null}}, "kernel_regularizer": null, "bias_regularizer": null, "activity_regularizer": null, "kernel_constraint": null, "bias_constraint": null}, "name": "conv2d_792", "inbound_nodes": [[["tf_op_layer_Mean_195", 0, 0, {}]]]}, {"class_name": "Conv2D", "config": {"name": "conv2d_793", "trainable": true, "dtype": "float32", "filters": 64, "kernel_size": [1, 1], "strides": [1, 1], "padding": "same", "data_format": "channels_last", "dilation_rate": [1, 1], "groups": 1, "activation": "sigmoid", "use_bias": true, "kernel_initializer": {"class_name": "RandomUniform", "config": {"minval": -0.5, "maxval": 0.5, "seed": null}}, "bias_initializer": {"class_name": "RandomUniform", "config": {"minval": -0.5, "maxval": 0.5, "seed": null}}, "kernel_regularizer": null, "bias_regularizer": null, "activity_regularizer": null, "kernel_constraint": null, "bias_constraint": null}, "name": "conv2d_793", "inbound_nodes": [[["conv2d_792", 0, 0, {}]]]}, {"class_name": "Multiply", "config": {"name": "multiply_195", "trainable": true, "dtype": "float32"}, "name": "multiply_195", "inbound_nodes": [[["conv2d_793", 0, 0, {}], ["conv2d_791", 0, 0, {}]]]}, {"class_name": "Add", "config": {"name": "add_204", "trainable": true, "dtype": "float32"}, "name": "add_204", "inbound_nodes": [[["multiply_195", 0, 0, {}], ["add_203", 0, 0, {}]]]}, {"class_name": "Conv2D", "config": {"name": "conv2d_794", "trainable": true, "dtype": "float32", "filters": 64, "kernel_size": [3, 3], "strides": [1, 1], "padding": "same", "data_format": "channels_last", "dilation_rate": [1, 1], "groups": 1, "activation": "linear", "use_bias": true, "kernel_initializer": {"class_name": "RandomUniform", "config": {"minval": -0.041666666666666664, "maxval": 0.041666666666666664, "seed": null}}, "bias_initializer": {"class_name": "RandomUniform", "config": {"minval": -0.041666666666666664, "maxval": 0.041666666666666664, "seed": null}}, "kernel_regularizer": null, "bias_regularizer": null, "activity_regularizer": null, "kernel_constraint": null, "bias_constraint": null}, "name": "conv2d_794", "inbound_nodes": [[["add_204", 0, 0, {}]]]}, {"class_name": "ReLU", "config": {"name": "re_lu_196", "trainable": true, "dtype": "float32", "max_value": null, "negative_slope": 0.0, "threshold": 0.0}, "name": "re_lu_196", "inbound_nodes": [[["conv2d_794", 0, 0, {}]]]}, {"class_name": "Conv2D", "config": {"name": "conv2d_795", "trainable": true, "dtype": "float32", "filters": 64, "kernel_size": [3, 3], "strides": [1, 1], "padding": "same", "data_format": "channels_last", "dilation_rate": [1, 1], "groups": 1, "activation": "linear", "use_bias": true, "kernel_initializer": {"class_name": "RandomUniform", "config": {"minval": -0.041666666666666664, "maxval": 0.041666666666666664, "seed": null}}, "bias_initializer": {"class_name": "RandomUniform", "config": {"minval": -0.041666666666666664, "maxval": 0.041666666666666664, "seed": null}}, "kernel_regularizer": null, "bias_regularizer": null, "activity_regularizer": null, "kernel_constraint": null, "bias_constraint": null}, "name": "conv2d_795", "inbound_nodes": [[["re_lu_196", 0, 0, {}]]]}, {"class_name": "TensorFlowOpLayer", "config": {"name": "Mean_196", "trainable": true, "dtype": "float32", "node_def": {"name": "Mean_196", "op": "Mean", "input": ["conv2d_795/BiasAdd", "Mean_196/reduction_indices"], "attr": {"T": {"type": "DT_FLOAT"}, "Tidx": {"type": "DT_INT32"}, "keep_dims": {"b": true}}}, "constants": {"1": [1, 2]}}, "name": "tf_op_layer_Mean_196", "inbound_nodes": [[["conv2d_795", 0, 0, {}]]]}, {"class_name": "Conv2D", "config": {"name": "conv2d_796", "trainable": true, "dtype": "float32", "filters": 4, "kernel_size": [1, 1], "strides": [1, 1], "padding": "same", "data_format": "channels_last", "dilation_rate": [1, 1], "groups": 1, "activation": "relu", "use_bias": true, "kernel_initializer": {"class_name": "RandomUniform", "config": {"minval": -0.125, "maxval": 0.125, "seed": null}}, "bias_initializer": {"class_name": "RandomUniform", "config": {"minval": -0.125, "maxval": 0.125, "seed": null}}, "kernel_regularizer": null, "bias_regularizer": null, "activity_regularizer": null, "kernel_constraint": null, "bias_constraint": null}, "name": "conv2d_796", "inbound_nodes": [[["tf_op_layer_Mean_196", 0, 0, {}]]]}, {"class_name": "Conv2D", "config": {"name": "conv2d_797", "trainable": true, "dtype": "float32", "filters": 64, "kernel_size": [1, 1], "strides": [1, 1], "padding": "same", "data_format": "channels_last", "dilation_rate": [1, 1], "groups": 1, "activation": "sigmoid", "use_bias": true, "kernel_initializer": {"class_name": "RandomUniform", "config": {"minval": -0.5, "maxval": 0.5, "seed": null}}, "bias_initializer": {"class_name": "RandomUniform", "config": {"minval": -0.5, "maxval": 0.5, "seed": null}}, "kernel_regularizer": null, "bias_regularizer": null, "activity_regularizer": null, "kernel_constraint": null, "bias_constraint": null}, "name": "conv2d_797", "inbound_nodes": [[["conv2d_796", 0, 0, {}]]]}, {"class_name": "Multiply", "config": {"name": "multiply_196", "trainable": true, "dtype": "float32"}, "name": "multiply_196", "inbound_nodes": [[["conv2d_797", 0, 0, {}], ["conv2d_795", 0, 0, {}]]]}, {"class_name": "Add", "config": {"name": "add_205", "trainable": true, "dtype": "float32"}, "name": "add_205", "inbound_nodes": [[["multiply_196", 0, 0, {}], ["add_204", 0, 0, {}]]]}, {"class_name": "Conv2D", "config": {"name": "conv2d_798", "trainable": true, "dtype": "float32", "filters": 64, "kernel_size": [3, 3], "strides": [1, 1], "padding": "same", "data_format": "channels_last", "dilation_rate": [1, 1], "groups": 1, "activation": "linear", "use_bias": true, "kernel_initializer": {"class_name": "RandomUniform", "config": {"minval": -0.041666666666666664, "maxval": 0.041666666666666664, "seed": null}}, "bias_initializer": {"class_name": "RandomUniform", "config": {"minval": -0.041666666666666664, "maxval": 0.041666666666666664, "seed": null}}, "kernel_regularizer": null, "bias_regularizer": null, "activity_regularizer": null, "kernel_constraint": null, "bias_constraint": null}, "name": "conv2d_798", "inbound_nodes": [[["add_205", 0, 0, {}]]]}, {"class_name": "ReLU", "config": {"name": "re_lu_197", "trainable": true, "dtype": "float32", "max_value": null, "negative_slope": 0.0, "threshold": 0.0}, "name": "re_lu_197", "inbound_nodes": [[["conv2d_798", 0, 0, {}]]]}, {"class_name": "Conv2D", "config": {"name": "conv2d_799", "trainable": true, "dtype": "float32", "filters": 64, "kernel_size": [3, 3], "strides": [1, 1], "padding": "same", "data_format": "channels_last", "dilation_rate": [1, 1], "groups": 1, "activation": "linear", "use_bias": true, "kernel_initializer": {"class_name": "RandomUniform", "config": {"minval": -0.041666666666666664, "maxval": 0.041666666666666664, "seed": null}}, "bias_initializer": {"class_name": "RandomUniform", "config": {"minval": -0.041666666666666664, "maxval": 0.041666666666666664, "seed": null}}, "kernel_regularizer": null, "bias_regularizer": null, "activity_regularizer": null, "kernel_constraint": null, "bias_constraint": null}, "name": "conv2d_799", "inbound_nodes": [[["re_lu_197", 0, 0, {}]]]}, {"class_name": "TensorFlowOpLayer", "config": {"name": "Mean_197", "trainable": true, "dtype": "float32", "node_def": {"name": "Mean_197", "op": "Mean", "input": ["conv2d_799/BiasAdd", "Mean_197/reduction_indices"], "attr": {"T": {"type": "DT_FLOAT"}, "Tidx": {"type": "DT_INT32"}, "keep_dims": {"b": true}}}, "constants": {"1": [1, 2]}}, "name": "tf_op_layer_Mean_197", "inbound_nodes": [[["conv2d_799", 0, 0, {}]]]}, {"class_name": "Conv2D", "config": {"name": "conv2d_800", "trainable": true, "dtype": "float32", "filters": 4, "kernel_size": [1, 1], "strides": [1, 1], "padding": "same", "data_format": "channels_last", "dilation_rate": [1, 1], "groups": 1, "activation": "relu", "use_bias": true, "kernel_initializer": {"class_name": "RandomUniform", "config": {"minval": -0.125, "maxval": 0.125, "seed": null}}, "bias_initializer": {"class_name": "RandomUniform", "config": {"minval": -0.125, "maxval": 0.125, "seed": null}}, "kernel_regularizer": null, "bias_regularizer": null, "activity_regularizer": null, "kernel_constraint": null, "bias_constraint": null}, "name": "conv2d_800", "inbound_nodes": [[["tf_op_layer_Mean_197", 0, 0, {}]]]}, {"class_name": "Conv2D", "config": {"name": "conv2d_801", "trainable": true, "dtype": "float32", "filters": 64, "kernel_size": [1, 1], "strides": [1, 1], "padding": "same", "data_format": "channels_last", "dilation_rate": [1, 1], "groups": 1, "activation": "sigmoid", "use_bias": true, "kernel_initializer": {"class_name": "RandomUniform", "config": {"minval": -0.5, "maxval": 0.5, "seed": null}}, "bias_initializer": {"class_name": "RandomUniform", "config": {"minval": -0.5, "maxval": 0.5, "seed": null}}, "kernel_regularizer": null, "bias_regularizer": null, "activity_regularizer": null, "kernel_constraint": null, "bias_constraint": null}, "name": "conv2d_801", "inbound_nodes": [[["conv2d_800", 0, 0, {}]]]}, {"class_name": "Multiply", "config": {"name": "multiply_197", "trainable": true, "dtype": "float32"}, "name": "multiply_197", "inbound_nodes": [[["conv2d_801", 0, 0, {}], ["conv2d_799", 0, 0, {}]]]}, {"class_name": "Add", "config": {"name": "add_206", "trainable": true, "dtype": "float32"}, "name": "add_206", "inbound_nodes": [[["multiply_197", 0, 0, {}], ["add_205", 0, 0, {}]]]}, {"class_name": "Conv2D", "config": {"name": "conv2d_802", "trainable": true, "dtype": "float32", "filters": 64, "kernel_size": [3, 3], "strides": [1, 1], "padding": "same", "data_format": "channels_last", "dilation_rate": [1, 1], "groups": 1, "activation": "linear", "use_bias": true, "kernel_initializer": {"class_name": "RandomUniform", "config": {"minval": -0.041666666666666664, "maxval": 0.041666666666666664, "seed": null}}, "bias_initializer": {"class_name": "RandomUniform", "config": {"minval": -0.041666666666666664, "maxval": 0.041666666666666664, "seed": null}}, "kernel_regularizer": null, "bias_regularizer": null, "activity_regularizer": null, "kernel_constraint": null, "bias_constraint": null}, "name": "conv2d_802", "inbound_nodes": [[["add_206", 0, 0, {}]]]}, {"class_name": "ReLU", "config": {"name": "re_lu_198", "trainable": true, "dtype": "float32", "max_value": null, "negative_slope": 0.0, "threshold": 0.0}, "name": "re_lu_198", "inbound_nodes": [[["conv2d_802", 0, 0, {}]]]}, {"class_name": "Conv2D", "config": {"name": "conv2d_803", "trainable": true, "dtype": "float32", "filters": 64, "kernel_size": [3, 3], "strides": [1, 1], "padding": "same", "data_format": "channels_last", "dilation_rate": [1, 1], "groups": 1, "activation": "linear", "use_bias": true, "kernel_initializer": {"class_name": "RandomUniform", "config": {"minval": -0.041666666666666664, "maxval": 0.041666666666666664, "seed": null}}, "bias_initializer": {"class_name": "RandomUniform", "config": {"minval": -0.041666666666666664, "maxval": 0.041666666666666664, "seed": null}}, "kernel_regularizer": null, "bias_regularizer": null, "activity_regularizer": null, "kernel_constraint": null, "bias_constraint": null}, "name": "conv2d_803", "inbound_nodes": [[["re_lu_198", 0, 0, {}]]]}, {"class_name": "TensorFlowOpLayer", "config": {"name": "Mean_198", "trainable": true, "dtype": "float32", "node_def": {"name": "Mean_198", "op": "Mean", "input": ["conv2d_803/BiasAdd", "Mean_198/reduction_indices"], "attr": {"keep_dims": {"b": true}, "Tidx": {"type": "DT_INT32"}, "T": {"type": "DT_FLOAT"}}}, "constants": {"1": [1, 2]}}, "name": "tf_op_layer_Mean_198", "inbound_nodes": [[["conv2d_803", 0, 0, {}]]]}, {"class_name": "Conv2D", "config": {"name": "conv2d_804", "trainable": true, "dtype": "float32", "filters": 4, "kernel_size": [1, 1], "strides": [1, 1], "padding": "same", "data_format": "channels_last", "dilation_rate": [1, 1], "groups": 1, "activation": "relu", "use_bias": true, "kernel_initializer": {"class_name": "RandomUniform", "config": {"minval": -0.125, "maxval": 0.125, "seed": null}}, "bias_initializer": {"class_name": "RandomUniform", "config": {"minval": -0.125, "maxval": 0.125, "seed": null}}, "kernel_regularizer": null, "bias_regularizer": null, "activity_regularizer": null, "kernel_constraint": null, "bias_constraint": null}, "name": "conv2d_804", "inbound_nodes": [[["tf_op_layer_Mean_198", 0, 0, {}]]]}, {"class_name": "Conv2D", "config": {"name": "conv2d_805", "trainable": true, "dtype": "float32", "filters": 64, "kernel_size": [1, 1], "strides": [1, 1], "padding": "same", "data_format": "channels_last", "dilation_rate": [1, 1], "groups": 1, "activation": "sigmoid", "use_bias": true, "kernel_initializer": {"class_name": "RandomUniform", "config": {"minval": -0.5, "maxval": 0.5, "seed": null}}, "bias_initializer": {"class_name": "RandomUniform", "config": {"minval": -0.5, "maxval": 0.5, "seed": null}}, "kernel_regularizer": null, "bias_regularizer": null, "activity_regularizer": null, "kernel_constraint": null, "bias_constraint": null}, "name": "conv2d_805", "inbound_nodes": [[["conv2d_804", 0, 0, {}]]]}, {"class_name": "Multiply", "config": {"name": "multiply_198", "trainable": true, "dtype": "float32"}, "name": "multiply_198", "inbound_nodes": [[["conv2d_805", 0, 0, {}], ["conv2d_803", 0, 0, {}]]]}, {"class_name": "Add", "config": {"name": "add_207", "trainable": true, "dtype": "float32"}, "name": "add_207", "inbound_nodes": [[["multiply_198", 0, 0, {}], ["add_206", 0, 0, {}]]]}, {"class_name": "Conv2D", "config": {"name": "conv2d_806", "trainable": true, "dtype": "float32", "filters": 64, "kernel_size": [3, 3], "strides": [1, 1], "padding": "same", "data_format": "channels_last", "dilation_rate": [1, 1], "groups": 1, "activation": "linear", "use_bias": true, "kernel_initializer": {"class_name": "RandomUniform", "config": {"minval": -0.041666666666666664, "maxval": 0.041666666666666664, "seed": null}}, "bias_initializer": {"class_name": "RandomUniform", "config": {"minval": -0.041666666666666664, "maxval": 0.041666666666666664, "seed": null}}, "kernel_regularizer": null, "bias_regularizer": null, "activity_regularizer": null, "kernel_constraint": null, "bias_constraint": null}, "name": "conv2d_806", "inbound_nodes": [[["add_207", 0, 0, {}]]]}, {"class_name": "ReLU", "config": {"name": "re_lu_199", "trainable": true, "dtype": "float32", "max_value": null, "negative_slope": 0.0, "threshold": 0.0}, "name": "re_lu_199", "inbound_nodes": [[["conv2d_806", 0, 0, {}]]]}, {"class_name": "Conv2D", "config": {"name": "conv2d_807", "trainable": true, "dtype": "float32", "filters": 64, "kernel_size": [3, 3], "strides": [1, 1], "padding": "same", "data_format": "channels_last", "dilation_rate": [1, 1], "groups": 1, "activation": "linear", "use_bias": true, "kernel_initializer": {"class_name": "RandomUniform", "config": {"minval": -0.041666666666666664, "maxval": 0.041666666666666664, "seed": null}}, "bias_initializer": {"class_name": "RandomUniform", "config": {"minval": -0.041666666666666664, "maxval": 0.041666666666666664, "seed": null}}, "kernel_regularizer": null, "bias_regularizer": null, "activity_regularizer": null, "kernel_constraint": null, "bias_constraint": null}, "name": "conv2d_807", "inbound_nodes": [[["re_lu_199", 0, 0, {}]]]}, {"class_name": "TensorFlowOpLayer", "config": {"name": "Mean_199", "trainable": true, "dtype": "float32", "node_def": {"name": "Mean_199", "op": "Mean", "input": ["conv2d_807/BiasAdd", "Mean_199/reduction_indices"], "attr": {"T": {"type": "DT_FLOAT"}, "Tidx": {"type": "DT_INT32"}, "keep_dims": {"b": true}}}, "constants": {"1": [1, 2]}}, "name": "tf_op_layer_Mean_199", "inbound_nodes": [[["conv2d_807", 0, 0, {}]]]}, {"class_name": "Conv2D", "config": {"name": "conv2d_808", "trainable": true, "dtype": "float32", "filters": 4, "kernel_size": [1, 1], "strides": [1, 1], "padding": "same", "data_format": "channels_last", "dilation_rate": [1, 1], "groups": 1, "activation": "relu", "use_bias": true, "kernel_initializer": {"class_name": "RandomUniform", "config": {"minval": -0.125, "maxval": 0.125, "seed": null}}, "bias_initializer": {"class_name": "RandomUniform", "config": {"minval": -0.125, "maxval": 0.125, "seed": null}}, "kernel_regularizer": null, "bias_regularizer": null, "activity_regularizer": null, "kernel_constraint": null, "bias_constraint": null}, "name": "conv2d_808", "inbound_nodes": [[["tf_op_layer_Mean_199", 0, 0, {}]]]}, {"class_name": "Conv2D", "config": {"name": "conv2d_809", "trainable": true, "dtype": "float32", "filters": 64, "kernel_size": [1, 1], "strides": [1, 1], "padding": "same", "data_format": "channels_last", "dilation_rate": [1, 1], "groups": 1, "activation": "sigmoid", "use_bias": true, "kernel_initializer": {"class_name": "RandomUniform", "config": {"minval": -0.5, "maxval": 0.5, "seed": null}}, "bias_initializer": {"class_name": "RandomUniform", "config": {"minval": -0.5, "maxval": 0.5, "seed": null}}, "kernel_regularizer": null, "bias_regularizer": null, "activity_regularizer": null, "kernel_constraint": null, "bias_constraint": null}, "name": "conv2d_809", "inbound_nodes": [[["conv2d_808", 0, 0, {}]]]}, {"class_name": "Multiply", "config": {"name": "multiply_199", "trainable": true, "dtype": "float32"}, "name": "multiply_199", "inbound_nodes": [[["conv2d_809", 0, 0, {}], ["conv2d_807", 0, 0, {}]]]}, {"class_name": "Add", "config": {"name": "add_208", "trainable": true, "dtype": "float32"}, "name": "add_208", "inbound_nodes": [[["multiply_199", 0, 0, {}], ["add_207", 0, 0, {}]]]}, {"class_name": "Conv2D", "config": {"name": "conv2d_810", "trainable": true, "dtype": "float32", "filters": 64, "kernel_size": [3, 3], "strides": [1, 1], "padding": "same", "data_format": "channels_last", "dilation_rate": [1, 1], "groups": 1, "activation": "linear", "use_bias": true, "kernel_initializer": {"class_name": "RandomUniform", "config": {"minval": -0.041666666666666664, "maxval": 0.041666666666666664, "seed": null}}, "bias_initializer": {"class_name": "RandomUniform", "config": {"minval": -0.041666666666666664, "maxval": 0.041666666666666664, "seed": null}}, "kernel_regularizer": null, "bias_regularizer": null, "activity_regularizer": null, "kernel_constraint": null, "bias_constraint": null}, "name": "conv2d_810", "inbound_nodes": [[["add_208", 0, 0, {}]]]}, {"class_name": "Add", "config": {"name": "add_209", "trainable": true, "dtype": "float32"}, "name": "add_209", "inbound_nodes": [[["conv2d_810", 0, 0, {}], ["add_188", 0, 0, {}]]]}, {"class_name": "Conv2D", "config": {"name": "conv2d_811", "trainable": true, "dtype": "float32", "filters": 64, "kernel_size": [3, 3], "strides": [1, 1], "padding": "same", "data_format": "channels_last", "dilation_rate": [1, 1], "groups": 1, "activation": "linear", "use_bias": true, "kernel_initializer": {"class_name": "RandomUniform", "config": {"minval": -0.041666666666666664, "maxval": 0.041666666666666664, "seed": null}}, "bias_initializer": {"class_name": "RandomUniform", "config": {"minval": -0.041666666666666664, "maxval": 0.041666666666666664, "seed": null}}, "kernel_regularizer": null, "bias_regularizer": null, "activity_regularizer": null, "kernel_constraint": null, "bias_constraint": null}, "name": "conv2d_811", "inbound_nodes": [[["add_209", 0, 0, {}]]]}, {"class_name": "Add", "config": {"name": "add_210", "trainable": true, "dtype": "float32"}, "name": "add_210", "inbound_nodes": [[["conv2d_811", 0, 0, {}], ["conv2d", 0, 0, {}]]]}, {"class_name": "Conv2D", "config": {"name": "conv2d_812", "trainable": true, "dtype": "float32", "filters": 576, "kernel_size": [3, 3], "strides": [1, 1], "padding": "same", "data_format": "channels_last", "dilation_rate": [1, 1], "groups": 1, "activation": "linear", "use_bias": true, "kernel_initializer": {"class_name": "RandomUniform", "config": {"minval": -0.041666666666666664, "maxval": 0.041666666666666664, "seed": null}}, "bias_initializer": {"class_name": "RandomUniform", "config": {"minval": -0.041666666666666664, "maxval": 0.041666666666666664, "seed": null}}, "kernel_regularizer": null, "bias_regularizer": null, "activity_regularizer": null, "kernel_constraint": null, "bias_constraint": null}, "name": "conv2d_812", "inbound_nodes": [[["add_210", 0, 0, {}]]]}, {"class_name": "TensorFlowOpLayer", "config": {"name": "DepthToSpace", "trainable": true, "dtype": "float32", "node_def": {"name": "DepthToSpace", "op": "DepthToSpace", "input": ["conv2d_812/BiasAdd"], "attr": {"block_size": {"i": "3"}, "data_format": {"s": "TkhXQw=="}, "T": {"type": "DT_FLOAT"}}}, "constants": {}}, "name": "tf_op_layer_DepthToSpace", "inbound_nodes": [[["conv2d_812", 0, 0, {}]]]}, {"class_name": "Conv2D", "config": {"name": "conv2d_813", "trainable": true, "dtype": "float32", "filters": 3, "kernel_size": [3, 3], "strides": [1, 1], "padding": "same", "data_format": "channels_last", "dilation_rate": [1, 1], "groups": 1, "activation": "linear", "use_bias": true, "kernel_initializer": {"class_name": "RandomUniform", "config": {"minval": -0.041666666666666664, "maxval": 0.041666666666666664, "seed": null}}, "bias_initializer": {"class_name": "RandomUniform", "config": {"minval": -0.041666666666666664, "maxval": 0.041666666666666664, "seed": null}}, "kernel_regularizer": null, "bias_regularizer": null, "activity_regularizer": null, "kernel_constraint": null, "bias_constraint": null}, "name": "conv2d_813", "inbound_nodes": [[["tf_op_layer_DepthToSpace", 0, 0, {}]]]}, {"class_name": "TensorFlowOpLayer", "config": {"name": "Conv2D_1", "trainable": true, "dtype": "float32", "node_def": {"name": "Conv2D_1", "op": "Conv2D", "input": ["conv2d_813/BiasAdd", "Conv2D_1/filter"], "attr": {"T": {"type": "DT_FLOAT"}, "use_cudnn_on_gpu": {"b": true}, "strides": {"list": {"i": ["1", "1", "1", "1"]}}, "dilations": {"list": {"i": ["1", "1", "1", "1"]}}, "data_format": {"s": "TkhXQw=="}, "padding": {"s": "U0FNRQ=="}, "explicit_paddings": {"list": {}}}}, "constants": {"1": [[[[1.0, 0.0, 0.0], [0.0, 1.0, 0.0], [0.0, 0.0, 1.0]]]]}}, "name": "tf_op_layer_Conv2D_1", "inbound_nodes": [[["conv2d_813", 0, 0, {}]]]}, {"class_name": "TensorFlowOpLayer", "config": {"name": "AddV2_1", "trainable": true, "dtype": "float32", "node_def": {"name": "AddV2_1", "op": "AddV2", "input": ["Conv2D_1", "AddV2_1/y"], "attr": {"T": {"type": "DT_FLOAT"}}}, "constants": {"1": [114.44400024414062, 111.46050262451172, 103.0199966430664]}}, "name": "tf_op_layer_AddV2_1", "inbound_nodes": [[["tf_op_layer_Conv2D_1", 0, 0, {}]]]}], "input_layers": [["input_1", 0, 0]], "output_layers": [["tf_op_layer_AddV2_1", 0, 0]]}, "keras_version": "2.4.0", "backend": "tensorflow"}