{"class_name": "Functional", "config": {"name": "functional_1", "layers": [{"class_name": "InputLayer", "config": {"batch_input_shape": [null, null, null, 3], "dtype": "float32", "sparse": false, "ragged": false, "name": "input_1"}, "name": "input_1", "inbound_nodes": []}, {"class_name": "TensorFlowOpLayer", "config": {"name": "Conv2D", "trainable": true, "dtype": "float32", "node_def": {"name": "Conv2D", "op": "Conv2D", "input": ["input_1", "Conv2D/filter"], "attr": {"explicit_paddings": {"list": {}}, "padding": {"s": "U0FNRQ=="}, "use_cudnn_on_gpu": {"b": true}, "strides": {"list": {"i": ["1", "1", "1", "1"]}}, "data_format": {"s": "TkhXQw=="}, "dilations": {"list": {"i": ["1", "1", "1", "1"]}}, "T": {"type": "DT_FLOAT"}}}, "constants": {"1": [[[[1.0, 0.0, 0.0], [0.0, 1.0, 0.0], [0.0, 0.0, 1.0]]]]}}, "name": "tf_op_layer_Conv2D", "inbound_nodes": [[["input_1", 0, 0, {}]]]}, {"class_name": "TensorFlowOpLayer", "config": {"name": "AddV2", "trainable": true, "dtype": "float32", "node_def": {"name": "AddV2", "op": "AddV2", "input": ["Conv2D", "AddV2/y"], "attr": {"T": {"type": "DT_FLOAT"}}}, "constants": {"1": [-114.44400024414062, -111.46050262451172, -103.0199966430664]}}, "name": "tf_op_layer_AddV2", "inbound_nodes": [[["tf_op_layer_Conv2D", 0, 0, {}]]]}, {"class_name": "Conv2D", "config": {"name": "conv2d", "trainable": true, "dtype": "float32", "filters": 64, "kernel_size": [3, 3], "strides": [1, 1], "padding": "same", "data_format": "channels_last", "dilation_rate": [1, 1], "groups": 1, "activation": "linear", "use_bias": true, "kernel_initializer": {"class_name": "RandomUniform", "config": {"minval": -0.19245008972987526, "maxval": 0.19245008972987526, "seed": null}}, "bias_initializer": {"class_name": "RandomUniform", "config": {"minval": -0.19245008972987526, "maxval": 0.19245008972987526, "seed": null}}, "kernel_regularizer": null, "bias_regularizer": null, "activity_regularizer": null, "kernel_constraint": null, "bias_constraint": null}, "name": "conv2d", "inbound_nodes": [[["tf_op_layer_AddV2", 0, 0, {}]]]}, {"class_name": "Conv2D", "config": {"name": "conv2d_1", "trainable": true, "dtype": "float32", "filters": 21, "kernel_size": [3, 3], "strides": [1, 1], "padding": "same", "data_format": "channels_last", "dilation_rate": [1, 1], "groups": 1, "activation": "linear", "use_bias": true, "kernel_initializer": {"class_name": "RandomUniform", "config": {"minval": -0.041666666666666664, "maxval": 0.041666666666666664, "seed": null}}, "bias_initializer": {"class_name": "RandomUniform", "config": {"minval": -0.041666666666666664, "maxval": 0.041666666666666664, "seed": null}}, "kernel_regularizer": null, "bias_regularizer": null, "activity_regularizer": null, "kernel_constraint": null, "bias_constraint": null}, "name": "conv2d_1", "inbound_nodes": [[["conv2d", 0, 0, {}]]]}, {"class_name": "Conv2D", "config": {"name": "conv2d_2", "trainable": true, "dtype": "float32", "filters": 21, "kernel_size": [5, 5], "strides": [1, 1], "padding": "same", "data_format": "channels_last", "dilation_rate": [1, 1], "groups": 1, "activation": "linear", "use_bias": true, "kernel_initializer": {"class_name": "RandomUniform", "config": {"minval": -0.025, "maxval": 0.025, "seed": null}}, "bias_initializer": {"class_name": "RandomUniform", "config": {"minval": -0.025, "maxval": 0.025, "seed": null}}, "kernel_regularizer": null, "bias_regularizer": null, "activity_regularizer": null, "kernel_constraint": null, "bias_constraint": null}, "name": "conv2d_2", "inbound_nodes": [[["conv2d", 0, 0, {}]]]}, {"class_name": "Conv2D", "config": {"name": "conv2d_3", "trainable": true, "dtype": "float32", "filters": 21, "kernel_size": [7, 7], "strides": [1, 1], "padding": "same", "data_format": "channels_last", "dilation_rate": [1, 1], "groups": 1, "activation": "linear", "use_bias": true, "kernel_initializer": {"class_name": "RandomUniform", "config": {"minval": -0.017857142857142856, "maxval": 0.017857142857142856, "seed": null}}, "bias_initializer": {"class_name": "RandomUniform", "config": {"minval": -0.017857142857142856, "maxval": 0.017857142857142856, "seed": null}}, "kernel_regularizer": null, "bias_regularizer": null, "activity_regularizer": null, "kernel_constraint": null, "bias_constraint": null}, "name": "conv2d_3", "inbound_nodes": [[["conv2d", 0, 0, {}]]]}, {"class_name": "Concatenate", "config": {"name": "concatenate", "trainable": true, "dtype": "float32", "axis": -1}, "name": "concatenate", "inbound_nodes": [[["conv2d_1", 0, 0, {}], ["conv2d_2", 0, 0, {}], ["conv2d_3", 0, 0, {}]]]}, {"class_name": "Conv2D", "config": {"name": "conv2d_4", "trainable": true, "dtype": "float32", "filters": 64, "kernel_size": [3, 3], "strides": [1, 1], "padding": "same", "data_format": "channels_last", "dilation_rate": [1, 1], "groups": 1, "activation": "linear", "use_bias": true, "kernel_initializer": {"class_name": "RandomUniform", "config": {"minval": -0.0419960525565808, "maxval": 0.0419960525565808, "seed": null}}, "bias_initializer": {"class_name": "RandomUniform", "config": {"minval": -0.0419960525565808, "maxval": 0.0419960525565808, "seed": null}}, "kernel_regularizer": null, "bias_regularizer": null, "activity_regularizer": null, "kernel_constraint": null, "bias_constraint": null}, "name": "conv2d_4", "inbound_nodes": [[["concatenate", 0, 0, {}]]]}, {"class_name": "ReLU", "config": {"name": "re_lu", "trainable": true, "dtype": "float32", "max_value": null, "negative_slope": 0.0, "threshold": 0.0}, "name": "re_lu", "inbound_nodes": [[["conv2d_4", 0, 0, {}]]]}, {"class_name": "Conv2D", "config": {"name": "conv2d_5", "trainable": true, "dtype": "float32", "filters": 21, "kernel_size": [3, 3], "strides": [1, 1], "padding": "same", "data_format": "channels_last", "dilation_rate": [1, 1], "groups": 1, "activation": "linear", "use_bias": true, "kernel_initializer": {"class_name": "RandomUniform", "config": {"minval": -0.041666666666666664, "maxval": 0.041666666666666664, "seed": null}}, "bias_initializer": {"class_name": "RandomUniform", "config": {"minval": -0.041666666666666664, "maxval": 0.041666666666666664, "seed": null}}, "kernel_regularizer": null, "bias_regularizer": null, "activity_regularizer": null, "kernel_constraint": null, "bias_constraint": null}, "name": "conv2d_5", "inbound_nodes": [[["re_lu", 0, 0, {}]]]}, {"class_name": "Conv2D", "config": {"name": "conv2d_6", "trainable": true, "dtype": "float32", "filters": 21, "kernel_size": [5, 5], "strides": [1, 1], "padding": "same", "data_format": "channels_last", "dilation_rate": [1, 1], "groups": 1, "activation": "linear", "use_bias": true, "kernel_initializer": {"class_name": "RandomUniform", "config": {"minval": -0.025, "maxval": 0.025, "seed": null}}, "bias_initializer": {"class_name": "RandomUniform", "config": {"minval": -0.025, "maxval": 0.025, "seed": null}}, "kernel_regularizer": null, "bias_regularizer": null, "activity_regularizer": null, "kernel_constraint": null, "bias_constraint": null}, "name": "conv2d_6", "inbound_nodes": [[["re_lu", 0, 0, {}]]]}, {"class_name": "Conv2D", "config": {"name": "conv2d_7", "trainable": true, "dtype": "float32", "filters": 21, "kernel_size": [7, 7], "strides": [1, 1], "padding": "same", "data_format": "channels_last", "dilation_rate": [1, 1], "groups": 1, "activation": "linear", "use_bias": true, "kernel_initializer": {"class_name": "RandomUniform", "config": {"minval": -0.017857142857142856, "maxval": 0.017857142857142856, "seed": null}}, "bias_initializer": {"class_name": "RandomUniform", "config": {"minval": -0.017857142857142856, "maxval": 0.017857142857142856, "seed": null}}, "kernel_regularizer": null, "bias_regularizer": null, "activity_regularizer": null, "kernel_constraint": null, "bias_constraint": null}, "name": "conv2d_7", "inbound_nodes": [[["re_lu", 0, 0, {}]]]}, {"class_name": "Concatenate", "config": {"name": "concatenate_1", "trainable": true, "dtype": "float32", "axis": -1}, "name": "concatenate_1", "inbound_nodes": [[["conv2d_5", 0, 0, {}], ["conv2d_6", 0, 0, {}], ["conv2d_7", 0, 0, {}]]]}, {"class_name": "Conv2D", "config": {"name": "conv2d_8", "trainable": true, "dtype": "float32", "filters": 64, "kernel_size": [3, 3], "strides": [1, 1], "padding": "same", "data_format": "channels_last", "dilation_rate": [1, 1], "groups": 1, "activation": "linear", "use_bias": true, "kernel_initializer": {"class_name": "RandomUniform", "config": {"minval": -0.0419960525565808, "maxval": 0.0419960525565808, "seed": null}}, "bias_initializer": {"class_name": "RandomUniform", "config": {"minval": -0.0419960525565808, "maxval": 0.0419960525565808, "seed": null}}, "kernel_regularizer": null, "bias_regularizer": null, "activity_regularizer": null, "kernel_constraint": null, "bias_constraint": null}, "name": "conv2d_8", "inbound_nodes": [[["concatenate_1", 0, 0, {}]]]}, {"class_name": "TensorFlowOpLayer", "config": {"name": "Mean", "trainable": true, "dtype": "float32", "node_def": {"name": "Mean", "op": "Mean", "input": ["conv2d_8/BiasAdd", "Mean/reduction_indices"], "attr": {"keep_dims": {"b": true}, "T": {"type": "DT_FLOAT"}, "Tidx": {"type": "DT_INT32"}}}, "constants": {"1": [1, 2]}}, "name": "tf_op_layer_Mean", "inbound_nodes": [[["conv2d_8", 0, 0, {}]]]}, {"class_name": "Conv2D", "config": {"name": "conv2d_9", "trainable": true, "dtype": "float32", "filters": 4, "kernel_size": [1, 1], "strides": [1, 1], "padding": "same", "data_format": "channels_last", "dilation_rate": [1, 1], "groups": 1, "activation": "relu", "use_bias": true, "kernel_initializer": {"class_name": "RandomUniform", "config": {"minval": -0.125, "maxval": 0.125, "seed": null}}, "bias_initializer": {"class_name": "RandomUniform", "config": {"minval": -0.125, "maxval": 0.125, "seed": null}}, "kernel_regularizer": null, "bias_regularizer": null, "activity_regularizer": null, "kernel_constraint": null, "bias_constraint": null}, "name": "conv2d_9", "inbound_nodes": [[["tf_op_layer_Mean", 0, 0, {}]]]}, {"class_name": "Conv2D", "config": {"name": "conv2d_10", "trainable": true, "dtype": "float32", "filters": 64, "kernel_size": [1, 1], "strides": [1, 1], "padding": "same", "data_format": "channels_last", "dilation_rate": [1, 1], "groups": 1, "activation": "sigmoid", "use_bias": true, "kernel_initializer": {"class_name": "RandomUniform", "config": {"minval": -0.5, "maxval": 0.5, "seed": null}}, "bias_initializer": {"class_name": "RandomUniform", "config": {"minval": -0.5, "maxval": 0.5, "seed": null}}, "kernel_regularizer": null, "bias_regularizer": null, "activity_regularizer": null, "kernel_constraint": null, "bias_constraint": null}, "name": "conv2d_10", "inbound_nodes": [[["conv2d_9", 0, 0, {}]]]}, {"class_name": "Multiply", "config": {"name": "multiply", "trainable": true, "dtype": "float32"}, "name": "multiply", "inbound_nodes": [[["conv2d_10", 0, 0, {}], ["conv2d_8", 0, 0, {}]]]}, {"class_name": "Add", "config": {"name": "add", "trainable": true, "dtype": "float32"}, "name": "add", "inbound_nodes": [[["multiply", 0, 0, {}], ["conv2d", 0, 0, {}]]]}, {"class_name": "Conv2D", "config": {"name": "conv2d_11", "trainable": true, "dtype": "float32", "filters": 21, "kernel_size": [3, 3], "strides": [1, 1], "padding": "same", "data_format": "channels_last", "dilation_rate": [1, 1], "groups": 1, "activation": "linear", "use_bias": true, "kernel_initializer": {"class_name": "RandomUniform", "config": {"minval": -0.041666666666666664, "maxval": 0.041666666666666664, "seed": null}}, "bias_initializer": {"class_name": "RandomUniform", "config": {"minval": -0.041666666666666664, "maxval": 0.041666666666666664, "seed": null}}, "kernel_regularizer": null, "bias_regularizer": null, "activity_regularizer": null, "kernel_constraint": null, "bias_constraint": null}, "name": "conv2d_11", "inbound_nodes": [[["add", 0, 0, {}]]]}, {"class_name": "Conv2D", "config": {"name": "conv2d_12", "trainable": true, "dtype": "float32", "filters": 21, "kernel_size": [5, 5], "strides": [1, 1], "padding": "same", "data_format": "channels_last", "dilation_rate": [1, 1], "groups": 1, "activation": "linear", "use_bias": true, "kernel_initializer": {"class_name": "RandomUniform", "config": {"minval": -0.025, "maxval": 0.025, "seed": null}}, "bias_initializer": {"class_name": "RandomUniform", "config": {"minval": -0.025, "maxval": 0.025, "seed": null}}, "kernel_regularizer": null, "bias_regularizer": null, "activity_regularizer": null, "kernel_constraint": null, "bias_constraint": null}, "name": "conv2d_12", "inbound_nodes": [[["add", 0, 0, {}]]]}, {"class_name": "Conv2D", "config": {"name": "conv2d_13", "trainable": true, "dtype": "float32", "filters": 21, "kernel_size": [7, 7], "strides": [1, 1], "padding": "same", "data_format": "channels_last", "dilation_rate": [1, 1], "groups": 1, "activation": "linear", "use_bias": true, "kernel_initializer": {"class_name": "RandomUniform", "config": {"minval": -0.017857142857142856, "maxval": 0.017857142857142856, "seed": null}}, "bias_initializer": {"class_name": "RandomUniform", "config": {"minval": -0.017857142857142856, "maxval": 0.017857142857142856, "seed": null}}, "kernel_regularizer": null, "bias_regularizer": null, "activity_regularizer": null, "kernel_constraint": null, "bias_constraint": null}, "name": "conv2d_13", "inbound_nodes": [[["add", 0, 0, {}]]]}, {"class_name": "Concatenate", "config": {"name": "concatenate_2", "trainable": true, "dtype": "float32", "axis": -1}, "name": "concatenate_2", "inbound_nodes": [[["conv2d_11", 0, 0, {}], ["conv2d_12", 0, 0, {}], ["conv2d_13", 0, 0, {}]]]}, {"class_name": "Conv2D", "config": {"name": "conv2d_14", "trainable": true, "dtype": "float32", "filters": 64, "kernel_size": [3, 3], "strides": [1, 1], "padding": "same", "data_format": "channels_last", "dilation_rate": [1, 1], "groups": 1, "activation": "linear", "use_bias": true, "kernel_initializer": {"class_name": "RandomUniform", "config": {"minval": -0.0419960525565808, "maxval": 0.0419960525565808, "seed": null}}, "bias_initializer": {"class_name": "RandomUniform", "config": {"minval": -0.0419960525565808, "maxval": 0.0419960525565808, "seed": null}}, "kernel_regularizer": null, "bias_regularizer": null, "activity_regularizer": null, "kernel_constraint": null, "bias_constraint": null}, "name": "conv2d_14", "inbound_nodes": [[["concatenate_2", 0, 0, {}]]]}, {"class_name": "ReLU", "config": {"name": "re_lu_1", "trainable": true, "dtype": "float32", "max_value": null, "negative_slope": 0.0, "threshold": 0.0}, "name": "re_lu_1", "inbound_nodes": [[["conv2d_14", 0, 0, {}]]]}, {"class_name": "Conv2D", "config": {"name": "conv2d_15", "trainable": true, "dtype": "float32", "filters": 21, "kernel_size": [3, 3], "strides": [1, 1], "padding": "same", "data_format": "channels_last", "dilation_rate": [1, 1], "groups": 1, "activation": "linear", "use_bias": true, "kernel_initializer": {"class_name": "RandomUniform", "config": {"minval": -0.041666666666666664, "maxval": 0.041666666666666664, "seed": null}}, "bias_initializer": {"class_name": "RandomUniform", "config": {"minval": -0.041666666666666664, "maxval": 0.041666666666666664, "seed": null}}, "kernel_regularizer": null, "bias_regularizer": null, "activity_regularizer": null, "kernel_constraint": null, "bias_constraint": null}, "name": "conv2d_15", "inbound_nodes": [[["re_lu_1", 0, 0, {}]]]}, {"class_name": "Conv2D", "config": {"name": "conv2d_16", "trainable": true, "dtype": "float32", "filters": 21, "kernel_size": [5, 5], "strides": [1, 1], "padding": "same", "data_format": "channels_last", "dilation_rate": [1, 1], "groups": 1, "activation": "linear", "use_bias": true, "kernel_initializer": {"class_name": "RandomUniform", "config": {"minval": -0.025, "maxval": 0.025, "seed": null}}, "bias_initializer": {"class_name": "RandomUniform", "config": {"minval": -0.025, "maxval": 0.025, "seed": null}}, "kernel_regularizer": null, "bias_regularizer": null, "activity_regularizer": null, "kernel_constraint": null, "bias_constraint": null}, "name": "conv2d_16", "inbound_nodes": [[["re_lu_1", 0, 0, {}]]]}, {"class_name": "Conv2D", "config": {"name": "conv2d_17", "trainable": true, "dtype": "float32", "filters": 21, "kernel_size": [7, 7], "strides": [1, 1], "padding": "same", "data_format": "channels_last", "dilation_rate": [1, 1], "groups": 1, "activation": "linear", "use_bias": true, "kernel_initializer": {"class_name": "RandomUniform", "config": {"minval": -0.017857142857142856, "maxval": 0.017857142857142856, "seed": null}}, "bias_initializer": {"class_name": "RandomUniform", "config": {"minval": -0.017857142857142856, "maxval": 0.017857142857142856, "seed": null}}, "kernel_regularizer": null, "bias_regularizer": null, "activity_regularizer": null, "kernel_constraint": null, "bias_constraint": null}, "name": "conv2d_17", "inbound_nodes": [[["re_lu_1", 0, 0, {}]]]}, {"class_name": "Concatenate", "config": {"name": "concatenate_3", "trainable": true, "dtype": "float32", "axis": -1}, "name": "concatenate_3", "inbound_nodes": [[["conv2d_15", 0, 0, {}], ["conv2d_16", 0, 0, {}], ["conv2d_17", 0, 0, {}]]]}, {"class_name": "Conv2D", "config": {"name": "conv2d_18", "trainable": true, "dtype": "float32", "filters": 64, "kernel_size": [3, 3], "strides": [1, 1], "padding": "same", "data_format": "channels_last", "dilation_rate": [1, 1], "groups": 1, "activation": "linear", "use_bias": true, "kernel_initializer": {"class_name": "RandomUniform", "config": {"minval": -0.0419960525565808, "maxval": 0.0419960525565808, "seed": null}}, "bias_initializer": {"class_name": "RandomUniform", "config": {"minval": -0.0419960525565808, "maxval": 0.0419960525565808, "seed": null}}, "kernel_regularizer": null, "bias_regularizer": null, "activity_regularizer": null, "kernel_constraint": null, "bias_constraint": null}, "name": "conv2d_18", "inbound_nodes": [[["concatenate_3", 0, 0, {}]]]}, {"class_name": "TensorFlowOpLayer", "config": {"name": "Mean_1", "trainable": true, "dtype": "float32", "node_def": {"name": "Mean_1", "op": "Mean", "input": ["conv2d_18/BiasAdd", "Mean_1/reduction_indices"], "attr": {"T": {"type": "DT_FLOAT"}, "Tidx": {"type": "DT_INT32"}, "keep_dims": {"b": true}}}, "constants": {"1": [1, 2]}}, "name": "tf_op_layer_Mean_1", "inbound_nodes": [[["conv2d_18", 0, 0, {}]]]}, {"class_name": "Conv2D", "config": {"name": "conv2d_19", "trainable": true, "dtype": "float32", "filters": 4, "kernel_size": [1, 1], "strides": [1, 1], "padding": "same", "data_format": "channels_last", "dilation_rate": [1, 1], "groups": 1, "activation": "relu", "use_bias": true, "kernel_initializer": {"class_name": "RandomUniform", "config": {"minval": -0.125, "maxval": 0.125, "seed": null}}, "bias_initializer": {"class_name": "RandomUniform", "config": {"minval": -0.125, "maxval": 0.125, "seed": null}}, "kernel_regularizer": null, "bias_regularizer": null, "activity_regularizer": null, "kernel_constraint": null, "bias_constraint": null}, "name": "conv2d_19", "inbound_nodes": [[["tf_op_layer_Mean_1", 0, 0, {}]]]}, {"class_name": "Conv2D", "config": {"name": "conv2d_20", "trainable": true, "dtype": "float32", "filters": 64, "kernel_size": [1, 1], "strides": [1, 1], "padding": "same", "data_format": "channels_last", "dilation_rate": [1, 1], "groups": 1, "activation": "sigmoid", "use_bias": true, "kernel_initializer": {"class_name": "RandomUniform", "config": {"minval": -0.5, "maxval": 0.5, "seed": null}}, "bias_initializer": {"class_name": "RandomUniform", "config": {"minval": -0.5, "maxval": 0.5, "seed": null}}, "kernel_regularizer": null, "bias_regularizer": null, "activity_regularizer": null, "kernel_constraint": null, "bias_constraint": null}, "name": "conv2d_20", "inbound_nodes": [[["conv2d_19", 0, 0, {}]]]}, {"class_name": "Multiply", "config": {"name": "multiply_1", "trainable": true, "dtype": "float32"}, "name": "multiply_1", "inbound_nodes": [[["conv2d_20", 0, 0, {}], ["conv2d_18", 0, 0, {}]]]}, {"class_name": "Add", "config": {"name": "add_1", "trainable": true, "dtype": "float32"}, "name": "add_1", "inbound_nodes": [[["multiply_1", 0, 0, {}], ["add", 0, 0, {}]]]}, {"class_name": "Conv2D", "config": {"name": "conv2d_21", "trainable": true, "dtype": "float32", "filters": 21, "kernel_size": [3, 3], "strides": [1, 1], "padding": "same", "data_format": "channels_last", "dilation_rate": [1, 1], "groups": 1, "activation": "linear", "use_bias": true, "kernel_initializer": {"class_name": "RandomUniform", "config": {"minval": -0.041666666666666664, "maxval": 0.041666666666666664, "seed": null}}, "bias_initializer": {"class_name": "RandomUniform", "config": {"minval": -0.041666666666666664, "maxval": 0.041666666666666664, "seed": null}}, "kernel_regularizer": null, "bias_regularizer": null, "activity_regularizer": null, "kernel_constraint": null, "bias_constraint": null}, "name": "conv2d_21", "inbound_nodes": [[["add_1", 0, 0, {}]]]}, {"class_name": "Conv2D", "config": {"name": "conv2d_22", "trainable": true, "dtype": "float32", "filters": 21, "kernel_size": [5, 5], "strides": [1, 1], "padding": "same", "data_format": "channels_last", "dilation_rate": [1, 1], "groups": 1, "activation": "linear", "use_bias": true, "kernel_initializer": {"class_name": "RandomUniform", "config": {"minval": -0.025, "maxval": 0.025, "seed": null}}, "bias_initializer": {"class_name": "RandomUniform", "config": {"minval": -0.025, "maxval": 0.025, "seed": null}}, "kernel_regularizer": null, "bias_regularizer": null, "activity_regularizer": null, "kernel_constraint": null, "bias_constraint": null}, "name": "conv2d_22", "inbound_nodes": [[["add_1", 0, 0, {}]]]}, {"class_name": "Conv2D", "config": {"name": "conv2d_23", "trainable": true, "dtype": "float32", "filters": 21, "kernel_size": [7, 7], "strides": [1, 1], "padding": "same", "data_format": "channels_last", "dilation_rate": [1, 1], "groups": 1, "activation": "linear", "use_bias": true, "kernel_initializer": {"class_name": "RandomUniform", "config": {"minval": -0.017857142857142856, "maxval": 0.017857142857142856, "seed": null}}, "bias_initializer": {"class_name": "RandomUniform", "config": {"minval": -0.017857142857142856, "maxval": 0.017857142857142856, "seed": null}}, "kernel_regularizer": null, "bias_regularizer": null, "activity_regularizer": null, "kernel_constraint": null, "bias_constraint": null}, "name": "conv2d_23", "inbound_nodes": [[["add_1", 0, 0, {}]]]}, {"class_name": "Concatenate", "config": {"name": "concatenate_4", "trainable": true, "dtype": "float32", "axis": -1}, "name": "concatenate_4", "inbound_nodes": [[["conv2d_21", 0, 0, {}], ["conv2d_22", 0, 0, {}], ["conv2d_23", 0, 0, {}]]]}, {"class_name": "Conv2D", "config": {"name": "conv2d_24", "trainable": true, "dtype": "float32", "filters": 64, "kernel_size": [3, 3], "strides": [1, 1], "padding": "same", "data_format": "channels_last", "dilation_rate": [1, 1], "groups": 1, "activation": "linear", "use_bias": true, "kernel_initializer": {"class_name": "RandomUniform", "config": {"minval": -0.0419960525565808, "maxval": 0.0419960525565808, "seed": null}}, "bias_initializer": {"class_name": "RandomUniform", "config": {"minval": -0.0419960525565808, "maxval": 0.0419960525565808, "seed": null}}, "kernel_regularizer": null, "bias_regularizer": null, "activity_regularizer": null, "kernel_constraint": null, "bias_constraint": null}, "name": "conv2d_24", "inbound_nodes": [[["concatenate_4", 0, 0, {}]]]}, {"class_name": "ReLU", "config": {"name": "re_lu_2", "trainable": true, "dtype": "float32", "max_value": null, "negative_slope": 0.0, "threshold": 0.0}, "name": "re_lu_2", "inbound_nodes": [[["conv2d_24", 0, 0, {}]]]}, {"class_name": "Conv2D", "config": {"name": "conv2d_25", "trainable": true, "dtype": "float32", "filters": 21, "kernel_size": [3, 3], "strides": [1, 1], "padding": "same", "data_format": "channels_last", "dilation_rate": [1, 1], "groups": 1, "activation": "linear", "use_bias": true, "kernel_initializer": {"class_name": "RandomUniform", "config": {"minval": -0.041666666666666664, "maxval": 0.041666666666666664, "seed": null}}, "bias_initializer": {"class_name": "RandomUniform", "config": {"minval": -0.041666666666666664, "maxval": 0.041666666666666664, "seed": null}}, "kernel_regularizer": null, "bias_regularizer": null, "activity_regularizer": null, "kernel_constraint": null, "bias_constraint": null}, "name": "conv2d_25", "inbound_nodes": [[["re_lu_2", 0, 0, {}]]]}, {"class_name": "Conv2D", "config": {"name": "conv2d_26", "trainable": true, "dtype": "float32", "filters": 21, "kernel_size": [5, 5], "strides": [1, 1], "padding": "same", "data_format": "channels_last", "dilation_rate": [1, 1], "groups": 1, "activation": "linear", "use_bias": true, "kernel_initializer": {"class_name": "RandomUniform", "config": {"minval": -0.025, "maxval": 0.025, "seed": null}}, "bias_initializer": {"class_name": "RandomUniform", "config": {"minval": -0.025, "maxval": 0.025, "seed": null}}, "kernel_regularizer": null, "bias_regularizer": null, "activity_regularizer": null, "kernel_constraint": null, "bias_constraint": null}, "name": "conv2d_26", "inbound_nodes": [[["re_lu_2", 0, 0, {}]]]}, {"class_name": "Conv2D", "config": {"name": "conv2d_27", "trainable": true, "dtype": "float32", "filters": 21, "kernel_size": [7, 7], "strides": [1, 1], "padding": "same", "data_format": "channels_last", "dilation_rate": [1, 1], "groups": 1, "activation": "linear", "use_bias": true, "kernel_initializer": {"class_name": "RandomUniform", "config": {"minval": -0.017857142857142856, "maxval": 0.017857142857142856, "seed": null}}, "bias_initializer": {"class_name": "RandomUniform", "config": {"minval": -0.017857142857142856, "maxval": 0.017857142857142856, "seed": null}}, "kernel_regularizer": null, "bias_regularizer": null, "activity_regularizer": null, "kernel_constraint": null, "bias_constraint": null}, "name": "conv2d_27", "inbound_nodes": [[["re_lu_2", 0, 0, {}]]]}, {"class_name": "Concatenate", "config": {"name": "concatenate_5", "trainable": true, "dtype": "float32", "axis": -1}, "name": "concatenate_5", "inbound_nodes": [[["conv2d_25", 0, 0, {}], ["conv2d_26", 0, 0, {}], ["conv2d_27", 0, 0, {}]]]}, {"class_name": "Conv2D", "config": {"name": "conv2d_28", "trainable": true, "dtype": "float32", "filters": 64, "kernel_size": [3, 3], "strides": [1, 1], "padding": "same", "data_format": "channels_last", "dilation_rate": [1, 1], "groups": 1, "activation": "linear", "use_bias": true, "kernel_initializer": {"class_name": "RandomUniform", "config": {"minval": -0.0419960525565808, "maxval": 0.0419960525565808, "seed": null}}, "bias_initializer": {"class_name": "RandomUniform", "config": {"minval": -0.0419960525565808, "maxval": 0.0419960525565808, "seed": null}}, "kernel_regularizer": null, "bias_regularizer": null, "activity_regularizer": null, "kernel_constraint": null, "bias_constraint": null}, "name": "conv2d_28", "inbound_nodes": [[["concatenate_5", 0, 0, {}]]]}, {"class_name": "TensorFlowOpLayer", "config": {"name": "Mean_2", "trainable": true, "dtype": "float32", "node_def": {"name": "Mean_2", "op": "Mean", "input": ["conv2d_28/BiasAdd", "Mean_2/reduction_indices"], "attr": {"Tidx": {"type": "DT_INT32"}, "keep_dims": {"b": true}, "T": {"type": "DT_FLOAT"}}}, "constants": {"1": [1, 2]}}, "name": "tf_op_layer_Mean_2", "inbound_nodes": [[["conv2d_28", 0, 0, {}]]]}, {"class_name": "Conv2D", "config": {"name": "conv2d_29", "trainable": true, "dtype": "float32", "filters": 4, "kernel_size": [1, 1], "strides": [1, 1], "padding": "same", "data_format": "channels_last", "dilation_rate": [1, 1], "groups": 1, "activation": "relu", "use_bias": true, "kernel_initializer": {"class_name": "RandomUniform", "config": {"minval": -0.125, "maxval": 0.125, "seed": null}}, "bias_initializer": {"class_name": "RandomUniform", "config": {"minval": -0.125, "maxval": 0.125, "seed": null}}, "kernel_regularizer": null, "bias_regularizer": null, "activity_regularizer": null, "kernel_constraint": null, "bias_constraint": null}, "name": "conv2d_29", "inbound_nodes": [[["tf_op_layer_Mean_2", 0, 0, {}]]]}, {"class_name": "Conv2D", "config": {"name": "conv2d_30", "trainable": true, "dtype": "float32", "filters": 64, "kernel_size": [1, 1], "strides": [1, 1], "padding": "same", "data_format": "channels_last", "dilation_rate": [1, 1], "groups": 1, "activation": "sigmoid", "use_bias": true, "kernel_initializer": {"class_name": "RandomUniform", "config": {"minval": -0.5, "maxval": 0.5, "seed": null}}, "bias_initializer": {"class_name": "RandomUniform", "config": {"minval": -0.5, "maxval": 0.5, "seed": null}}, "kernel_regularizer": null, "bias_regularizer": null, "activity_regularizer": null, "kernel_constraint": null, "bias_constraint": null}, "name": "conv2d_30", "inbound_nodes": [[["conv2d_29", 0, 0, {}]]]}, {"class_name": "Multiply", "config": {"name": "multiply_2", "trainable": true, "dtype": "float32"}, "name": "multiply_2", "inbound_nodes": [[["conv2d_30", 0, 0, {}], ["conv2d_28", 0, 0, {}]]]}, {"class_name": "Add", "config": {"name": "add_2", "trainable": true, "dtype": "float32"}, "name": "add_2", "inbound_nodes": [[["multiply_2", 0, 0, {}], ["add_1", 0, 0, {}]]]}, {"class_name": "Conv2D", "config": {"name": "conv2d_31", "trainable": true, "dtype": "float32", "filters": 21, "kernel_size": [3, 3], "strides": [1, 1], "padding": "same", "data_format": "channels_last", "dilation_rate": [1, 1], "groups": 1, "activation": "linear", "use_bias": true, "kernel_initializer": {"class_name": "RandomUniform", "config": {"minval": -0.041666666666666664, "maxval": 0.041666666666666664, "seed": null}}, "bias_initializer": {"class_name": "RandomUniform", "config": {"minval": -0.041666666666666664, "maxval": 0.041666666666666664, "seed": null}}, "kernel_regularizer": null, "bias_regularizer": null, "activity_regularizer": null, "kernel_constraint": null, "bias_constraint": null}, "name": "conv2d_31", "inbound_nodes": [[["add_2", 0, 0, {}]]]}, {"class_name": "Conv2D", "config": {"name": "conv2d_32", "trainable": true, "dtype": "float32", "filters": 21, "kernel_size": [5, 5], "strides": [1, 1], "padding": "same", "data_format": "channels_last", "dilation_rate": [1, 1], "groups": 1, "activation": "linear", "use_bias": true, "kernel_initializer": {"class_name": "RandomUniform", "config": {"minval": -0.025, "maxval": 0.025, "seed": null}}, "bias_initializer": {"class_name": "RandomUniform", "config": {"minval": -0.025, "maxval": 0.025, "seed": null}}, "kernel_regularizer": null, "bias_regularizer": null, "activity_regularizer": null, "kernel_constraint": null, "bias_constraint": null}, "name": "conv2d_32", "inbound_nodes": [[["add_2", 0, 0, {}]]]}, {"class_name": "Conv2D", "config": {"name": "conv2d_33", "trainable": true, "dtype": "float32", "filters": 21, "kernel_size": [7, 7], "strides": [1, 1], "padding": "same", "data_format": "channels_last", "dilation_rate": [1, 1], "groups": 1, "activation": "linear", "use_bias": true, "kernel_initializer": {"class_name": "RandomUniform", "config": {"minval": -0.017857142857142856, "maxval": 0.017857142857142856, "seed": null}}, "bias_initializer": {"class_name": "RandomUniform", "config": {"minval": -0.017857142857142856, "maxval": 0.017857142857142856, "seed": null}}, "kernel_regularizer": null, "bias_regularizer": null, "activity_regularizer": null, "kernel_constraint": null, "bias_constraint": null}, "name": "conv2d_33", "inbound_nodes": [[["add_2", 0, 0, {}]]]}, {"class_name": "Concatenate", "config": {"name": "concatenate_6", "trainable": true, "dtype": "float32", "axis": -1}, "name": "concatenate_6", "inbound_nodes": [[["conv2d_31", 0, 0, {}], ["conv2d_32", 0, 0, {}], ["conv2d_33", 0, 0, {}]]]}, {"class_name": "Conv2D", "config": {"name": "conv2d_34", "trainable": true, "dtype": "float32", "filters": 64, "kernel_size": [3, 3], "strides": [1, 1], "padding": "same", "data_format": "channels_last", "dilation_rate": [1, 1], "groups": 1, "activation": "linear", "use_bias": true, "kernel_initializer": {"class_name": "RandomUniform", "config": {"minval": -0.0419960525565808, "maxval": 0.0419960525565808, "seed": null}}, "bias_initializer": {"class_name": "RandomUniform", "config": {"minval": -0.0419960525565808, "maxval": 0.0419960525565808, "seed": null}}, "kernel_regularizer": null, "bias_regularizer": null, "activity_regularizer": null, "kernel_constraint": null, "bias_constraint": null}, "name": "conv2d_34", "inbound_nodes": [[["concatenate_6", 0, 0, {}]]]}, {"class_name": "ReLU", "config": {"name": "re_lu_3", "trainable": true, "dtype": "float32", "max_value": null, "negative_slope": 0.0, "threshold": 0.0}, "name": "re_lu_3", "inbound_nodes": [[["conv2d_34", 0, 0, {}]]]}, {"class_name": "Conv2D", "config": {"name": "conv2d_35", "trainable": true, "dtype": "float32", "filters": 21, "kernel_size": [3, 3], "strides": [1, 1], "padding": "same", "data_format": "channels_last", "dilation_rate": [1, 1], "groups": 1, "activation": "linear", "use_bias": true, "kernel_initializer": {"class_name": "RandomUniform", "config": {"minval": -0.041666666666666664, "maxval": 0.041666666666666664, "seed": null}}, "bias_initializer": {"class_name": "RandomUniform", "config": {"minval": -0.041666666666666664, "maxval": 0.041666666666666664, "seed": null}}, "kernel_regularizer": null, "bias_regularizer": null, "activity_regularizer": null, "kernel_constraint": null, "bias_constraint": null}, "name": "conv2d_35", "inbound_nodes": [[["re_lu_3", 0, 0, {}]]]}, {"class_name": "Conv2D", "config": {"name": "conv2d_36", "trainable": true, "dtype": "float32", "filters": 21, "kernel_size": [5, 5], "strides": [1, 1], "padding": "same", "data_format": "channels_last", "dilation_rate": [1, 1], "groups": 1, "activation": "linear", "use_bias": true, "kernel_initializer": {"class_name": "RandomUniform", "config": {"minval": -0.025, "maxval": 0.025, "seed": null}}, "bias_initializer": {"class_name": "RandomUniform", "config": {"minval": -0.025, "maxval": 0.025, "seed": null}}, "kernel_regularizer": null, "bias_regularizer": null, "activity_regularizer": null, "kernel_constraint": null, "bias_constraint": null}, "name": "conv2d_36", "inbound_nodes": [[["re_lu_3", 0, 0, {}]]]}, {"class_name": "Conv2D", "config": {"name": "conv2d_37", "trainable": true, "dtype": "float32", "filters": 21, "kernel_size": [7, 7], "strides": [1, 1], "padding": "same", "data_format": "channels_last", "dilation_rate": [1, 1], "groups": 1, "activation": "linear", "use_bias": true, "kernel_initializer": {"class_name": "RandomUniform", "config": {"minval": -0.017857142857142856, "maxval": 0.017857142857142856, "seed": null}}, "bias_initializer": {"class_name": "RandomUniform", "config": {"minval": -0.017857142857142856, "maxval": 0.017857142857142856, "seed": null}}, "kernel_regularizer": null, "bias_regularizer": null, "activity_regularizer": null, "kernel_constraint": null, "bias_constraint": null}, "name": "conv2d_37", "inbound_nodes": [[["re_lu_3", 0, 0, {}]]]}, {"class_name": "Concatenate", "config": {"name": "concatenate_7", "trainable": true, "dtype": "float32", "axis": -1}, "name": "concatenate_7", "inbound_nodes": [[["conv2d_35", 0, 0, {}], ["conv2d_36", 0, 0, {}], ["conv2d_37", 0, 0, {}]]]}, {"class_name": "Conv2D", "config": {"name": "conv2d_38", "trainable": true, "dtype": "float32", "filters": 64, "kernel_size": [3, 3], "strides": [1, 1], "padding": "same", "data_format": "channels_last", "dilation_rate": [1, 1], "groups": 1, "activation": "linear", "use_bias": true, "kernel_initializer": {"class_name": "RandomUniform", "config": {"minval": -0.0419960525565808, "maxval": 0.0419960525565808, "seed": null}}, "bias_initializer": {"class_name": "RandomUniform", "config": {"minval": -0.0419960525565808, "maxval": 0.0419960525565808, "seed": null}}, "kernel_regularizer": null, "bias_regularizer": null, "activity_regularizer": null, "kernel_constraint": null, "bias_constraint": null}, "name": "conv2d_38", "inbound_nodes": [[["concatenate_7", 0, 0, {}]]]}, {"class_name": "TensorFlowOpLayer", "config": {"name": "Mean_3", "trainable": true, "dtype": "float32", "node_def": {"name": "Mean_3", "op": "Mean", "input": ["conv2d_38/BiasAdd", "Mean_3/reduction_indices"], "attr": {"Tidx": {"type": "DT_INT32"}, "keep_dims": {"b": true}, "T": {"type": "DT_FLOAT"}}}, "constants": {"1": [1, 2]}}, "name": "tf_op_layer_Mean_3", "inbound_nodes": [[["conv2d_38", 0, 0, {}]]]}, {"class_name": "Conv2D", "config": {"name": "conv2d_39", "trainable": true, "dtype": "float32", "filters": 4, "kernel_size": [1, 1], "strides": [1, 1], "padding": "same", "data_format": "channels_last", "dilation_rate": [1, 1], "groups": 1, "activation": "relu", "use_bias": true, "kernel_initializer": {"class_name": "RandomUniform", "config": {"minval": -0.125, "maxval": 0.125, "seed": null}}, "bias_initializer": {"class_name": "RandomUniform", "config": {"minval": -0.125, "maxval": 0.125, "seed": null}}, "kernel_regularizer": null, "bias_regularizer": null, "activity_regularizer": null, "kernel_constraint": null, "bias_constraint": null}, "name": "conv2d_39", "inbound_nodes": [[["tf_op_layer_Mean_3", 0, 0, {}]]]}, {"class_name": "Conv2D", "config": {"name": "conv2d_40", "trainable": true, "dtype": "float32", "filters": 64, "kernel_size": [1, 1], "strides": [1, 1], "padding": "same", "data_format": "channels_last", "dilation_rate": [1, 1], "groups": 1, "activation": "sigmoid", "use_bias": true, "kernel_initializer": {"class_name": "RandomUniform", "config": {"minval": -0.5, "maxval": 0.5, "seed": null}}, "bias_initializer": {"class_name": "RandomUniform", "config": {"minval": -0.5, "maxval": 0.5, "seed": null}}, "kernel_regularizer": null, "bias_regularizer": null, "activity_regularizer": null, "kernel_constraint": null, "bias_constraint": null}, "name": "conv2d_40", "inbound_nodes": [[["conv2d_39", 0, 0, {}]]]}, {"class_name": "Multiply", "config": {"name": "multiply_3", "trainable": true, "dtype": "float32"}, "name": "multiply_3", "inbound_nodes": [[["conv2d_40", 0, 0, {}], ["conv2d_38", 0, 0, {}]]]}, {"class_name": "Add", "config": {"name": "add_3", "trainable": true, "dtype": "float32"}, "name": "add_3", "inbound_nodes": [[["multiply_3", 0, 0, {}], ["add_2", 0, 0, {}]]]}, {"class_name": "Conv2D", "config": {"name": "conv2d_41", "trainable": true, "dtype": "float32", "filters": 21, "kernel_size": [3, 3], "strides": [1, 1], "padding": "same", "data_format": "channels_last", "dilation_rate": [1, 1], "groups": 1, "activation": "linear", "use_bias": true, "kernel_initializer": {"class_name": "RandomUniform", "config": {"minval": -0.041666666666666664, "maxval": 0.041666666666666664, "seed": null}}, "bias_initializer": {"class_name": "RandomUniform", "config": {"minval": -0.041666666666666664, "maxval": 0.041666666666666664, "seed": null}}, "kernel_regularizer": null, "bias_regularizer": null, "activity_regularizer": null, "kernel_constraint": null, "bias_constraint": null}, "name": "conv2d_41", "inbound_nodes": [[["add_3", 0, 0, {}]]]}, {"class_name": "Conv2D", "config": {"name": "conv2d_42", "trainable": true, "dtype": "float32", "filters": 21, "kernel_size": [5, 5], "strides": [1, 1], "padding": "same", "data_format": "channels_last", "dilation_rate": [1, 1], "groups": 1, "activation": "linear", "use_bias": true, "kernel_initializer": {"class_name": "RandomUniform", "config": {"minval": -0.025, "maxval": 0.025, "seed": null}}, "bias_initializer": {"class_name": "RandomUniform", "config": {"minval": -0.025, "maxval": 0.025, "seed": null}}, "kernel_regularizer": null, "bias_regularizer": null, "activity_regularizer": null, "kernel_constraint": null, "bias_constraint": null}, "name": "conv2d_42", "inbound_nodes": [[["add_3", 0, 0, {}]]]}, {"class_name": "Conv2D", "config": {"name": "conv2d_43", "trainable": true, "dtype": "float32", "filters": 21, "kernel_size": [7, 7], "strides": [1, 1], "padding": "same", "data_format": "channels_last", "dilation_rate": [1, 1], "groups": 1, "activation": "linear", "use_bias": true, "kernel_initializer": {"class_name": "RandomUniform", "config": {"minval": -0.017857142857142856, "maxval": 0.017857142857142856, "seed": null}}, "bias_initializer": {"class_name": "RandomUniform", "config": {"minval": -0.017857142857142856, "maxval": 0.017857142857142856, "seed": null}}, "kernel_regularizer": null, "bias_regularizer": null, "activity_regularizer": null, "kernel_constraint": null, "bias_constraint": null}, "name": "conv2d_43", "inbound_nodes": [[["add_3", 0, 0, {}]]]}, {"class_name": "Concatenate", "config": {"name": "concatenate_8", "trainable": true, "dtype": "float32", "axis": -1}, "name": "concatenate_8", "inbound_nodes": [[["conv2d_41", 0, 0, {}], ["conv2d_42", 0, 0, {}], ["conv2d_43", 0, 0, {}]]]}, {"class_name": "Conv2D", "config": {"name": "conv2d_44", "trainable": true, "dtype": "float32", "filters": 64, "kernel_size": [3, 3], "strides": [1, 1], "padding": "same", "data_format": "channels_last", "dilation_rate": [1, 1], "groups": 1, "activation": "linear", "use_bias": true, "kernel_initializer": {"class_name": "RandomUniform", "config": {"minval": -0.0419960525565808, "maxval": 0.0419960525565808, "seed": null}}, "bias_initializer": {"class_name": "RandomUniform", "config": {"minval": -0.0419960525565808, "maxval": 0.0419960525565808, "seed": null}}, "kernel_regularizer": null, "bias_regularizer": null, "activity_regularizer": null, "kernel_constraint": null, "bias_constraint": null}, "name": "conv2d_44", "inbound_nodes": [[["concatenate_8", 0, 0, {}]]]}, {"class_name": "ReLU", "config": {"name": "re_lu_4", "trainable": true, "dtype": "float32", "max_value": null, "negative_slope": 0.0, "threshold": 0.0}, "name": "re_lu_4", "inbound_nodes": [[["conv2d_44", 0, 0, {}]]]}, {"class_name": "Conv2D", "config": {"name": "conv2d_45", "trainable": true, "dtype": "float32", "filters": 21, "kernel_size": [3, 3], "strides": [1, 1], "padding": "same", "data_format": "channels_last", "dilation_rate": [1, 1], "groups": 1, "activation": "linear", "use_bias": true, "kernel_initializer": {"class_name": "RandomUniform", "config": {"minval": -0.041666666666666664, "maxval": 0.041666666666666664, "seed": null}}, "bias_initializer": {"class_name": "RandomUniform", "config": {"minval": -0.041666666666666664, "maxval": 0.041666666666666664, "seed": null}}, "kernel_regularizer": null, "bias_regularizer": null, "activity_regularizer": null, "kernel_constraint": null, "bias_constraint": null}, "name": "conv2d_45", "inbound_nodes": [[["re_lu_4", 0, 0, {}]]]}, {"class_name": "Conv2D", "config": {"name": "conv2d_46", "trainable": true, "dtype": "float32", "filters": 21, "kernel_size": [5, 5], "strides": [1, 1], "padding": "same", "data_format": "channels_last", "dilation_rate": [1, 1], "groups": 1, "activation": "linear", "use_bias": true, "kernel_initializer": {"class_name": "RandomUniform", "config": {"minval": -0.025, "maxval": 0.025, "seed": null}}, "bias_initializer": {"class_name": "RandomUniform", "config": {"minval": -0.025, "maxval": 0.025, "seed": null}}, "kernel_regularizer": null, "bias_regularizer": null, "activity_regularizer": null, "kernel_constraint": null, "bias_constraint": null}, "name": "conv2d_46", "inbound_nodes": [[["re_lu_4", 0, 0, {}]]]}, {"class_name": "Conv2D", "config": {"name": "conv2d_47", "trainable": true, "dtype": "float32", "filters": 21, "kernel_size": [7, 7], "strides": [1, 1], "padding": "same", "data_format": "channels_last", "dilation_rate": [1, 1], "groups": 1, "activation": "linear", "use_bias": true, "kernel_initializer": {"class_name": "RandomUniform", "config": {"minval": -0.017857142857142856, "maxval": 0.017857142857142856, "seed": null}}, "bias_initializer": {"class_name": "RandomUniform", "config": {"minval": -0.017857142857142856, "maxval": 0.017857142857142856, "seed": null}}, "kernel_regularizer": null, "bias_regularizer": null, "activity_regularizer": null, "kernel_constraint": null, "bias_constraint": null}, "name": "conv2d_47", "inbound_nodes": [[["re_lu_4", 0, 0, {}]]]}, {"class_name": "Concatenate", "config": {"name": "concatenate_9", "trainable": true, "dtype": "float32", "axis": -1}, "name": "concatenate_9", "inbound_nodes": [[["conv2d_45", 0, 0, {}], ["conv2d_46", 0, 0, {}], ["conv2d_47", 0, 0, {}]]]}, {"class_name": "Conv2D", "config": {"name": "conv2d_48", "trainable": true, "dtype": "float32", "filters": 64, "kernel_size": [3, 3], "strides": [1, 1], "padding": "same", "data_format": "channels_last", "dilation_rate": [1, 1], "groups": 1, "activation": "linear", "use_bias": true, "kernel_initializer": {"class_name": "RandomUniform", "config": {"minval": -0.0419960525565808, "maxval": 0.0419960525565808, "seed": null}}, "bias_initializer": {"class_name": "RandomUniform", "config": {"minval": -0.0419960525565808, "maxval": 0.0419960525565808, "seed": null}}, "kernel_regularizer": null, "bias_regularizer": null, "activity_regularizer": null, "kernel_constraint": null, "bias_constraint": null}, "name": "conv2d_48", "inbound_nodes": [[["concatenate_9", 0, 0, {}]]]}, {"class_name": "TensorFlowOpLayer", "config": {"name": "Mean_4", "trainable": true, "dtype": "float32", "node_def": {"name": "Mean_4", "op": "Mean", "input": ["conv2d_48/BiasAdd", "Mean_4/reduction_indices"], "attr": {"T": {"type": "DT_FLOAT"}, "Tidx": {"type": "DT_INT32"}, "keep_dims": {"b": true}}}, "constants": {"1": [1, 2]}}, "name": "tf_op_layer_Mean_4", "inbound_nodes": [[["conv2d_48", 0, 0, {}]]]}, {"class_name": "Conv2D", "config": {"name": "conv2d_49", "trainable": true, "dtype": "float32", "filters": 4, "kernel_size": [1, 1], "strides": [1, 1], "padding": "same", "data_format": "channels_last", "dilation_rate": [1, 1], "groups": 1, "activation": "relu", "use_bias": true, "kernel_initializer": {"class_name": "RandomUniform", "config": {"minval": -0.125, "maxval": 0.125, "seed": null}}, "bias_initializer": {"class_name": "RandomUniform", "config": {"minval": -0.125, "maxval": 0.125, "seed": null}}, "kernel_regularizer": null, "bias_regularizer": null, "activity_regularizer": null, "kernel_constraint": null, "bias_constraint": null}, "name": "conv2d_49", "inbound_nodes": [[["tf_op_layer_Mean_4", 0, 0, {}]]]}, {"class_name": "Conv2D", "config": {"name": "conv2d_50", "trainable": true, "dtype": "float32", "filters": 64, "kernel_size": [1, 1], "strides": [1, 1], "padding": "same", "data_format": "channels_last", "dilation_rate": [1, 1], "groups": 1, "activation": "sigmoid", "use_bias": true, "kernel_initializer": {"class_name": "RandomUniform", "config": {"minval": -0.5, "maxval": 0.5, "seed": null}}, "bias_initializer": {"class_name": "RandomUniform", "config": {"minval": -0.5, "maxval": 0.5, "seed": null}}, "kernel_regularizer": null, "bias_regularizer": null, "activity_regularizer": null, "kernel_constraint": null, "bias_constraint": null}, "name": "conv2d_50", "inbound_nodes": [[["conv2d_49", 0, 0, {}]]]}, {"class_name": "Multiply", "config": {"name": "multiply_4", "trainable": true, "dtype": "float32"}, "name": "multiply_4", "inbound_nodes": [[["conv2d_50", 0, 0, {}], ["conv2d_48", 0, 0, {}]]]}, {"class_name": "Add", "config": {"name": "add_4", "trainable": true, "dtype": "float32"}, "name": "add_4", "inbound_nodes": [[["multiply_4", 0, 0, {}], ["add_3", 0, 0, {}]]]}, {"class_name": "Conv2D", "config": {"name": "conv2d_51", "trainable": true, "dtype": "float32", "filters": 21, "kernel_size": [3, 3], "strides": [1, 1], "padding": "same", "data_format": "channels_last", "dilation_rate": [1, 1], "groups": 1, "activation": "linear", "use_bias": true, "kernel_initializer": {"class_name": "RandomUniform", "config": {"minval": -0.041666666666666664, "maxval": 0.041666666666666664, "seed": null}}, "bias_initializer": {"class_name": "RandomUniform", "config": {"minval": -0.041666666666666664, "maxval": 0.041666666666666664, "seed": null}}, "kernel_regularizer": null, "bias_regularizer": null, "activity_regularizer": null, "kernel_constraint": null, "bias_constraint": null}, "name": "conv2d_51", "inbound_nodes": [[["add_4", 0, 0, {}]]]}, {"class_name": "Conv2D", "config": {"name": "conv2d_52", "trainable": true, "dtype": "float32", "filters": 21, "kernel_size": [5, 5], "strides": [1, 1], "padding": "same", "data_format": "channels_last", "dilation_rate": [1, 1], "groups": 1, "activation": "linear", "use_bias": true, "kernel_initializer": {"class_name": "RandomUniform", "config": {"minval": -0.025, "maxval": 0.025, "seed": null}}, "bias_initializer": {"class_name": "RandomUniform", "config": {"minval": -0.025, "maxval": 0.025, "seed": null}}, "kernel_regularizer": null, "bias_regularizer": null, "activity_regularizer": null, "kernel_constraint": null, "bias_constraint": null}, "name": "conv2d_52", "inbound_nodes": [[["add_4", 0, 0, {}]]]}, {"class_name": "Conv2D", "config": {"name": "conv2d_53", "trainable": true, "dtype": "float32", "filters": 21, "kernel_size": [7, 7], "strides": [1, 1], "padding": "same", "data_format": "channels_last", "dilation_rate": [1, 1], "groups": 1, "activation": "linear", "use_bias": true, "kernel_initializer": {"class_name": "RandomUniform", "config": {"minval": -0.017857142857142856, "maxval": 0.017857142857142856, "seed": null}}, "bias_initializer": {"class_name": "RandomUniform", "config": {"minval": -0.017857142857142856, "maxval": 0.017857142857142856, "seed": null}}, "kernel_regularizer": null, "bias_regularizer": null, "activity_regularizer": null, "kernel_constraint": null, "bias_constraint": null}, "name": "conv2d_53", "inbound_nodes": [[["add_4", 0, 0, {}]]]}, {"class_name": "Concatenate", "config": {"name": "concatenate_10", "trainable": true, "dtype": "float32", "axis": -1}, "name": "concatenate_10", "inbound_nodes": [[["conv2d_51", 0, 0, {}], ["conv2d_52", 0, 0, {}], ["conv2d_53", 0, 0, {}]]]}, {"class_name": "Conv2D", "config": {"name": "conv2d_54", "trainable": true, "dtype": "float32", "filters": 64, "kernel_size": [3, 3], "strides": [1, 1], "padding": "same", "data_format": "channels_last", "dilation_rate": [1, 1], "groups": 1, "activation": "linear", "use_bias": true, "kernel_initializer": {"class_name": "RandomUniform", "config": {"minval": -0.0419960525565808, "maxval": 0.0419960525565808, "seed": null}}, "bias_initializer": {"class_name": "RandomUniform", "config": {"minval": -0.0419960525565808, "maxval": 0.0419960525565808, "seed": null}}, "kernel_regularizer": null, "bias_regularizer": null, "activity_regularizer": null, "kernel_constraint": null, "bias_constraint": null}, "name": "conv2d_54", "inbound_nodes": [[["concatenate_10", 0, 0, {}]]]}, {"class_name": "ReLU", "config": {"name": "re_lu_5", "trainable": true, "dtype": "float32", "max_value": null, "negative_slope": 0.0, "threshold": 0.0}, "name": "re_lu_5", "inbound_nodes": [[["conv2d_54", 0, 0, {}]]]}, {"class_name": "Conv2D", "config": {"name": "conv2d_55", "trainable": true, "dtype": "float32", "filters": 21, "kernel_size": [3, 3], "strides": [1, 1], "padding": "same", "data_format": "channels_last", "dilation_rate": [1, 1], "groups": 1, "activation": "linear", "use_bias": true, "kernel_initializer": {"class_name": "RandomUniform", "config": {"minval": -0.041666666666666664, "maxval": 0.041666666666666664, "seed": null}}, "bias_initializer": {"class_name": "RandomUniform", "config": {"minval": -0.041666666666666664, "maxval": 0.041666666666666664, "seed": null}}, "kernel_regularizer": null, "bias_regularizer": null, "activity_regularizer": null, "kernel_constraint": null, "bias_constraint": null}, "name": "conv2d_55", "inbound_nodes": [[["re_lu_5", 0, 0, {}]]]}, {"class_name": "Conv2D", "config": {"name": "conv2d_56", "trainable": true, "dtype": "float32", "filters": 21, "kernel_size": [5, 5], "strides": [1, 1], "padding": "same", "data_format": "channels_last", "dilation_rate": [1, 1], "groups": 1, "activation": "linear", "use_bias": true, "kernel_initializer": {"class_name": "RandomUniform", "config": {"minval": -0.025, "maxval": 0.025, "seed": null}}, "bias_initializer": {"class_name": "RandomUniform", "config": {"minval": -0.025, "maxval": 0.025, "seed": null}}, "kernel_regularizer": null, "bias_regularizer": null, "activity_regularizer": null, "kernel_constraint": null, "bias_constraint": null}, "name": "conv2d_56", "inbound_nodes": [[["re_lu_5", 0, 0, {}]]]}, {"class_name": "Conv2D", "config": {"name": "conv2d_57", "trainable": true, "dtype": "float32", "filters": 21, "kernel_size": [7, 7], "strides": [1, 1], "padding": "same", "data_format": "channels_last", "dilation_rate": [1, 1], "groups": 1, "activation": "linear", "use_bias": true, "kernel_initializer": {"class_name": "RandomUniform", "config": {"minval": -0.017857142857142856, "maxval": 0.017857142857142856, "seed": null}}, "bias_initializer": {"class_name": "RandomUniform", "config": {"minval": -0.017857142857142856, "maxval": 0.017857142857142856, "seed": null}}, "kernel_regularizer": null, "bias_regularizer": null, "activity_regularizer": null, "kernel_constraint": null, "bias_constraint": null}, "name": "conv2d_57", "inbound_nodes": [[["re_lu_5", 0, 0, {}]]]}, {"class_name": "Concatenate", "config": {"name": "concatenate_11", "trainable": true, "dtype": "float32", "axis": -1}, "name": "concatenate_11", "inbound_nodes": [[["conv2d_55", 0, 0, {}], ["conv2d_56", 0, 0, {}], ["conv2d_57", 0, 0, {}]]]}, {"class_name": "Conv2D", "config": {"name": "conv2d_58", "trainable": true, "dtype": "float32", "filters": 64, "kernel_size": [3, 3], "strides": [1, 1], "padding": "same", "data_format": "channels_last", "dilation_rate": [1, 1], "groups": 1, "activation": "linear", "use_bias": true, "kernel_initializer": {"class_name": "RandomUniform", "config": {"minval": -0.0419960525565808, "maxval": 0.0419960525565808, "seed": null}}, "bias_initializer": {"class_name": "RandomUniform", "config": {"minval": -0.0419960525565808, "maxval": 0.0419960525565808, "seed": null}}, "kernel_regularizer": null, "bias_regularizer": null, "activity_regularizer": null, "kernel_constraint": null, "bias_constraint": null}, "name": "conv2d_58", "inbound_nodes": [[["concatenate_11", 0, 0, {}]]]}, {"class_name": "TensorFlowOpLayer", "config": {"name": "Mean_5", "trainable": true, "dtype": "float32", "node_def": {"name": "Mean_5", "op": "Mean", "input": ["conv2d_58/BiasAdd", "Mean_5/reduction_indices"], "attr": {"T": {"type": "DT_FLOAT"}, "Tidx": {"type": "DT_INT32"}, "keep_dims": {"b": true}}}, "constants": {"1": [1, 2]}}, "name": "tf_op_layer_Mean_5", "inbound_nodes": [[["conv2d_58", 0, 0, {}]]]}, {"class_name": "Conv2D", "config": {"name": "conv2d_59", "trainable": true, "dtype": "float32", "filters": 4, "kernel_size": [1, 1], "strides": [1, 1], "padding": "same", "data_format": "channels_last", "dilation_rate": [1, 1], "groups": 1, "activation": "relu", "use_bias": true, "kernel_initializer": {"class_name": "RandomUniform", "config": {"minval": -0.125, "maxval": 0.125, "seed": null}}, "bias_initializer": {"class_name": "RandomUniform", "config": {"minval": -0.125, "maxval": 0.125, "seed": null}}, "kernel_regularizer": null, "bias_regularizer": null, "activity_regularizer": null, "kernel_constraint": null, "bias_constraint": null}, "name": "conv2d_59", "inbound_nodes": [[["tf_op_layer_Mean_5", 0, 0, {}]]]}, {"class_name": "Conv2D", "config": {"name": "conv2d_60", "trainable": true, "dtype": "float32", "filters": 64, "kernel_size": [1, 1], "strides": [1, 1], "padding": "same", "data_format": "channels_last", "dilation_rate": [1, 1], "groups": 1, "activation": "sigmoid", "use_bias": true, "kernel_initializer": {"class_name": "RandomUniform", "config": {"minval": -0.5, "maxval": 0.5, "seed": null}}, "bias_initializer": {"class_name": "RandomUniform", "config": {"minval": -0.5, "maxval": 0.5, "seed": null}}, "kernel_regularizer": null, "bias_regularizer": null, "activity_regularizer": null, "kernel_constraint": null, "bias_constraint": null}, "name": "conv2d_60", "inbound_nodes": [[["conv2d_59", 0, 0, {}]]]}, {"class_name": "Multiply", "config": {"name": "multiply_5", "trainable": true, "dtype": "float32"}, "name": "multiply_5", "inbound_nodes": [[["conv2d_60", 0, 0, {}], ["conv2d_58", 0, 0, {}]]]}, {"class_name": "Add", "config": {"name": "add_5", "trainable": true, "dtype": "float32"}, "name": "add_5", "inbound_nodes": [[["multiply_5", 0, 0, {}], ["add_4", 0, 0, {}]]]}, {"class_name": "Conv2D", "config": {"name": "conv2d_61", "trainable": true, "dtype": "float32", "filters": 64, "kernel_size": [3, 3], "strides": [1, 1], "padding": "same", "data_format": "channels_last", "dilation_rate": [1, 1], "groups": 1, "activation": "linear", "use_bias": true, "kernel_initializer": {"class_name": "RandomUniform", "config": {"minval": -0.041666666666666664, "maxval": 0.041666666666666664, "seed": null}}, "bias_initializer": {"class_name": "RandomUniform", "config": {"minval": -0.041666666666666664, "maxval": 0.041666666666666664, "seed": null}}, "kernel_regularizer": null, "bias_regularizer": null, "activity_regularizer": null, "kernel_constraint": null, "bias_constraint": null}, "name": "conv2d_61", "inbound_nodes": [[["add_5", 0, 0, {}]]]}, {"class_name": "Add", "config": {"name": "add_6", "trainable": true, "dtype": "float32"}, "name": "add_6", "inbound_nodes": [[["conv2d_61", 0, 0, {}], ["conv2d", 0, 0, {}]]]}, {"class_name": "Conv2D", "config": {"name": "conv2d_62", "trainable": true, "dtype": "float32", "filters": 21, "kernel_size": [3, 3], "strides": [1, 1], "padding": "same", "data_format": "channels_last", "dilation_rate": [1, 1], "groups": 1, "activation": "linear", "use_bias": true, "kernel_initializer": {"class_name": "RandomUniform", "config": {"minval": -0.041666666666666664, "maxval": 0.041666666666666664, "seed": null}}, "bias_initializer": {"class_name": "RandomUniform", "config": {"minval": -0.041666666666666664, "maxval": 0.041666666666666664, "seed": null}}, "kernel_regularizer": null, "bias_regularizer": null, "activity_regularizer": null, "kernel_constraint": null, "bias_constraint": null}, "name": "conv2d_62", "inbound_nodes": [[["add_6", 0, 0, {}]]]}, {"class_name": "Conv2D", "config": {"name": "conv2d_63", "trainable": true, "dtype": "float32", "filters": 21, "kernel_size": [5, 5], "strides": [1, 1], "padding": "same", "data_format": "channels_last", "dilation_rate": [1, 1], "groups": 1, "activation": "linear", "use_bias": true, "kernel_initializer": {"class_name": "RandomUniform", "config": {"minval": -0.025, "maxval": 0.025, "seed": null}}, "bias_initializer": {"class_name": "RandomUniform", "config": {"minval": -0.025, "maxval": 0.025, "seed": null}}, "kernel_regularizer": null, "bias_regularizer": null, "activity_regularizer": null, "kernel_constraint": null, "bias_constraint": null}, "name": "conv2d_63", "inbound_nodes": [[["add_6", 0, 0, {}]]]}, {"class_name": "Conv2D", "config": {"name": "conv2d_64", "trainable": true, "dtype": "float32", "filters": 21, "kernel_size": [7, 7], "strides": [1, 1], "padding": "same", "data_format": "channels_last", "dilation_rate": [1, 1], "groups": 1, "activation": "linear", "use_bias": true, "kernel_initializer": {"class_name": "RandomUniform", "config": {"minval": -0.017857142857142856, "maxval": 0.017857142857142856, "seed": null}}, "bias_initializer": {"class_name": "RandomUniform", "config": {"minval": -0.017857142857142856, "maxval": 0.017857142857142856, "seed": null}}, "kernel_regularizer": null, "bias_regularizer": null, "activity_regularizer": null, "kernel_constraint": null, "bias_constraint": null}, "name": "conv2d_64", "inbound_nodes": [[["add_6", 0, 0, {}]]]}, {"class_name": "Concatenate", "config": {"name": "concatenate_12", "trainable": true, "dtype": "float32", "axis": -1}, "name": "concatenate_12", "inbound_nodes": [[["conv2d_62", 0, 0, {}], ["conv2d_63", 0, 0, {}], ["conv2d_64", 0, 0, {}]]]}, {"class_name": "Conv2D", "config": {"name": "conv2d_65", "trainable": true, "dtype": "float32", "filters": 64, "kernel_size": [3, 3], "strides": [1, 1], "padding": "same", "data_format": "channels_last", "dilation_rate": [1, 1], "groups": 1, "activation": "linear", "use_bias": true, "kernel_initializer": {"class_name": "RandomUniform", "config": {"minval": -0.0419960525565808, "maxval": 0.0419960525565808, "seed": null}}, "bias_initializer": {"class_name": "RandomUniform", "config": {"minval": -0.0419960525565808, "maxval": 0.0419960525565808, "seed": null}}, "kernel_regularizer": null, "bias_regularizer": null, "activity_regularizer": null, "kernel_constraint": null, "bias_constraint": null}, "name": "conv2d_65", "inbound_nodes": [[["concatenate_12", 0, 0, {}]]]}, {"class_name": "ReLU", "config": {"name": "re_lu_6", "trainable": true, "dtype": "float32", "max_value": null, "negative_slope": 0.0, "threshold": 0.0}, "name": "re_lu_6", "inbound_nodes": [[["conv2d_65", 0, 0, {}]]]}, {"class_name": "Conv2D", "config": {"name": "conv2d_66", "trainable": true, "dtype": "float32", "filters": 21, "kernel_size": [3, 3], "strides": [1, 1], "padding": "same", "data_format": "channels_last", "dilation_rate": [1, 1], "groups": 1, "activation": "linear", "use_bias": true, "kernel_initializer": {"class_name": "RandomUniform", "config": {"minval": -0.041666666666666664, "maxval": 0.041666666666666664, "seed": null}}, "bias_initializer": {"class_name": "RandomUniform", "config": {"minval": -0.041666666666666664, "maxval": 0.041666666666666664, "seed": null}}, "kernel_regularizer": null, "bias_regularizer": null, "activity_regularizer": null, "kernel_constraint": null, "bias_constraint": null}, "name": "conv2d_66", "inbound_nodes": [[["re_lu_6", 0, 0, {}]]]}, {"class_name": "Conv2D", "config": {"name": "conv2d_67", "trainable": true, "dtype": "float32", "filters": 21, "kernel_size": [5, 5], "strides": [1, 1], "padding": "same", "data_format": "channels_last", "dilation_rate": [1, 1], "groups": 1, "activation": "linear", "use_bias": true, "kernel_initializer": {"class_name": "RandomUniform", "config": {"minval": -0.025, "maxval": 0.025, "seed": null}}, "bias_initializer": {"class_name": "RandomUniform", "config": {"minval": -0.025, "maxval": 0.025, "seed": null}}, "kernel_regularizer": null, "bias_regularizer": null, "activity_regularizer": null, "kernel_constraint": null, "bias_constraint": null}, "name": "conv2d_67", "inbound_nodes": [[["re_lu_6", 0, 0, {}]]]}, {"class_name": "Conv2D", "config": {"name": "conv2d_68", "trainable": true, "dtype": "float32", "filters": 21, "kernel_size": [7, 7], "strides": [1, 1], "padding": "same", "data_format": "channels_last", "dilation_rate": [1, 1], "groups": 1, "activation": "linear", "use_bias": true, "kernel_initializer": {"class_name": "RandomUniform", "config": {"minval": -0.017857142857142856, "maxval": 0.017857142857142856, "seed": null}}, "bias_initializer": {"class_name": "RandomUniform", "config": {"minval": -0.017857142857142856, "maxval": 0.017857142857142856, "seed": null}}, "kernel_regularizer": null, "bias_regularizer": null, "activity_regularizer": null, "kernel_constraint": null, "bias_constraint": null}, "name": "conv2d_68", "inbound_nodes": [[["re_lu_6", 0, 0, {}]]]}, {"class_name": "Concatenate", "config": {"name": "concatenate_13", "trainable": true, "dtype": "float32", "axis": -1}, "name": "concatenate_13", "inbound_nodes": [[["conv2d_66", 0, 0, {}], ["conv2d_67", 0, 0, {}], ["conv2d_68", 0, 0, {}]]]}, {"class_name": "Conv2D", "config": {"name": "conv2d_69", "trainable": true, "dtype": "float32", "filters": 64, "kernel_size": [3, 3], "strides": [1, 1], "padding": "same", "data_format": "channels_last", "dilation_rate": [1, 1], "groups": 1, "activation": "linear", "use_bias": true, "kernel_initializer": {"class_name": "RandomUniform", "config": {"minval": -0.0419960525565808, "maxval": 0.0419960525565808, "seed": null}}, "bias_initializer": {"class_name": "RandomUniform", "config": {"minval": -0.0419960525565808, "maxval": 0.0419960525565808, "seed": null}}, "kernel_regularizer": null, "bias_regularizer": null, "activity_regularizer": null, "kernel_constraint": null, "bias_constraint": null}, "name": "conv2d_69", "inbound_nodes": [[["concatenate_13", 0, 0, {}]]]}, {"class_name": "TensorFlowOpLayer", "config": {"name": "Mean_6", "trainable": true, "dtype": "float32", "node_def": {"name": "Mean_6", "op": "Mean", "input": ["conv2d_69/BiasAdd", "Mean_6/reduction_indices"], "attr": {"T": {"type": "DT_FLOAT"}, "Tidx": {"type": "DT_INT32"}, "keep_dims": {"b": true}}}, "constants": {"1": [1, 2]}}, "name": "tf_op_layer_Mean_6", "inbound_nodes": [[["conv2d_69", 0, 0, {}]]]}, {"class_name": "Conv2D", "config": {"name": "conv2d_70", "trainable": true, "dtype": "float32", "filters": 4, "kernel_size": [1, 1], "strides": [1, 1], "padding": "same", "data_format": "channels_last", "dilation_rate": [1, 1], "groups": 1, "activation": "relu", "use_bias": true, "kernel_initializer": {"class_name": "RandomUniform", "config": {"minval": -0.125, "maxval": 0.125, "seed": null}}, "bias_initializer": {"class_name": "RandomUniform", "config": {"minval": -0.125, "maxval": 0.125, "seed": null}}, "kernel_regularizer": null, "bias_regularizer": null, "activity_regularizer": null, "kernel_constraint": null, "bias_constraint": null}, "name": "conv2d_70", "inbound_nodes": [[["tf_op_layer_Mean_6", 0, 0, {}]]]}, {"class_name": "Conv2D", "config": {"name": "conv2d_71", "trainable": true, "dtype": "float32", "filters": 64, "kernel_size": [1, 1], "strides": [1, 1], "padding": "same", "data_format": "channels_last", "dilation_rate": [1, 1], "groups": 1, "activation": "sigmoid", "use_bias": true, "kernel_initializer": {"class_name": "RandomUniform", "config": {"minval": -0.5, "maxval": 0.5, "seed": null}}, "bias_initializer": {"class_name": "RandomUniform", "config": {"minval": -0.5, "maxval": 0.5, "seed": null}}, "kernel_regularizer": null, "bias_regularizer": null, "activity_regularizer": null, "kernel_constraint": null, "bias_constraint": null}, "name": "conv2d_71", "inbound_nodes": [[["conv2d_70", 0, 0, {}]]]}, {"class_name": "Multiply", "config": {"name": "multiply_6", "trainable": true, "dtype": "float32"}, "name": "multiply_6", "inbound_nodes": [[["conv2d_71", 0, 0, {}], ["conv2d_69", 0, 0, {}]]]}, {"class_name": "Add", "config": {"name": "add_7", "trainable": true, "dtype": "float32"}, "name": "add_7", "inbound_nodes": [[["multiply_6", 0, 0, {}], ["add_6", 0, 0, {}]]]}, {"class_name": "Conv2D", "config": {"name": "conv2d_72", "trainable": true, "dtype": "float32", "filters": 21, "kernel_size": [3, 3], "strides": [1, 1], "padding": "same", "data_format": "channels_last", "dilation_rate": [1, 1], "groups": 1, "activation": "linear", "use_bias": true, "kernel_initializer": {"class_name": "RandomUniform", "config": {"minval": -0.041666666666666664, "maxval": 0.041666666666666664, "seed": null}}, "bias_initializer": {"class_name": "RandomUniform", "config": {"minval": -0.041666666666666664, "maxval": 0.041666666666666664, "seed": null}}, "kernel_regularizer": null, "bias_regularizer": null, "activity_regularizer": null, "kernel_constraint": null, "bias_constraint": null}, "name": "conv2d_72", "inbound_nodes": [[["add_7", 0, 0, {}]]]}, {"class_name": "Conv2D", "config": {"name": "conv2d_73", "trainable": true, "dtype": "float32", "filters": 21, "kernel_size": [5, 5], "strides": [1, 1], "padding": "same", "data_format": "channels_last", "dilation_rate": [1, 1], "groups": 1, "activation": "linear", "use_bias": true, "kernel_initializer": {"class_name": "RandomUniform", "config": {"minval": -0.025, "maxval": 0.025, "seed": null}}, "bias_initializer": {"class_name": "RandomUniform", "config": {"minval": -0.025, "maxval": 0.025, "seed": null}}, "kernel_regularizer": null, "bias_regularizer": null, "activity_regularizer": null, "kernel_constraint": null, "bias_constraint": null}, "name": "conv2d_73", "inbound_nodes": [[["add_7", 0, 0, {}]]]}, {"class_name": "Conv2D", "config": {"name": "conv2d_74", "trainable": true, "dtype": "float32", "filters": 21, "kernel_size": [7, 7], "strides": [1, 1], "padding": "same", "data_format": "channels_last", "dilation_rate": [1, 1], "groups": 1, "activation": "linear", "use_bias": true, "kernel_initializer": {"class_name": "RandomUniform", "config": {"minval": -0.017857142857142856, "maxval": 0.017857142857142856, "seed": null}}, "bias_initializer": {"class_name": "RandomUniform", "config": {"minval": -0.017857142857142856, "maxval": 0.017857142857142856, "seed": null}}, "kernel_regularizer": null, "bias_regularizer": null, "activity_regularizer": null, "kernel_constraint": null, "bias_constraint": null}, "name": "conv2d_74", "inbound_nodes": [[["add_7", 0, 0, {}]]]}, {"class_name": "Concatenate", "config": {"name": "concatenate_14", "trainable": true, "dtype": "float32", "axis": -1}, "name": "concatenate_14", "inbound_nodes": [[["conv2d_72", 0, 0, {}], ["conv2d_73", 0, 0, {}], ["conv2d_74", 0, 0, {}]]]}, {"class_name": "Conv2D", "config": {"name": "conv2d_75", "trainable": true, "dtype": "float32", "filters": 64, "kernel_size": [3, 3], "strides": [1, 1], "padding": "same", "data_format": "channels_last", "dilation_rate": [1, 1], "groups": 1, "activation": "linear", "use_bias": true, "kernel_initializer": {"class_name": "RandomUniform", "config": {"minval": -0.0419960525565808, "maxval": 0.0419960525565808, "seed": null}}, "bias_initializer": {"class_name": "RandomUniform", "config": {"minval": -0.0419960525565808, "maxval": 0.0419960525565808, "seed": null}}, "kernel_regularizer": null, "bias_regularizer": null, "activity_regularizer": null, "kernel_constraint": null, "bias_constraint": null}, "name": "conv2d_75", "inbound_nodes": [[["concatenate_14", 0, 0, {}]]]}, {"class_name": "ReLU", "config": {"name": "re_lu_7", "trainable": true, "dtype": "float32", "max_value": null, "negative_slope": 0.0, "threshold": 0.0}, "name": "re_lu_7", "inbound_nodes": [[["conv2d_75", 0, 0, {}]]]}, {"class_name": "Conv2D", "config": {"name": "conv2d_76", "trainable": true, "dtype": "float32", "filters": 21, "kernel_size": [3, 3], "strides": [1, 1], "padding": "same", "data_format": "channels_last", "dilation_rate": [1, 1], "groups": 1, "activation": "linear", "use_bias": true, "kernel_initializer": {"class_name": "RandomUniform", "config": {"minval": -0.041666666666666664, "maxval": 0.041666666666666664, "seed": null}}, "bias_initializer": {"class_name": "RandomUniform", "config": {"minval": -0.041666666666666664, "maxval": 0.041666666666666664, "seed": null}}, "kernel_regularizer": null, "bias_regularizer": null, "activity_regularizer": null, "kernel_constraint": null, "bias_constraint": null}, "name": "conv2d_76", "inbound_nodes": [[["re_lu_7", 0, 0, {}]]]}, {"class_name": "Conv2D", "config": {"name": "conv2d_77", "trainable": true, "dtype": "float32", "filters": 21, "kernel_size": [5, 5], "strides": [1, 1], "padding": "same", "data_format": "channels_last", "dilation_rate": [1, 1], "groups": 1, "activation": "linear", "use_bias": true, "kernel_initializer": {"class_name": "RandomUniform", "config": {"minval": -0.025, "maxval": 0.025, "seed": null}}, "bias_initializer": {"class_name": "RandomUniform", "config": {"minval": -0.025, "maxval": 0.025, "seed": null}}, "kernel_regularizer": null, "bias_regularizer": null, "activity_regularizer": null, "kernel_constraint": null, "bias_constraint": null}, "name": "conv2d_77", "inbound_nodes": [[["re_lu_7", 0, 0, {}]]]}, {"class_name": "Conv2D", "config": {"name": "conv2d_78", "trainable": true, "dtype": "float32", "filters": 21, "kernel_size": [7, 7], "strides": [1, 1], "padding": "same", "data_format": "channels_last", "dilation_rate": [1, 1], "groups": 1, "activation": "linear", "use_bias": true, "kernel_initializer": {"class_name": "RandomUniform", "config": {"minval": -0.017857142857142856, "maxval": 0.017857142857142856, "seed": null}}, "bias_initializer": {"class_name": "RandomUniform", "config": {"minval": -0.017857142857142856, "maxval": 0.017857142857142856, "seed": null}}, "kernel_regularizer": null, "bias_regularizer": null, "activity_regularizer": null, "kernel_constraint": null, "bias_constraint": null}, "name": "conv2d_78", "inbound_nodes": [[["re_lu_7", 0, 0, {}]]]}, {"class_name": "Concatenate", "config": {"name": "concatenate_15", "trainable": true, "dtype": "float32", "axis": -1}, "name": "concatenate_15", "inbound_nodes": [[["conv2d_76", 0, 0, {}], ["conv2d_77", 0, 0, {}], ["conv2d_78", 0, 0, {}]]]}, {"class_name": "Conv2D", "config": {"name": "conv2d_79", "trainable": true, "dtype": "float32", "filters": 64, "kernel_size": [3, 3], "strides": [1, 1], "padding": "same", "data_format": "channels_last", "dilation_rate": [1, 1], "groups": 1, "activation": "linear", "use_bias": true, "kernel_initializer": {"class_name": "RandomUniform", "config": {"minval": -0.0419960525565808, "maxval": 0.0419960525565808, "seed": null}}, "bias_initializer": {"class_name": "RandomUniform", "config": {"minval": -0.0419960525565808, "maxval": 0.0419960525565808, "seed": null}}, "kernel_regularizer": null, "bias_regularizer": null, "activity_regularizer": null, "kernel_constraint": null, "bias_constraint": null}, "name": "conv2d_79", "inbound_nodes": [[["concatenate_15", 0, 0, {}]]]}, {"class_name": "TensorFlowOpLayer", "config": {"name": "Mean_7", "trainable": true, "dtype": "float32", "node_def": {"name": "Mean_7", "op": "Mean", "input": ["conv2d_79/BiasAdd", "Mean_7/reduction_indices"], "attr": {"keep_dims": {"b": true}, "Tidx": {"type": "DT_INT32"}, "T": {"type": "DT_FLOAT"}}}, "constants": {"1": [1, 2]}}, "name": "tf_op_layer_Mean_7", "inbound_nodes": [[["conv2d_79", 0, 0, {}]]]}, {"class_name": "Conv2D", "config": {"name": "conv2d_80", "trainable": true, "dtype": "float32", "filters": 4, "kernel_size": [1, 1], "strides": [1, 1], "padding": "same", "data_format": "channels_last", "dilation_rate": [1, 1], "groups": 1, "activation": "relu", "use_bias": true, "kernel_initializer": {"class_name": "RandomUniform", "config": {"minval": -0.125, "maxval": 0.125, "seed": null}}, "bias_initializer": {"class_name": "RandomUniform", "config": {"minval": -0.125, "maxval": 0.125, "seed": null}}, "kernel_regularizer": null, "bias_regularizer": null, "activity_regularizer": null, "kernel_constraint": null, "bias_constraint": null}, "name": "conv2d_80", "inbound_nodes": [[["tf_op_layer_Mean_7", 0, 0, {}]]]}, {"class_name": "Conv2D", "config": {"name": "conv2d_81", "trainable": true, "dtype": "float32", "filters": 64, "kernel_size": [1, 1], "strides": [1, 1], "padding": "same", "data_format": "channels_last", "dilation_rate": [1, 1], "groups": 1, "activation": "sigmoid", "use_bias": true, "kernel_initializer": {"class_name": "RandomUniform", "config": {"minval": -0.5, "maxval": 0.5, "seed": null}}, "bias_initializer": {"class_name": "RandomUniform", "config": {"minval": -0.5, "maxval": 0.5, "seed": null}}, "kernel_regularizer": null, "bias_regularizer": null, "activity_regularizer": null, "kernel_constraint": null, "bias_constraint": null}, "name": "conv2d_81", "inbound_nodes": [[["conv2d_80", 0, 0, {}]]]}, {"class_name": "Multiply", "config": {"name": "multiply_7", "trainable": true, "dtype": "float32"}, "name": "multiply_7", "inbound_nodes": [[["conv2d_81", 0, 0, {}], ["conv2d_79", 0, 0, {}]]]}, {"class_name": "Add", "config": {"name": "add_8", "trainable": true, "dtype": "float32"}, "name": "add_8", "inbound_nodes": [[["multiply_7", 0, 0, {}], ["add_7", 0, 0, {}]]]}, {"class_name": "Conv2D", "config": {"name": "conv2d_82", "trainable": true, "dtype": "float32", "filters": 21, "kernel_size": [3, 3], "strides": [1, 1], "padding": "same", "data_format": "channels_last", "dilation_rate": [1, 1], "groups": 1, "activation": "linear", "use_bias": true, "kernel_initializer": {"class_name": "RandomUniform", "config": {"minval": -0.041666666666666664, "maxval": 0.041666666666666664, "seed": null}}, "bias_initializer": {"class_name": "RandomUniform", "config": {"minval": -0.041666666666666664, "maxval": 0.041666666666666664, "seed": null}}, "kernel_regularizer": null, "bias_regularizer": null, "activity_regularizer": null, "kernel_constraint": null, "bias_constraint": null}, "name": "conv2d_82", "inbound_nodes": [[["add_8", 0, 0, {}]]]}, {"class_name": "Conv2D", "config": {"name": "conv2d_83", "trainable": true, "dtype": "float32", "filters": 21, "kernel_size": [5, 5], "strides": [1, 1], "padding": "same", "data_format": "channels_last", "dilation_rate": [1, 1], "groups": 1, "activation": "linear", "use_bias": true, "kernel_initializer": {"class_name": "RandomUniform", "config": {"minval": -0.025, "maxval": 0.025, "seed": null}}, "bias_initializer": {"class_name": "RandomUniform", "config": {"minval": -0.025, "maxval": 0.025, "seed": null}}, "kernel_regularizer": null, "bias_regularizer": null, "activity_regularizer": null, "kernel_constraint": null, "bias_constraint": null}, "name": "conv2d_83", "inbound_nodes": [[["add_8", 0, 0, {}]]]}, {"class_name": "Conv2D", "config": {"name": "conv2d_84", "trainable": true, "dtype": "float32", "filters": 21, "kernel_size": [7, 7], "strides": [1, 1], "padding": "same", "data_format": "channels_last", "dilation_rate": [1, 1], "groups": 1, "activation": "linear", "use_bias": true, "kernel_initializer": {"class_name": "RandomUniform", "config": {"minval": -0.017857142857142856, "maxval": 0.017857142857142856, "seed": null}}, "bias_initializer": {"class_name": "RandomUniform", "config": {"minval": -0.017857142857142856, "maxval": 0.017857142857142856, "seed": null}}, "kernel_regularizer": null, "bias_regularizer": null, "activity_regularizer": null, "kernel_constraint": null, "bias_constraint": null}, "name": "conv2d_84", "inbound_nodes": [[["add_8", 0, 0, {}]]]}, {"class_name": "Concatenate", "config": {"name": "concatenate_16", "trainable": true, "dtype": "float32", "axis": -1}, "name": "concatenate_16", "inbound_nodes": [[["conv2d_82", 0, 0, {}], ["conv2d_83", 0, 0, {}], ["conv2d_84", 0, 0, {}]]]}, {"class_name": "Conv2D", "config": {"name": "conv2d_85", "trainable": true, "dtype": "float32", "filters": 64, "kernel_size": [3, 3], "strides": [1, 1], "padding": "same", "data_format": "channels_last", "dilation_rate": [1, 1], "groups": 1, "activation": "linear", "use_bias": true, "kernel_initializer": {"class_name": "RandomUniform", "config": {"minval": -0.0419960525565808, "maxval": 0.0419960525565808, "seed": null}}, "bias_initializer": {"class_name": "RandomUniform", "config": {"minval": -0.0419960525565808, "maxval": 0.0419960525565808, "seed": null}}, "kernel_regularizer": null, "bias_regularizer": null, "activity_regularizer": null, "kernel_constraint": null, "bias_constraint": null}, "name": "conv2d_85", "inbound_nodes": [[["concatenate_16", 0, 0, {}]]]}, {"class_name": "ReLU", "config": {"name": "re_lu_8", "trainable": true, "dtype": "float32", "max_value": null, "negative_slope": 0.0, "threshold": 0.0}, "name": "re_lu_8", "inbound_nodes": [[["conv2d_85", 0, 0, {}]]]}, {"class_name": "Conv2D", "config": {"name": "conv2d_86", "trainable": true, "dtype": "float32", "filters": 21, "kernel_size": [3, 3], "strides": [1, 1], "padding": "same", "data_format": "channels_last", "dilation_rate": [1, 1], "groups": 1, "activation": "linear", "use_bias": true, "kernel_initializer": {"class_name": "RandomUniform", "config": {"minval": -0.041666666666666664, "maxval": 0.041666666666666664, "seed": null}}, "bias_initializer": {"class_name": "RandomUniform", "config": {"minval": -0.041666666666666664, "maxval": 0.041666666666666664, "seed": null}}, "kernel_regularizer": null, "bias_regularizer": null, "activity_regularizer": null, "kernel_constraint": null, "bias_constraint": null}, "name": "conv2d_86", "inbound_nodes": [[["re_lu_8", 0, 0, {}]]]}, {"class_name": "Conv2D", "config": {"name": "conv2d_87", "trainable": true, "dtype": "float32", "filters": 21, "kernel_size": [5, 5], "strides": [1, 1], "padding": "same", "data_format": "channels_last", "dilation_rate": [1, 1], "groups": 1, "activation": "linear", "use_bias": true, "kernel_initializer": {"class_name": "RandomUniform", "config": {"minval": -0.025, "maxval": 0.025, "seed": null}}, "bias_initializer": {"class_name": "RandomUniform", "config": {"minval": -0.025, "maxval": 0.025, "seed": null}}, "kernel_regularizer": null, "bias_regularizer": null, "activity_regularizer": null, "kernel_constraint": null, "bias_constraint": null}, "name": "conv2d_87", "inbound_nodes": [[["re_lu_8", 0, 0, {}]]]}, {"class_name": "Conv2D", "config": {"name": "conv2d_88", "trainable": true, "dtype": "float32", "filters": 21, "kernel_size": [7, 7], "strides": [1, 1], "padding": "same", "data_format": "channels_last", "dilation_rate": [1, 1], "groups": 1, "activation": "linear", "use_bias": true, "kernel_initializer": {"class_name": "RandomUniform", "config": {"minval": -0.017857142857142856, "maxval": 0.017857142857142856, "seed": null}}, "bias_initializer": {"class_name": "RandomUniform", "config": {"minval": -0.017857142857142856, "maxval": 0.017857142857142856, "seed": null}}, "kernel_regularizer": null, "bias_regularizer": null, "activity_regularizer": null, "kernel_constraint": null, "bias_constraint": null}, "name": "conv2d_88", "inbound_nodes": [[["re_lu_8", 0, 0, {}]]]}, {"class_name": "Concatenate", "config": {"name": "concatenate_17", "trainable": true, "dtype": "float32", "axis": -1}, "name": "concatenate_17", "inbound_nodes": [[["conv2d_86", 0, 0, {}], ["conv2d_87", 0, 0, {}], ["conv2d_88", 0, 0, {}]]]}, {"class_name": "Conv2D", "config": {"name": "conv2d_89", "trainable": true, "dtype": "float32", "filters": 64, "kernel_size": [3, 3], "strides": [1, 1], "padding": "same", "data_format": "channels_last", "dilation_rate": [1, 1], "groups": 1, "activation": "linear", "use_bias": true, "kernel_initializer": {"class_name": "RandomUniform", "config": {"minval": -0.0419960525565808, "maxval": 0.0419960525565808, "seed": null}}, "bias_initializer": {"class_name": "RandomUniform", "config": {"minval": -0.0419960525565808, "maxval": 0.0419960525565808, "seed": null}}, "kernel_regularizer": null, "bias_regularizer": null, "activity_regularizer": null, "kernel_constraint": null, "bias_constraint": null}, "name": "conv2d_89", "inbound_nodes": [[["concatenate_17", 0, 0, {}]]]}, {"class_name": "TensorFlowOpLayer", "config": {"name": "Mean_8", "trainable": true, "dtype": "float32", "node_def": {"name": "Mean_8", "op": "Mean", "input": ["conv2d_89/BiasAdd", "Mean_8/reduction_indices"], "attr": {"Tidx": {"type": "DT_INT32"}, "T": {"type": "DT_FLOAT"}, "keep_dims": {"b": true}}}, "constants": {"1": [1, 2]}}, "name": "tf_op_layer_Mean_8", "inbound_nodes": [[["conv2d_89", 0, 0, {}]]]}, {"class_name": "Conv2D", "config": {"name": "conv2d_90", "trainable": true, "dtype": "float32", "filters": 4, "kernel_size": [1, 1], "strides": [1, 1], "padding": "same", "data_format": "channels_last", "dilation_rate": [1, 1], "groups": 1, "activation": "relu", "use_bias": true, "kernel_initializer": {"class_name": "RandomUniform", "config": {"minval": -0.125, "maxval": 0.125, "seed": null}}, "bias_initializer": {"class_name": "RandomUniform", "config": {"minval": -0.125, "maxval": 0.125, "seed": null}}, "kernel_regularizer": null, "bias_regularizer": null, "activity_regularizer": null, "kernel_constraint": null, "bias_constraint": null}, "name": "conv2d_90", "inbound_nodes": [[["tf_op_layer_Mean_8", 0, 0, {}]]]}, {"class_name": "Conv2D", "config": {"name": "conv2d_91", "trainable": true, "dtype": "float32", "filters": 64, "kernel_size": [1, 1], "strides": [1, 1], "padding": "same", "data_format": "channels_last", "dilation_rate": [1, 1], "groups": 1, "activation": "sigmoid", "use_bias": true, "kernel_initializer": {"class_name": "RandomUniform", "config": {"minval": -0.5, "maxval": 0.5, "seed": null}}, "bias_initializer": {"class_name": "RandomUniform", "config": {"minval": -0.5, "maxval": 0.5, "seed": null}}, "kernel_regularizer": null, "bias_regularizer": null, "activity_regularizer": null, "kernel_constraint": null, "bias_constraint": null}, "name": "conv2d_91", "inbound_nodes": [[["conv2d_90", 0, 0, {}]]]}, {"class_name": "Multiply", "config": {"name": "multiply_8", "trainable": true, "dtype": "float32"}, "name": "multiply_8", "inbound_nodes": [[["conv2d_91", 0, 0, {}], ["conv2d_89", 0, 0, {}]]]}, {"class_name": "Add", "config": {"name": "add_9", "trainable": true, "dtype": "float32"}, "name": "add_9", "inbound_nodes": [[["multiply_8", 0, 0, {}], ["add_8", 0, 0, {}]]]}, {"class_name": "Conv2D", "config": {"name": "conv2d_92", "trainable": true, "dtype": "float32", "filters": 21, "kernel_size": [3, 3], "strides": [1, 1], "padding": "same", "data_format": "channels_last", "dilation_rate": [1, 1], "groups": 1, "activation": "linear", "use_bias": true, "kernel_initializer": {"class_name": "RandomUniform", "config": {"minval": -0.041666666666666664, "maxval": 0.041666666666666664, "seed": null}}, "bias_initializer": {"class_name": "RandomUniform", "config": {"minval": -0.041666666666666664, "maxval": 0.041666666666666664, "seed": null}}, "kernel_regularizer": null, "bias_regularizer": null, "activity_regularizer": null, "kernel_constraint": null, "bias_constraint": null}, "name": "conv2d_92", "inbound_nodes": [[["add_9", 0, 0, {}]]]}, {"class_name": "Conv2D", "config": {"name": "conv2d_93", "trainable": true, "dtype": "float32", "filters": 21, "kernel_size": [5, 5], "strides": [1, 1], "padding": "same", "data_format": "channels_last", "dilation_rate": [1, 1], "groups": 1, "activation": "linear", "use_bias": true, "kernel_initializer": {"class_name": "RandomUniform", "config": {"minval": -0.025, "maxval": 0.025, "seed": null}}, "bias_initializer": {"class_name": "RandomUniform", "config": {"minval": -0.025, "maxval": 0.025, "seed": null}}, "kernel_regularizer": null, "bias_regularizer": null, "activity_regularizer": null, "kernel_constraint": null, "bias_constraint": null}, "name": "conv2d_93", "inbound_nodes": [[["add_9", 0, 0, {}]]]}, {"class_name": "Conv2D", "config": {"name": "conv2d_94", "trainable": true, "dtype": "float32", "filters": 21, "kernel_size": [7, 7], "strides": [1, 1], "padding": "same", "data_format": "channels_last", "dilation_rate": [1, 1], "groups": 1, "activation": "linear", "use_bias": true, "kernel_initializer": {"class_name": "RandomUniform", "config": {"minval": -0.017857142857142856, "maxval": 0.017857142857142856, "seed": null}}, "bias_initializer": {"class_name": "RandomUniform", "config": {"minval": -0.017857142857142856, "maxval": 0.017857142857142856, "seed": null}}, "kernel_regularizer": null, "bias_regularizer": null, "activity_regularizer": null, "kernel_constraint": null, "bias_constraint": null}, "name": "conv2d_94", "inbound_nodes": [[["add_9", 0, 0, {}]]]}, {"class_name": "Concatenate", "config": {"name": "concatenate_18", "trainable": true, "dtype": "float32", "axis": -1}, "name": "concatenate_18", "inbound_nodes": [[["conv2d_92", 0, 0, {}], ["conv2d_93", 0, 0, {}], ["conv2d_94", 0, 0, {}]]]}, {"class_name": "Conv2D", "config": {"name": "conv2d_95", "trainable": true, "dtype": "float32", "filters": 64, "kernel_size": [3, 3], "strides": [1, 1], "padding": "same", "data_format": "channels_last", "dilation_rate": [1, 1], "groups": 1, "activation": "linear", "use_bias": true, "kernel_initializer": {"class_name": "RandomUniform", "config": {"minval": -0.0419960525565808, "maxval": 0.0419960525565808, "seed": null}}, "bias_initializer": {"class_name": "RandomUniform", "config": {"minval": -0.0419960525565808, "maxval": 0.0419960525565808, "seed": null}}, "kernel_regularizer": null, "bias_regularizer": null, "activity_regularizer": null, "kernel_constraint": null, "bias_constraint": null}, "name": "conv2d_95", "inbound_nodes": [[["concatenate_18", 0, 0, {}]]]}, {"class_name": "ReLU", "config": {"name": "re_lu_9", "trainable": true, "dtype": "float32", "max_value": null, "negative_slope": 0.0, "threshold": 0.0}, "name": "re_lu_9", "inbound_nodes": [[["conv2d_95", 0, 0, {}]]]}, {"class_name": "Conv2D", "config": {"name": "conv2d_96", "trainable": true, "dtype": "float32", "filters": 21, "kernel_size": [3, 3], "strides": [1, 1], "padding": "same", "data_format": "channels_last", "dilation_rate": [1, 1], "groups": 1, "activation": "linear", "use_bias": true, "kernel_initializer": {"class_name": "RandomUniform", "config": {"minval": -0.041666666666666664, "maxval": 0.041666666666666664, "seed": null}}, "bias_initializer": {"class_name": "RandomUniform", "config": {"minval": -0.041666666666666664, "maxval": 0.041666666666666664, "seed": null}}, "kernel_regularizer": null, "bias_regularizer": null, "activity_regularizer": null, "kernel_constraint": null, "bias_constraint": null}, "name": "conv2d_96", "inbound_nodes": [[["re_lu_9", 0, 0, {}]]]}, {"class_name": "Conv2D", "config": {"name": "conv2d_97", "trainable": true, "dtype": "float32", "filters": 21, "kernel_size": [5, 5], "strides": [1, 1], "padding": "same", "data_format": "channels_last", "dilation_rate": [1, 1], "groups": 1, "activation": "linear", "use_bias": true, "kernel_initializer": {"class_name": "RandomUniform", "config": {"minval": -0.025, "maxval": 0.025, "seed": null}}, "bias_initializer": {"class_name": "RandomUniform", "config": {"minval": -0.025, "maxval": 0.025, "seed": null}}, "kernel_regularizer": null, "bias_regularizer": null, "activity_regularizer": null, "kernel_constraint": null, "bias_constraint": null}, "name": "conv2d_97", "inbound_nodes": [[["re_lu_9", 0, 0, {}]]]}, {"class_name": "Conv2D", "config": {"name": "conv2d_98", "trainable": true, "dtype": "float32", "filters": 21, "kernel_size": [7, 7], "strides": [1, 1], "padding": "same", "data_format": "channels_last", "dilation_rate": [1, 1], "groups": 1, "activation": "linear", "use_bias": true, "kernel_initializer": {"class_name": "RandomUniform", "config": {"minval": -0.017857142857142856, "maxval": 0.017857142857142856, "seed": null}}, "bias_initializer": {"class_name": "RandomUniform", "config": {"minval": -0.017857142857142856, "maxval": 0.017857142857142856, "seed": null}}, "kernel_regularizer": null, "bias_regularizer": null, "activity_regularizer": null, "kernel_constraint": null, "bias_constraint": null}, "name": "conv2d_98", "inbound_nodes": [[["re_lu_9", 0, 0, {}]]]}, {"class_name": "Concatenate", "config": {"name": "concatenate_19", "trainable": true, "dtype": "float32", "axis": -1}, "name": "concatenate_19", "inbound_nodes": [[["conv2d_96", 0, 0, {}], ["conv2d_97", 0, 0, {}], ["conv2d_98", 0, 0, {}]]]}, {"class_name": "Conv2D", "config": {"name": "conv2d_99", "trainable": true, "dtype": "float32", "filters": 64, "kernel_size": [3, 3], "strides": [1, 1], "padding": "same", "data_format": "channels_last", "dilation_rate": [1, 1], "groups": 1, "activation": "linear", "use_bias": true, "kernel_initializer": {"class_name": "RandomUniform", "config": {"minval": -0.0419960525565808, "maxval": 0.0419960525565808, "seed": null}}, "bias_initializer": {"class_name": "RandomUniform", "config": {"minval": -0.0419960525565808, "maxval": 0.0419960525565808, "seed": null}}, "kernel_regularizer": null, "bias_regularizer": null, "activity_regularizer": null, "kernel_constraint": null, "bias_constraint": null}, "name": "conv2d_99", "inbound_nodes": [[["concatenate_19", 0, 0, {}]]]}, {"class_name": "TensorFlowOpLayer", "config": {"name": "Mean_9", "trainable": true, "dtype": "float32", "node_def": {"name": "Mean_9", "op": "Mean", "input": ["conv2d_99/BiasAdd", "Mean_9/reduction_indices"], "attr": {"keep_dims": {"b": true}, "T": {"type": "DT_FLOAT"}, "Tidx": {"type": "DT_INT32"}}}, "constants": {"1": [1, 2]}}, "name": "tf_op_layer_Mean_9", "inbound_nodes": [[["conv2d_99", 0, 0, {}]]]}, {"class_name": "Conv2D", "config": {"name": "conv2d_100", "trainable": true, "dtype": "float32", "filters": 4, "kernel_size": [1, 1], "strides": [1, 1], "padding": "same", "data_format": "channels_last", "dilation_rate": [1, 1], "groups": 1, "activation": "relu", "use_bias": true, "kernel_initializer": {"class_name": "RandomUniform", "config": {"minval": -0.125, "maxval": 0.125, "seed": null}}, "bias_initializer": {"class_name": "RandomUniform", "config": {"minval": -0.125, "maxval": 0.125, "seed": null}}, "kernel_regularizer": null, "bias_regularizer": null, "activity_regularizer": null, "kernel_constraint": null, "bias_constraint": null}, "name": "conv2d_100", "inbound_nodes": [[["tf_op_layer_Mean_9", 0, 0, {}]]]}, {"class_name": "Conv2D", "config": {"name": "conv2d_101", "trainable": true, "dtype": "float32", "filters": 64, "kernel_size": [1, 1], "strides": [1, 1], "padding": "same", "data_format": "channels_last", "dilation_rate": [1, 1], "groups": 1, "activation": "sigmoid", "use_bias": true, "kernel_initializer": {"class_name": "RandomUniform", "config": {"minval": -0.5, "maxval": 0.5, "seed": null}}, "bias_initializer": {"class_name": "RandomUniform", "config": {"minval": -0.5, "maxval": 0.5, "seed": null}}, "kernel_regularizer": null, "bias_regularizer": null, "activity_regularizer": null, "kernel_constraint": null, "bias_constraint": null}, "name": "conv2d_101", "inbound_nodes": [[["conv2d_100", 0, 0, {}]]]}, {"class_name": "Multiply", "config": {"name": "multiply_9", "trainable": true, "dtype": "float32"}, "name": "multiply_9", "inbound_nodes": [[["conv2d_101", 0, 0, {}], ["conv2d_99", 0, 0, {}]]]}, {"class_name": "Add", "config": {"name": "add_10", "trainable": true, "dtype": "float32"}, "name": "add_10", "inbound_nodes": [[["multiply_9", 0, 0, {}], ["add_9", 0, 0, {}]]]}, {"class_name": "Conv2D", "config": {"name": "conv2d_102", "trainable": true, "dtype": "float32", "filters": 21, "kernel_size": [3, 3], "strides": [1, 1], "padding": "same", "data_format": "channels_last", "dilation_rate": [1, 1], "groups": 1, "activation": "linear", "use_bias": true, "kernel_initializer": {"class_name": "RandomUniform", "config": {"minval": -0.041666666666666664, "maxval": 0.041666666666666664, "seed": null}}, "bias_initializer": {"class_name": "RandomUniform", "config": {"minval": -0.041666666666666664, "maxval": 0.041666666666666664, "seed": null}}, "kernel_regularizer": null, "bias_regularizer": null, "activity_regularizer": null, "kernel_constraint": null, "bias_constraint": null}, "name": "conv2d_102", "inbound_nodes": [[["add_10", 0, 0, {}]]]}, {"class_name": "Conv2D", "config": {"name": "conv2d_103", "trainable": true, "dtype": "float32", "filters": 21, "kernel_size": [5, 5], "strides": [1, 1], "padding": "same", "data_format": "channels_last", "dilation_rate": [1, 1], "groups": 1, "activation": "linear", "use_bias": true, "kernel_initializer": {"class_name": "RandomUniform", "config": {"minval": -0.025, "maxval": 0.025, "seed": null}}, "bias_initializer": {"class_name": "RandomUniform", "config": {"minval": -0.025, "maxval": 0.025, "seed": null}}, "kernel_regularizer": null, "bias_regularizer": null, "activity_regularizer": null, "kernel_constraint": null, "bias_constraint": null}, "name": "conv2d_103", "inbound_nodes": [[["add_10", 0, 0, {}]]]}, {"class_name": "Conv2D", "config": {"name": "conv2d_104", "trainable": true, "dtype": "float32", "filters": 21, "kernel_size": [7, 7], "strides": [1, 1], "padding": "same", "data_format": "channels_last", "dilation_rate": [1, 1], "groups": 1, "activation": "linear", "use_bias": true, "kernel_initializer": {"class_name": "RandomUniform", "config": {"minval": -0.017857142857142856, "maxval": 0.017857142857142856, "seed": null}}, "bias_initializer": {"class_name": "RandomUniform", "config": {"minval": -0.017857142857142856, "maxval": 0.017857142857142856, "seed": null}}, "kernel_regularizer": null, "bias_regularizer": null, "activity_regularizer": null, "kernel_constraint": null, "bias_constraint": null}, "name": "conv2d_104", "inbound_nodes": [[["add_10", 0, 0, {}]]]}, {"class_name": "Concatenate", "config": {"name": "concatenate_20", "trainable": true, "dtype": "float32", "axis": -1}, "name": "concatenate_20", "inbound_nodes": [[["conv2d_102", 0, 0, {}], ["conv2d_103", 0, 0, {}], ["conv2d_104", 0, 0, {}]]]}, {"class_name": "Conv2D", "config": {"name": "conv2d_105", "trainable": true, "dtype": "float32", "filters": 64, "kernel_size": [3, 3], "strides": [1, 1], "padding": "same", "data_format": "channels_last", "dilation_rate": [1, 1], "groups": 1, "activation": "linear", "use_bias": true, "kernel_initializer": {"class_name": "RandomUniform", "config": {"minval": -0.0419960525565808, "maxval": 0.0419960525565808, "seed": null}}, "bias_initializer": {"class_name": "RandomUniform", "config": {"minval": -0.0419960525565808, "maxval": 0.0419960525565808, "seed": null}}, "kernel_regularizer": null, "bias_regularizer": null, "activity_regularizer": null, "kernel_constraint": null, "bias_constraint": null}, "name": "conv2d_105", "inbound_nodes": [[["concatenate_20", 0, 0, {}]]]}, {"class_name": "ReLU", "config": {"name": "re_lu_10", "trainable": true, "dtype": "float32", "max_value": null, "negative_slope": 0.0, "threshold": 0.0}, "name": "re_lu_10", "inbound_nodes": [[["conv2d_105", 0, 0, {}]]]}, {"class_name": "Conv2D", "config": {"name": "conv2d_106", "trainable": true, "dtype": "float32", "filters": 21, "kernel_size": [3, 3], "strides": [1, 1], "padding": "same", "data_format": "channels_last", "dilation_rate": [1, 1], "groups": 1, "activation": "linear", "use_bias": true, "kernel_initializer": {"class_name": "RandomUniform", "config": {"minval": -0.041666666666666664, "maxval": 0.041666666666666664, "seed": null}}, "bias_initializer": {"class_name": "RandomUniform", "config": {"minval": -0.041666666666666664, "maxval": 0.041666666666666664, "seed": null}}, "kernel_regularizer": null, "bias_regularizer": null, "activity_regularizer": null, "kernel_constraint": null, "bias_constraint": null}, "name": "conv2d_106", "inbound_nodes": [[["re_lu_10", 0, 0, {}]]]}, {"class_name": "Conv2D", "config": {"name": "conv2d_107", "trainable": true, "dtype": "float32", "filters": 21, "kernel_size": [5, 5], "strides": [1, 1], "padding": "same", "data_format": "channels_last", "dilation_rate": [1, 1], "groups": 1, "activation": "linear", "use_bias": true, "kernel_initializer": {"class_name": "RandomUniform", "config": {"minval": -0.025, "maxval": 0.025, "seed": null}}, "bias_initializer": {"class_name": "RandomUniform", "config": {"minval": -0.025, "maxval": 0.025, "seed": null}}, "kernel_regularizer": null, "bias_regularizer": null, "activity_regularizer": null, "kernel_constraint": null, "bias_constraint": null}, "name": "conv2d_107", "inbound_nodes": [[["re_lu_10", 0, 0, {}]]]}, {"class_name": "Conv2D", "config": {"name": "conv2d_108", "trainable": true, "dtype": "float32", "filters": 21, "kernel_size": [7, 7], "strides": [1, 1], "padding": "same", "data_format": "channels_last", "dilation_rate": [1, 1], "groups": 1, "activation": "linear", "use_bias": true, "kernel_initializer": {"class_name": "RandomUniform", "config": {"minval": -0.017857142857142856, "maxval": 0.017857142857142856, "seed": null}}, "bias_initializer": {"class_name": "RandomUniform", "config": {"minval": -0.017857142857142856, "maxval": 0.017857142857142856, "seed": null}}, "kernel_regularizer": null, "bias_regularizer": null, "activity_regularizer": null, "kernel_constraint": null, "bias_constraint": null}, "name": "conv2d_108", "inbound_nodes": [[["re_lu_10", 0, 0, {}]]]}, {"class_name": "Concatenate", "config": {"name": "concatenate_21", "trainable": true, "dtype": "float32", "axis": -1}, "name": "concatenate_21", "inbound_nodes": [[["conv2d_106", 0, 0, {}], ["conv2d_107", 0, 0, {}], ["conv2d_108", 0, 0, {}]]]}, {"class_name": "Conv2D", "config": {"name": "conv2d_109", "trainable": true, "dtype": "float32", "filters": 64, "kernel_size": [3, 3], "strides": [1, 1], "padding": "same", "data_format": "channels_last", "dilation_rate": [1, 1], "groups": 1, "activation": "linear", "use_bias": true, "kernel_initializer": {"class_name": "RandomUniform", "config": {"minval": -0.0419960525565808, "maxval": 0.0419960525565808, "seed": null}}, "bias_initializer": {"class_name": "RandomUniform", "config": {"minval": -0.0419960525565808, "maxval": 0.0419960525565808, "seed": null}}, "kernel_regularizer": null, "bias_regularizer": null, "activity_regularizer": null, "kernel_constraint": null, "bias_constraint": null}, "name": "conv2d_109", "inbound_nodes": [[["concatenate_21", 0, 0, {}]]]}, {"class_name": "TensorFlowOpLayer", "config": {"name": "Mean_10", "trainable": true, "dtype": "float32", "node_def": {"name": "Mean_10", "op": "Mean", "input": ["conv2d_109/BiasAdd", "Mean_10/reduction_indices"], "attr": {"keep_dims": {"b": true}, "T": {"type": "DT_FLOAT"}, "Tidx": {"type": "DT_INT32"}}}, "constants": {"1": [1, 2]}}, "name": "tf_op_layer_Mean_10", "inbound_nodes": [[["conv2d_109", 0, 0, {}]]]}, {"class_name": "Conv2D", "config": {"name": "conv2d_110", "trainable": true, "dtype": "float32", "filters": 4, "kernel_size": [1, 1], "strides": [1, 1], "padding": "same", "data_format": "channels_last", "dilation_rate": [1, 1], "groups": 1, "activation": "relu", "use_bias": true, "kernel_initializer": {"class_name": "RandomUniform", "config": {"minval": -0.125, "maxval": 0.125, "seed": null}}, "bias_initializer": {"class_name": "RandomUniform", "config": {"minval": -0.125, "maxval": 0.125, "seed": null}}, "kernel_regularizer": null, "bias_regularizer": null, "activity_regularizer": null, "kernel_constraint": null, "bias_constraint": null}, "name": "conv2d_110", "inbound_nodes": [[["tf_op_layer_Mean_10", 0, 0, {}]]]}, {"class_name": "Conv2D", "config": {"name": "conv2d_111", "trainable": true, "dtype": "float32", "filters": 64, "kernel_size": [1, 1], "strides": [1, 1], "padding": "same", "data_format": "channels_last", "dilation_rate": [1, 1], "groups": 1, "activation": "sigmoid", "use_bias": true, "kernel_initializer": {"class_name": "RandomUniform", "config": {"minval": -0.5, "maxval": 0.5, "seed": null}}, "bias_initializer": {"class_name": "RandomUniform", "config": {"minval": -0.5, "maxval": 0.5, "seed": null}}, "kernel_regularizer": null, "bias_regularizer": null, "activity_regularizer": null, "kernel_constraint": null, "bias_constraint": null}, "name": "conv2d_111", "inbound_nodes": [[["conv2d_110", 0, 0, {}]]]}, {"class_name": "Multiply", "config": {"name": "multiply_10", "trainable": true, "dtype": "float32"}, "name": "multiply_10", "inbound_nodes": [[["conv2d_111", 0, 0, {}], ["conv2d_109", 0, 0, {}]]]}, {"class_name": "Add", "config": {"name": "add_11", "trainable": true, "dtype": "float32"}, "name": "add_11", "inbound_nodes": [[["multiply_10", 0, 0, {}], ["add_10", 0, 0, {}]]]}, {"class_name": "Conv2D", "config": {"name": "conv2d_112", "trainable": true, "dtype": "float32", "filters": 21, "kernel_size": [3, 3], "strides": [1, 1], "padding": "same", "data_format": "channels_last", "dilation_rate": [1, 1], "groups": 1, "activation": "linear", "use_bias": true, "kernel_initializer": {"class_name": "RandomUniform", "config": {"minval": -0.041666666666666664, "maxval": 0.041666666666666664, "seed": null}}, "bias_initializer": {"class_name": "RandomUniform", "config": {"minval": -0.041666666666666664, "maxval": 0.041666666666666664, "seed": null}}, "kernel_regularizer": null, "bias_regularizer": null, "activity_regularizer": null, "kernel_constraint": null, "bias_constraint": null}, "name": "conv2d_112", "inbound_nodes": [[["add_11", 0, 0, {}]]]}, {"class_name": "Conv2D", "config": {"name": "conv2d_113", "trainable": true, "dtype": "float32", "filters": 21, "kernel_size": [5, 5], "strides": [1, 1], "padding": "same", "data_format": "channels_last", "dilation_rate": [1, 1], "groups": 1, "activation": "linear", "use_bias": true, "kernel_initializer": {"class_name": "RandomUniform", "config": {"minval": -0.025, "maxval": 0.025, "seed": null}}, "bias_initializer": {"class_name": "RandomUniform", "config": {"minval": -0.025, "maxval": 0.025, "seed": null}}, "kernel_regularizer": null, "bias_regularizer": null, "activity_regularizer": null, "kernel_constraint": null, "bias_constraint": null}, "name": "conv2d_113", "inbound_nodes": [[["add_11", 0, 0, {}]]]}, {"class_name": "Conv2D", "config": {"name": "conv2d_114", "trainable": true, "dtype": "float32", "filters": 21, "kernel_size": [7, 7], "strides": [1, 1], "padding": "same", "data_format": "channels_last", "dilation_rate": [1, 1], "groups": 1, "activation": "linear", "use_bias": true, "kernel_initializer": {"class_name": "RandomUniform", "config": {"minval": -0.017857142857142856, "maxval": 0.017857142857142856, "seed": null}}, "bias_initializer": {"class_name": "RandomUniform", "config": {"minval": -0.017857142857142856, "maxval": 0.017857142857142856, "seed": null}}, "kernel_regularizer": null, "bias_regularizer": null, "activity_regularizer": null, "kernel_constraint": null, "bias_constraint": null}, "name": "conv2d_114", "inbound_nodes": [[["add_11", 0, 0, {}]]]}, {"class_name": "Concatenate", "config": {"name": "concatenate_22", "trainable": true, "dtype": "float32", "axis": -1}, "name": "concatenate_22", "inbound_nodes": [[["conv2d_112", 0, 0, {}], ["conv2d_113", 0, 0, {}], ["conv2d_114", 0, 0, {}]]]}, {"class_name": "Conv2D", "config": {"name": "conv2d_115", "trainable": true, "dtype": "float32", "filters": 64, "kernel_size": [3, 3], "strides": [1, 1], "padding": "same", "data_format": "channels_last", "dilation_rate": [1, 1], "groups": 1, "activation": "linear", "use_bias": true, "kernel_initializer": {"class_name": "RandomUniform", "config": {"minval": -0.0419960525565808, "maxval": 0.0419960525565808, "seed": null}}, "bias_initializer": {"class_name": "RandomUniform", "config": {"minval": -0.0419960525565808, "maxval": 0.0419960525565808, "seed": null}}, "kernel_regularizer": null, "bias_regularizer": null, "activity_regularizer": null, "kernel_constraint": null, "bias_constraint": null}, "name": "conv2d_115", "inbound_nodes": [[["concatenate_22", 0, 0, {}]]]}, {"class_name": "ReLU", "config": {"name": "re_lu_11", "trainable": true, "dtype": "float32", "max_value": null, "negative_slope": 0.0, "threshold": 0.0}, "name": "re_lu_11", "inbound_nodes": [[["conv2d_115", 0, 0, {}]]]}, {"class_name": "Conv2D", "config": {"name": "conv2d_116", "trainable": true, "dtype": "float32", "filters": 21, "kernel_size": [3, 3], "strides": [1, 1], "padding": "same", "data_format": "channels_last", "dilation_rate": [1, 1], "groups": 1, "activation": "linear", "use_bias": true, "kernel_initializer": {"class_name": "RandomUniform", "config": {"minval": -0.041666666666666664, "maxval": 0.041666666666666664, "seed": null}}, "bias_initializer": {"class_name": "RandomUniform", "config": {"minval": -0.041666666666666664, "maxval": 0.041666666666666664, "seed": null}}, "kernel_regularizer": null, "bias_regularizer": null, "activity_regularizer": null, "kernel_constraint": null, "bias_constraint": null}, "name": "conv2d_116", "inbound_nodes": [[["re_lu_11", 0, 0, {}]]]}, {"class_name": "Conv2D", "config": {"name": "conv2d_117", "trainable": true, "dtype": "float32", "filters": 21, "kernel_size": [5, 5], "strides": [1, 1], "padding": "same", "data_format": "channels_last", "dilation_rate": [1, 1], "groups": 1, "activation": "linear", "use_bias": true, "kernel_initializer": {"class_name": "RandomUniform", "config": {"minval": -0.025, "maxval": 0.025, "seed": null}}, "bias_initializer": {"class_name": "RandomUniform", "config": {"minval": -0.025, "maxval": 0.025, "seed": null}}, "kernel_regularizer": null, "bias_regularizer": null, "activity_regularizer": null, "kernel_constraint": null, "bias_constraint": null}, "name": "conv2d_117", "inbound_nodes": [[["re_lu_11", 0, 0, {}]]]}, {"class_name": "Conv2D", "config": {"name": "conv2d_118", "trainable": true, "dtype": "float32", "filters": 21, "kernel_size": [7, 7], "strides": [1, 1], "padding": "same", "data_format": "channels_last", "dilation_rate": [1, 1], "groups": 1, "activation": "linear", "use_bias": true, "kernel_initializer": {"class_name": "RandomUniform", "config": {"minval": -0.017857142857142856, "maxval": 0.017857142857142856, "seed": null}}, "bias_initializer": {"class_name": "RandomUniform", "config": {"minval": -0.017857142857142856, "maxval": 0.017857142857142856, "seed": null}}, "kernel_regularizer": null, "bias_regularizer": null, "activity_regularizer": null, "kernel_constraint": null, "bias_constraint": null}, "name": "conv2d_118", "inbound_nodes": [[["re_lu_11", 0, 0, {}]]]}, {"class_name": "Concatenate", "config": {"name": "concatenate_23", "trainable": true, "dtype": "float32", "axis": -1}, "name": "concatenate_23", "inbound_nodes": [[["conv2d_116", 0, 0, {}], ["conv2d_117", 0, 0, {}], ["conv2d_118", 0, 0, {}]]]}, {"class_name": "Conv2D", "config": {"name": "conv2d_119", "trainable": true, "dtype": "float32", "filters": 64, "kernel_size": [3, 3], "strides": [1, 1], "padding": "same", "data_format": "channels_last", "dilation_rate": [1, 1], "groups": 1, "activation": "linear", "use_bias": true, "kernel_initializer": {"class_name": "RandomUniform", "config": {"minval": -0.0419960525565808, "maxval": 0.0419960525565808, "seed": null}}, "bias_initializer": {"class_name": "RandomUniform", "config": {"minval": -0.0419960525565808, "maxval": 0.0419960525565808, "seed": null}}, "kernel_regularizer": null, "bias_regularizer": null, "activity_regularizer": null, "kernel_constraint": null, "bias_constraint": null}, "name": "conv2d_119", "inbound_nodes": [[["concatenate_23", 0, 0, {}]]]}, {"class_name": "TensorFlowOpLayer", "config": {"name": "Mean_11", "trainable": true, "dtype": "float32", "node_def": {"name": "Mean_11", "op": "Mean", "input": ["conv2d_119/BiasAdd", "Mean_11/reduction_indices"], "attr": {"Tidx": {"type": "DT_INT32"}, "keep_dims": {"b": true}, "T": {"type": "DT_FLOAT"}}}, "constants": {"1": [1, 2]}}, "name": "tf_op_layer_Mean_11", "inbound_nodes": [[["conv2d_119", 0, 0, {}]]]}, {"class_name": "Conv2D", "config": {"name": "conv2d_120", "trainable": true, "dtype": "float32", "filters": 4, "kernel_size": [1, 1], "strides": [1, 1], "padding": "same", "data_format": "channels_last", "dilation_rate": [1, 1], "groups": 1, "activation": "relu", "use_bias": true, "kernel_initializer": {"class_name": "RandomUniform", "config": {"minval": -0.125, "maxval": 0.125, "seed": null}}, "bias_initializer": {"class_name": "RandomUniform", "config": {"minval": -0.125, "maxval": 0.125, "seed": null}}, "kernel_regularizer": null, "bias_regularizer": null, "activity_regularizer": null, "kernel_constraint": null, "bias_constraint": null}, "name": "conv2d_120", "inbound_nodes": [[["tf_op_layer_Mean_11", 0, 0, {}]]]}, {"class_name": "Conv2D", "config": {"name": "conv2d_121", "trainable": true, "dtype": "float32", "filters": 64, "kernel_size": [1, 1], "strides": [1, 1], "padding": "same", "data_format": "channels_last", "dilation_rate": [1, 1], "groups": 1, "activation": "sigmoid", "use_bias": true, "kernel_initializer": {"class_name": "RandomUniform", "config": {"minval": -0.5, "maxval": 0.5, "seed": null}}, "bias_initializer": {"class_name": "RandomUniform", "config": {"minval": -0.5, "maxval": 0.5, "seed": null}}, "kernel_regularizer": null, "bias_regularizer": null, "activity_regularizer": null, "kernel_constraint": null, "bias_constraint": null}, "name": "conv2d_121", "inbound_nodes": [[["conv2d_120", 0, 0, {}]]]}, {"class_name": "Multiply", "config": {"name": "multiply_11", "trainable": true, "dtype": "float32"}, "name": "multiply_11", "inbound_nodes": [[["conv2d_121", 0, 0, {}], ["conv2d_119", 0, 0, {}]]]}, {"class_name": "Add", "config": {"name": "add_12", "trainable": true, "dtype": "float32"}, "name": "add_12", "inbound_nodes": [[["multiply_11", 0, 0, {}], ["add_11", 0, 0, {}]]]}, {"class_name": "Conv2D", "config": {"name": "conv2d_122", "trainable": true, "dtype": "float32", "filters": 64, "kernel_size": [3, 3], "strides": [1, 1], "padding": "same", "data_format": "channels_last", "dilation_rate": [1, 1], "groups": 1, "activation": "linear", "use_bias": true, "kernel_initializer": {"class_name": "RandomUniform", "config": {"minval": -0.041666666666666664, "maxval": 0.041666666666666664, "seed": null}}, "bias_initializer": {"class_name": "RandomUniform", "config": {"minval": -0.041666666666666664, "maxval": 0.041666666666666664, "seed": null}}, "kernel_regularizer": null, "bias_regularizer": null, "activity_regularizer": null, "kernel_constraint": null, "bias_constraint": null}, "name": "conv2d_122", "inbound_nodes": [[["add_12", 0, 0, {}]]]}, {"class_name": "Add", "config": {"name": "add_13", "trainable": true, "dtype": "float32"}, "name": "add_13", "inbound_nodes": [[["conv2d_122", 0, 0, {}], ["add_6", 0, 0, {}]]]}, {"class_name": "Conv2D", "config": {"name": "conv2d_123", "trainable": true, "dtype": "float32", "filters": 64, "kernel_size": [3, 3], "strides": [1, 1], "padding": "same", "data_format": "channels_last", "dilation_rate": [1, 1], "groups": 1, "activation": "linear", "use_bias": true, "kernel_initializer": {"class_name": "RandomUniform", "config": {"minval": -0.041666666666666664, "maxval": 0.041666666666666664, "seed": null}}, "bias_initializer": {"class_name": "RandomUniform", "config": {"minval": -0.041666666666666664, "maxval": 0.041666666666666664, "seed": null}}, "kernel_regularizer": null, "bias_regularizer": null, "activity_regularizer": null, "kernel_constraint": null, "bias_constraint": null}, "name": "conv2d_123", "inbound_nodes": [[["add_13", 0, 0, {}]]]}, {"class_name": "Add", "config": {"name": "add_14", "trainable": true, "dtype": "float32"}, "name": "add_14", "inbound_nodes": [[["conv2d_123", 0, 0, {}], ["conv2d", 0, 0, {}]]]}, {"class_name": "Conv2D", "config": {"name": "conv2d_124", "trainable": true, "dtype": "float32", "filters": 576, "kernel_size": [3, 3], "strides": [1, 1], "padding": "same", "data_format": "channels_last", "dilation_rate": [1, 1], "groups": 1, "activation": "linear", "use_bias": true, "kernel_initializer": {"class_name": "RandomUniform", "config": {"minval": -0.041666666666666664, "maxval": 0.041666666666666664, "seed": null}}, "bias_initializer": {"class_name": "RandomUniform", "config": {"minval": -0.041666666666666664, "maxval": 0.041666666666666664, "seed": null}}, "kernel_regularizer": null, "bias_regularizer": null, "activity_regularizer": null, "kernel_constraint": null, "bias_constraint": null}, "name": "conv2d_124", "inbound_nodes": [[["add_14", 0, 0, {}]]]}, {"class_name": "TensorFlowOpLayer", "config": {"name": "DepthToSpace", "trainable": true, "dtype": "float32", "node_def": {"name": "DepthToSpace", "op": "DepthToSpace", "input": ["conv2d_124/BiasAdd"], "attr": {"block_size": {"i": "3"}, "data_format": {"s": "TkhXQw=="}, "T": {"type": "DT_FLOAT"}}}, "constants": {}}, "name": "tf_op_layer_DepthToSpace", "inbound_nodes": [[["conv2d_124", 0, 0, {}]]]}, {"class_name": "Conv2D", "config": {"name": "conv2d_125", "trainable": true, "dtype": "float32", "filters": 3, "kernel_size": [3, 3], "strides": [1, 1], "padding": "same", "data_format": "channels_last", "dilation_rate": [1, 1], "groups": 1, "activation": "linear", "use_bias": true, "kernel_initializer": {"class_name": "RandomUniform", "config": {"minval": -0.041666666666666664, "maxval": 0.041666666666666664, "seed": null}}, "bias_initializer": {"class_name": "RandomUniform", "config": {"minval": -0.041666666666666664, "maxval": 0.041666666666666664, "seed": null}}, "kernel_regularizer": null, "bias_regularizer": null, "activity_regularizer": null, "kernel_constraint": null, "bias_constraint": null}, "name": "conv2d_125", "inbound_nodes": [[["tf_op_layer_DepthToSpace", 0, 0, {}]]]}, {"class_name": "TensorFlowOpLayer", "config": {"name": "Conv2D_1", "trainable": true, "dtype": "float32", "node_def": {"name": "Conv2D_1", "op": "Conv2D", "input": ["conv2d_125/BiasAdd", "Conv2D_1/filter"], "attr": {"data_format": {"s": "TkhXQw=="}, "dilations": {"list": {"i": ["1", "1", "1", "1"]}}, "strides": {"list": {"i": ["1", "1", "1", "1"]}}, "explicit_paddings": {"list": {}}, "use_cudnn_on_gpu": {"b": true}, "padding": {"s": "U0FNRQ=="}, "T": {"type": "DT_FLOAT"}}}, "constants": {"1": [[[[1.0, 0.0, 0.0], [0.0, 1.0, 0.0], [0.0, 0.0, 1.0]]]]}}, "name": "tf_op_layer_Conv2D_1", "inbound_nodes": [[["conv2d_125", 0, 0, {}]]]}, {"class_name": "TensorFlowOpLayer", "config": {"name": "AddV2_1", "trainable": true, "dtype": "float32", "node_def": {"name": "AddV2_1", "op": "AddV2", "input": ["Conv2D_1", "AddV2_1/y"], "attr": {"T": {"type": "DT_FLOAT"}}}, "constants": {"1": [114.44400024414062, 111.46050262451172, 103.0199966430664]}}, "name": "tf_op_layer_AddV2_1", "inbound_nodes": [[["tf_op_layer_Conv2D_1", 0, 0, {}]]]}], "input_layers": [["input_1", 0, 0]], "output_layers": [["tf_op_layer_AddV2_1", 0, 0]]}, "keras_version": "2.4.0", "backend": "tensorflow"}